tmp/edge-cdp-profile/EdgeOnnxRuntimeDirectML/1.19.2.0/VideoSuperResolution-DXM-FP16.onnx (onnx, 11003 bytes, 11 tensors)

conv1.weight f2 [8, 3, 3, 3]
00000000: 2c30 3ab1 9ead 89ac c9a9 58af 052c f630
00000010: 122d 3731 1b30 4595 2ab1 6533 1f2d 2332
00000020: d432 5733 cb2c ceb1 789c 1ba9 6431 5dae
00000030: b6a6 5fae c82d 76b2 7cb2 5e30 ba28 2c2f
00000040: 7627 7625 ba30 d0ac e321 77ab 55b0 2bb2
00000050: 3bac efad 86b1 2732 6595 3330 e72c b530
00000060: f8af c932 1733 3caa 1833 f032 caa5 2323
00000070: 1233 2fb0 662d 2cac f3b1 27b1 0531 0b31
00000080: a6aa 0432 a2b0 33b3 fd98 6b2c 7223 dc27
00000090: 14b0 fe30 f2aa 0fb4 e3b0 102a cfb2 b5ac
000000a0: 4eaa 2f30 cdb0 22ae 6031 0533 8732 2cae
000000b0: 5032 0332 ad2e ca30 172b c831 ccae 0f32
000000c0: 15a2 34b1 0db0 06ae c02b bca5 f42d cd2c
000000d0: d5aa fdac 0632 b3ac 589b 08b1 3a2d 27ac
000000e0: 7e30 1b21 d131 7d2c 2531 542f 0a2a e5ad
000000f0: 56b1 f82b d8b2 e0ac cbb1 16a7 36ae c0b0
00000100: 95ab 85ae 4a2c b82f 71b0 7eab 45ae 5aab
00000110: c732 24ac d933 fa33 162e 3b2c 2431 cd2c
00000120: b5ac 3a31 0831 3c31 1332 27aa ecb0 f732
00000130: a5a7 3ea8 3c29 78aa 172d 4732 b2b0 1bac
00000140: 0629 e4b0 45a3 6c28 1eb2 60b0 49a3 06aa
00000150: 7c30 15b1 75b2 b731 acb0 e32f 1e33 0aa9
00000160: 8830 1531 61b0 e529 2d25 1b20 b6ad b524
00000170: fbae 531d 0b30 182f 26b1 76b1 8e2c 79b0
00000180: f72e 6926 6fb0 7aaa 5cb1 432d 66b0 3128
00000190: 9fa8 18b2 3aa0 9d2e a3ae 362f 6db1 622c
000001a0: 5e31 f3af 9230 48af e2ae 3f30 0eb1 ad9c
0.1304 -0.1633 -0.08777 -0.07086 -0.0452 -0.11475 0.0628 0.155
0.0792 0.163 0.1283 -0.0012865 -0.1614 0.2311 0.08 0.1918
0.2134 0.2294 0.0749 -0.1814 -0.004364 -0.0399 0.1685 -0.0994
-0.02621 -0.09955 0.09033 -0.2019 -0.2026 0.1365 0.03693 0.11206
0.02914 0.02133 0.1477 -0.0752 0.0115 -0.05832 -0.1354 -0.1927
-0.0661 -0.0927 -0.1726 0.1923 -0.001317 0.1312 0.0766 0.1471
-0.1245 0.212 0.2216 -0.0487 0.2217 0.2168 -0.02261 0.01394
0.221 -0.1307 0.08435 -0.0652 -0.1859 -0.161 0.1569 0.1576
-0.05194 0.188 -0.1448 -0.225 -0.002436 0.06903 0.01454 0.0307
-0.1274 0.156 -0.05426 -0.2537 -0.1527 0.04736 -0.2128 -0.07355
-0.04926 0.1307 -0.15 -0.0958 0.168 0.2194 0.204 -0.09644
0.1973 0.1879 0.1043 0.1497 0.0554 0.1807 -0.1062 0.1893
-0.01188 -0.1626 -0.1266 -0.0941 0.06055 -0.0224 0.093 0.075
-0.05338 -0.07794 0.1882 -0.0734 -0.003586 -0.1572 0.08167 -0.0649
0.1404 0.00997 0.1818 0.0701 0.1608 0.1145 0.04718 -0.0921
-0.1667 0.06226 -0.2139 -0.0762 -0.181 -0.02768 -0.09705 -0.1484
-0.05923 -0.10187 0.067 0.1206 -0.1388 -0.05853 -0.09796 -0.05743
0.2118 -0.0647 0.2452 0.2493 0.0951 0.0661 0.1606 0.075
-0.07355 0.1633 0.1572 0.1636 0.1898 -0.04807 -0.1538 0.2177
-0.02986 -0.03314 0.0409 -0.05054 0.0795 0.1962 -0.1467 -0.06415
0.03925 -0.1528 -0.0142 0.03455 -0.1912 -0.1367 -0.01423 -0.04706
0.1401 -0.1588 -0.2018 0.1786 -0.146 0.1232 0.2224 -0.03937
0.1416 0.1588 -0.1368 0.04605 0.02022 0.00802 -0.08923 0.01839
-0.1091 0.0052 0.1263 0.11084 -0.1609 -0.1707 0.07117 -0.1398
0.1088 0.02504 -0.1385 -0.0506 -0.1675 0.0822 -0.1375 0.03275
-0.0361 -0.1904 -0.008255 0.10333 -0.1037 0.1127 -0.1696 0.0685
0.1677 -0.1242 0.1428 -0.1138 -0.10754 0.1327 -0.158 -0.004566

conv1.bias f2 [8]
00000000: 7d2d 1da9 5d32 b130 47ac b7ad 24b1 c2ac
0.08575 -0.03995 0.1989 0.1466 -0.06683 -0.0893 -0.1606 -0.07434

RDB1.conv1.weight f2 [8, 8, 3, 3]
00000000: 7828 4126 9ead 39a7 692d 4517 3529 012d
00000010: 9a27 32ae 7a2c e3ae cc28 412f 5ba9 0525
00000020: e127 a9ab 7f2c 9aa6 c718 2caf 9fad 7528
00000030: c92c c3b0 8ea3 ad2d cf25 412b d1ac b728
00000040: f729 2e2c 0b28 812c 502f e92f 4c2c be1b
00000050: d9a4 1b28 9c2a c12d ea2a 189f edac 1aa9
00000060: 8727 7729 222e c5a5 f4ad 862c e0a5 5cad
00000070: 42ac 8b2c 732d 44af 9aa8 d22c efa9 2fac
00000080: 1022 fc19 6a2d 3d2c 719e b1a6 d2a8 d5ad
00000090: c72c 62b0 5119 aca2 7131 98ad e218 a9ae
000000a0: c9a4 de2a 4025 922e a02a 3732 0eb1 efae
000000b0: 8ea7 55a9 9b29 232a bf2e 7dae 6bb2 35b4
000000c0: a7ae e031 1fa6 e1a8 f429 022e 2cae 2030
000000d0: de20 67aa 7b29 d0ae 632f 899d fba8 192d
000000e0: 2428 e9a6 2da7 ea95 1e30 4f82 ada2 42ab
000000f0: bc2c 8e33 3930 1aa8 482c d79f a72c 382d
00000100: a6ad 34a9 c5af 2033 18a8 0db1 2c30 822b
00000110: 4e28 5a28 6e28 58a8 c027 3794 a324 22ab
00000120: 0c2d 42af d22f b2a1 4a2c 48ab 5322 1f2a
00000130: e82b 2ea5 3f2c f12d da30 ebac 6027 c0af
00000140: 54a8 652e 2730 eb26 d1a1 5021 1e2c e825
00000150: 792e dea8 09b2 ba28 e5a9 9c21 3a2e 862c
00000160: 842e c8a9 2ca3 0faf 45a3 d92e 6f30 9c28
00000170: 7228 b4a8 6a2a 092f 072f 78ad 7c2d 8c29
00000180: f429 452a 42ae 132c da2c a0a9 44af 162c
00000190: 1dae 2b2e 752e 46aa 122a 76aa e0aa 0799
000001a0: 4e2c d7aa e7a5 862d 1f28 a624 1914 83ad
000001b0: a326 422e dd2d 99ac 6019 3d2e 7eb0 f2ae
000001c0: 55aa c3aa b6ac 70a7 24a9 26b0 0e26 4caf
000001d0: cda7 552e b82d 3624 02ac 9698 c92b e229
000001e0: 3c2a 47a9 a4ac 0ead 3b29 4c1a 0aaa a9a6
000001f0: f8a8 0a2d aea7 852f 5128 ac28 dfad e928
0.0349 0.02443 -0.08777 -0.02821 0.08453 0.001775 0.04068 0.0782
0.0297 -0.0968 0.06995 -0.1076 0.03748 0.11334 -0.04184 0.0196
0.03078 -0.05984 0.07025 -0.02579 0.002333 -0.11206 -0.0878 0.03482
0.07477 -0.1488 -0.014755 0.0887 0.02269 0.05667 -0.07526 0.03683
0.0466 0.0653 0.0316 0.0704 0.11426 0.1236 0.06714 0.00378
-0.01894 0.03207 0.05164 0.0899 0.05402 -0.006927 -0.07697 -0.03986
0.0294 0.0427 0.0958 -0.02254 -0.093 0.0707 -0.02295 -0.08374
-0.0665 0.071 0.08514 -0.1135 -0.03595 0.0753 -0.04636 -0.06537
0.01184 0.002922 0.0846 0.0662 -0.00629 -0.02614 -0.03766 -0.0911
0.07465 -0.137 0.002596 -0.01303 0.17 -0.0874 0.002384 -0.10406
-0.01869 0.05365 0.02051 0.10266 0.05176 0.1942 -0.158 -0.10834
-0.02951 -0.04166 0.0438 0.04794 0.1054 -0.1014 -0.2006 -0.263
-0.10394 0.1836 -0.02391 -0.03812 0.0465 0.0939 -0.09644 0.1289
0.00951 -0.05002 0.04282 -0.10645 0.1154 -0.005405 -0.0389 0.07965
0.03235 -0.027 -0.02803 -0.001444 0.1287 -3.52e-05 -0.01304 -0.0567
0.074 0.2361 0.132 -0.03204 0.0669 -0.007656 0.0727 0.08154
-0.08826 -0.04065 -0.1214 0.2227 -0.03198 -0.1578 0.1304 0.05865
0.03363 0.034 0.0346 -0.03394 0.03027 -0.001029 0.01811 -0.05573
0.07886 -0.1134 0.1222 -0.01112 0.067 -0.0569 0.01235 0.04782
0.06177 -0.02023 0.06635 0.09283 0.1516 -0.07684 0.02881 -0.1211
-0.0338 0.0999 0.1298 0.02702 -0.01136 0.010376 0.06433 0.02307
0.10114 -0.03802 -0.1886 0.03693 -0.04605 0.010956 0.0973 0.0707
0.1018 -0.04517 -0.01401 -0.1103 -0.0142 0.107 0.1385 0.036
0.03473 -0.03674 0.0501 0.1099 0.1098 -0.08545 0.0857 0.04333
0.0465 0.04898 -0.0978 0.06366 0.0758 -0.04395 -0.1135 0.06384
-0.0955 0.0964 0.1009 -0.049 0.04742 -0.05048 -0.0537 -0.002455
0.06726 -0.05344 -0.02306 0.0863 0.0322 0.01816 0.001 -0.0861
0.02592 0.0978 0.0916 -0.07184 0.002625 0.0975 -0.1404 -0.1085
-0.04947 -0.05283 -0.0736 -0.02905 -0.04016 -0.1296 0.02365 -0.114
-0.03047 0.09894 0.08936 0.01645 -0.0626 -0.00224 0.06082 0.04596
0.0487 -0.04123 -0.0725 -0.079 0.04086 0.003075 -0.04718 -0.02602
-0.03882 0.07874 -0.03 0.1175 0.03372 0.0365 -0.09174 0.03836

RDB1.conv1.bias f2 [8]
00000000: 93ae a72b cc28 faa9 282c 2ca3 9b2e 6730
-0.1027 0.05978 0.03748 -0.0467 0.06494 -0.01401 0.1032 0.1376

RDB1.conv2.weight f2 [8, 16, 3, 3]
00000000: 372a 2cac 08ac ea98 6422 05ad b8ad 17a9
00000010: 5ea7 be20 e52b 1a2b 2417 1e9c f5a0 5aab
00000020: b9a8 9ea8 6ea5 0eaa e3aa 4da7 e025 a72d
00000030: 8a27 4d26 b0aa 2127 1c17 21ad feac 8ea3
00000040: 74a6 be28 2c2b 8127 ca28 3f27 49ac bea8
00000050: 512d 96ab 80ab 7929 4aaa 8aa9 0bad e4aa
00000060: b927 1e29 d32a c1a2 bea6 9ca0 fd1f 0824
00000070: ada1 4623 0b2d 4729 9d2d f8ab f927 c027
00000080: 2aaa 32a9 a49d 402d ad21 6a28 772c 6ba4
00000090: f8ac d9a8 ee2a 2aac 8118 70ac e8ab 2da1
000000a0: 7929 27ad 79a5 9027 f7a9 3629 b497 662c
000000b0: 4fa9 5e2b 2716 e8a9 39ac fd29 97a1 76aa
000000c0: 45ac eca8 0cad 6a8c 60a9 122a 40a8 11aa
000000d0: bf21 1120 7f28 3923 1026 bdab d2aa 8328
000000e0: 94ad 8520 e1a8 fda9 811e 63aa 212a 159e
000000f0: c926 44a3 39a5 daac e0aa 632b bdac 31a8
00000100: 7ea9 7628 c525 c026 3bab 35aa c9a9 52a6
00000110: b9a7 09ad 14ad 5329 07a9 dba0 13a9 0926
00000120: 5229 b228 cda4 a8ab 132c 09ab ddaa 32a7
00000130: 48ad 20a8 64ad 1b99 3f90 a2a8 abab 6bac
00000140: 952a 18ac 032d b029 7d26 61a8 411d dbab
00000150: 181d ed2e 542d e02b cc29 06ad 7ea8 3d28
00000160: 65ac c629 9529 4ead 72a0 6e2b b41b 9ca5
00000170: ff2b 35a4 672c 242c 92aa 9ca7 a9a4 ccab
00000180: 9b29 4e2c 39ab 3fad 5624 2493 a6ac eaab
00000190: 5aaa 4c24 c729 0c2a 4fa2 589f 3427 929a
000001a0: 51a5 6323 fa2c fea2 3b2d c803 9da5 2f29
000001b0: 9da2 d6ac d728 f4ab 1e27 50ac 29a4 faa5
000001c0: cda8 779e 1398 78aa 16a7 d52c 0eac 6aa3
000001d0: cf9a af2a f8a8 682c 4528 212b 7f24 82a6
000001e0: 3522 c021 3829 c6ac f723 19ac e297 062a
000001f0: d029 2126 afac 5a27 a830 ecaf fbb2 df2f
0.04855 -0.0652 -0.063 -0.0024 0.01248 -0.0784 -0.08936 -0.03976
-0.02878 0.00926 0.06168 0.05548 0.001743 -0.00402 -0.00968 -0.05743
-0.0369 -0.03607 -0.02121 -0.0473 -0.0538 -0.02852 0.02295 0.0883
0.02945 0.02461 -0.05225 0.02785 0.001736 -0.08014 -0.078 -0.014755
-0.0252 0.03705 0.05603 0.02931 0.0374 0.0283 -0.06696 -0.03705
0.08307 -0.05927 -0.0586 0.04276 -0.04913 -0.04327 -0.0788 -0.05383
0.03017 0.03998 0.0533 -0.01319 -0.02634 -0.009 0.0078 0.01575
-0.011086 0.014206 0.0788 0.04123 0.0877 -0.06226 0.03114 0.03027
-0.04816 -0.0406 -0.00551 0.08203 0.011086 0.0345 0.06976 -0.01726
-0.07764 -0.03787 0.05414 -0.06506 0.0022 -0.06934 -0.06177 -0.01011
0.04276 -0.0805 -0.02138 0.02954 -0.0466 0.0407 -0.001881 0.0687
-0.04147 0.05756 0.001502 -0.04614 -0.066 0.04678 -0.01092 -0.05048
-0.0667 -0.03845 -0.07886 -0.0002694 -0.042 0.04742 -0.0332 -0.0474
0.01122 0.00794 0.03513 0.01411 0.02368 -0.06046 -0.05328 0.03525
-0.08716 0.00883 -0.03812 -0.04678 0.00635 -0.0499 0.04788 -0.00594
0.0265 -0.01419 -0.0204 -0.0758 -0.0537 0.0577 -0.07404 -0.03275
-0.0429 0.03485 0.02254 0.02637 -0.0565 -0.0485 -0.0452 -0.02469
-0.03017 -0.0787 -0.07935 0.0416 -0.03928 -0.00948 -0.03964 0.02357
0.04156 0.03668 -0.01875 -0.0598 0.06366 -0.05496 -0.05362 -0.0281
-0.0825 -0.03223 -0.0842 -0.002493 -0.0005183 -0.0362 -0.0599 -0.06903
0.05142 -0.06396 0.0783 0.04443 0.02534 -0.0342 0.00513 -0.06137
0.004974 0.1082 0.08325 0.06152 0.0453 -0.0785 -0.0351 0.0331
-0.06866 0.0451 0.0436 -0.0829 -0.00868 0.05804 0.003761 -0.02191
0.06247 -0.01643 0.0688 0.0647 -0.05133 -0.02972 -0.0182 -0.0609
0.0438 0.06726 -0.05643 -0.082 0.01694 -0.0008717 -0.07263 -0.06183
-0.04962 0.01678 0.04514 0.04724 -0.01232 -0.00717 0.02814 -0.003208
-0.02077 0.01443 0.07776 -0.01366 0.0817 5.77e-05 -0.02193 0.0405
-0.01292 -0.07556 0.0378 -0.06213 0.0278 -0.0674 -0.01625 -0.02335
-0.0375 -0.006313 -0.00199 -0.05054 -0.02768 0.0755 -0.06335 -0.01448
-0.003325 0.05222 -0.03882 0.06885 0.03336 0.0557 0.01756 -0.02542
0.01212 0.01123 0.04077 -0.0746 0.01556 -0.064 -0.0019245 0.04706
0.0454 0.02394 -0.0732 0.02872 0.1455 -0.1238 -0.2181 0.123

RDB1.conv2.bias f2 [8]
00000000: 79a9 11ac 5e26 222e 7819 c828 6d21 dda1
-0.04276 -0.06354 0.02487 0.0958 0.00267 0.03735 0.0106 -0.01145

RDB1.conv3.weight f2 [8, 24, 3, 3]
00000000: 4327 4823 08af adad 87a8 4723 02a0 12a6
00000010: 87a9 772d ff27 53a9 a82c 43b0 6e2c 0a28
00000020: 3828 4e29 56aa abb0 5327 34a2 dd2d 6b31
00000030: 49ab 6da9 2dae 702c 982d f922 be2a ad17
00000040: d11f e82a 76a1 a328 c12e d927 662c 829d
00000050: 032c 572a a82a 3a2e 23a1 5faa 889c b9aa
00000060: 652e 0fa9 3aa6 b2a4 ff28 9528 1cae b4af
00000070: 11ad c8b0 77a3 ebad 10ae eda8 68a4 2925
00000080: 1eac 2297 9da4 f82d ae17 7a97 31a0 72a1
00000090: 802c 3ba7 7116 baa8 a627 37a5 9029 b922
000000a0: 1821 862f 7031 e72e 352d 7baf 491d 472e
000000b0: f430 50a1 44ac 6ba9 122c c728 47a2 6528
000000c0: 91aa 0ca6 6421 3fa3 8fa5 c529 9a20 5129
000000d0: d29d 11a9 1aab 8b29 88a0 99ad 772b 59ac
000000e0: 9328 8ba9 6621 7b2b a120 8830 3bb1 6429
000000f0: af23 06b3 4d2d 6832 6432 1631 fb2d 5f30
00000100: f1aa a829 77ac 65b0 a01c 372e db9c ea21
00000110: 759d d52b 232a 3230 4b2c 0925 802d 0e2d
00000120: 1aac d929 65ac 421f 4196 dda9 ff2a e719
00000130: 232a ecb1 0735 61a6 5ab0 f332 d8af 4926
00000140: baa2 90ac da22 9ea3 821b d7ab caa1 0da4
00000150: 0f21 8d22 e324 2e26 9032 082c f625 04ac
00000160: 6029 1330 1128 0f2d 43ae 86b5 fd98 3733
00000170: 1e2d 6c37 7caf 5bb3 8fb5 4bad f12d acb1
00000180: 67ae f333 34b4 392b 4cad 7f2b fc1d 2030
00000190: d598 492f 12b7 aaa2 3631 028f 0535 962a
000001a0: daa9 50ab 2424 4229 66aa 2a28 732a aea1
000001b0: f5a5 e524 60a8 c827 04a0 e6ac c427 98ad
000001c0: 52ac 1e90 2ea9 8c2d e4ac a9ac 8216 bba6
000001d0: 6cad 33ac 611f 8da3 d5a3 ba9a 35a1 b424
000001e0: cea3 ac29 44a4 36a7 16a6 95ac 5ba8 6b19
000001f0: 90aa e6a9 1bae 2224 e3aa 9eaa 1c25 7c21
0.02837 0.01422 -0.10986 -0.0887 -0.03537 0.01421 -0.00783 -0.02371
-0.04318 0.0854 0.03123 -0.0416 0.07275 -0.1332 0.0692 0.03156
0.03296 0.04144 -0.0495 -0.1459 0.02861 -0.012115 0.0916 0.1693
-0.05692 -0.0424 -0.0965 0.06934 0.0874 0.01362 0.05267 0.001874
0.007633 0.05396 -0.010666 0.03622 0.1055 0.03065 0.0687 -0.00538
0.0627 0.04953 0.052 0.0973 -0.01003 -0.04977 -0.004425 -0.05252
0.0999 -0.03952 -0.02432 -0.01834 0.03903 0.0358 -0.09546 -0.12036
-0.07916 -0.1494 -0.01458 -0.09247 -0.0947 -0.03848 -0.01721 0.02016
-0.06433 -0.001741 -0.01802 0.09326 0.001875 -0.001825 -0.00819 -0.010635
0.0703 -0.02824 0.001573 -0.03693 0.02988 -0.02037 0.04346 0.01313
0.00995 0.11755 0.1699 0.10785 0.08136 -0.1169 0.00516 0.0981
0.1548 -0.010376 -0.06665 -0.04233 0.0636 0.03732 -0.01226 0.03433
-0.0513 -0.02362 0.01053 -0.01415 -0.02171 0.04507 0.00899 0.04153
-0.005684 -0.03958 -0.05548 0.0433 -0.00885 -0.08746 0.05832 -0.06793
0.03574 -0.0433 0.010544 0.05844 0.00904 0.1416 -0.1635 0.0421
0.01501 -0.2195 0.0828 0.2002 0.1997 0.1589 0.09344 0.1366
-0.05423 0.0442 -0.06976 -0.1373 0.004517 0.0971 -0.00474 0.01155
-0.00533 0.0612 0.04794 0.1311 0.0671 0.01967 0.08594 0.079
-0.0641 0.0457 -0.06866 0.007088 -0.001527 -0.0458 0.05466 0.002882
0.04794 -0.185 0.3142 -0.02492 -0.136 0.2172 -0.12256 0.02455
-0.01314 -0.0713 0.01338 -0.01488 0.003666 -0.06125 -0.01131 -0.01582
0.00988 0.012794 0.01909 0.02414 0.2051 0.063 0.02328 -0.06274
0.042 0.1273 0.03177 0.07904 -0.09784 -0.3452 -0.002436 0.2255
0.07996 0.4639 -0.11694 -0.2299 -0.3474 -0.0827 0.09283 -0.1772
-0.10004 0.2484 -0.2627 0.05643 -0.08276 0.05856 0.005844 0.1289
-0.00236 0.11383 -0.442 -0.013016 0.1628 -0.0004277 0.3137 0.05145
-0.04572 -0.05713 0.01617 0.04108 -0.05 0.03253 0.05038 -0.01109
-0.02327 0.01912 -0.03418 0.0304 -0.00784 -0.07654 0.03033 -0.0874
-0.0675 -0.0005026 -0.04047 0.0867 -0.0764 -0.0728 0.001589 -0.02629
-0.0847 -0.0656 0.007206 -0.01475 -0.0153 -0.003284 -0.01017 0.01837
-0.01524 0.0443 -0.01666 -0.02817 -0.02377 -0.0716 -0.03403 0.002645
-0.05127 -0.04608 -0.0954 0.01614 -0.0538 -0.0517 0.01996 0.01071

RDB1.conv3.bias f2 [8]
00000000: 4528 3e9f 9918 8caa a0a8 72a5 fd93 52aa
0.03336 -0.007072 0.002245 -0.05115 -0.03613 -0.02127 -0.000975 -0.04938

conv_final.weight f2 [12, 8, 3, 3]
00000000: cb26 bc2b 20a9 c82b 132f 09b4 4526 24ac
00000010: 9fa2 f026 fdad 1db1 812e c030 77ac 342d
00000020: d2ae b7ac b730 9aaa b42c 27a5 a4b1 24af
00000030: a927 ae32 c52a d221 79a9 ce2e 8b25 b61c
00000040: 3d31 05a6 df2f dda0 19a5 e5b1 66a7 d62d
00000050: 3b8e 05aa dfa3 6327 7d23 d3a4 04ae 8aa9
00000060: ef15 d435 0130 c2a4 a29f 58a5 81b0 1db0
00000070: 142a fd26 8aa8 1cb0 c6a8 ccb0 b226 502a
00000080: 6d29 92ae cbab 899c a62c 10ad 3bb0 13ae
00000090: 57a8 5c21 3f1d c9b1 9630 25a8 6f29 57a7
000000a0: 93aa a21c b22c 57a0 0bb0 c325 2aa8 cdaf
000000b0: 0626 d9a3 e89f 27aa 4ea8 ea9a 692a e7b3
000000c0: 662d 032a d2a8 252e 1ea8 b22c 822d eb28
000000d0: 682c 482c cc28 bd2d 0229 d0ad e1a8 332c
000000e0: 0fb0 9429 3922 d22a 079c 4ba9 a8a9 0aa1
000000f0: 86ab ef34 4134 fcac 50a9 9f28 4a29 c529
00000100: 00ab acad 6f24 aca3 a0ae cba7 68af 152c
00000110: 5baa 9f25 a3a8 76ad 89b0 7427 90ac 4ba6
00000120: c9aa 22ad 2faf ee2c 6032 66b0 6e2e 310e
00000130: e7ae 092b ef2b 1da4 ca2d a22e db05 742b
00000140: b1a9 17ae 4e2e 5530 3a29 142c 0fab 23af
00000150: 652f 472c 1cb0 d42a aba9 be98 f02e 4029
00000160: ec2f 9399 fc25 cc8a dda0 e1ab d22a 1a25
00000170: 81ae f3a9 9f29 4326 3f28 52a8 65b1 9e2b
00000180: caa7 2432 e528 b5ac e531 e829 6cab 7627
00000190: 0925 cfa6 b8ab 6396 b9ae 84ae cfae 0ab0
000001a0: 2328 1ba9 399c 43af 43a2 c6ad 2eac 41ac
000001b0: 77aa 78b1 3bae a9ae 3f34 e5a4 9ca6 1424
000001c0: 92a3 712d 792a 85ae 98af 5f28 2929 082d
000001d0: fd30 09ac 341f 692f 3624 a4ab a028 79af
000001e0: 072c f02b 0eac 8728 09aa 6624 91a6 d331
000001f0: 3e1f 3630 6b2d cc99 851d a5ac 45a8 6c9e
0.02654 0.06042 -0.04004 0.0608 0.11053 -0.2522 0.02449 -0.0647
-0.01293 0.0271 -0.09357 -0.1598 0.1016 0.1484 -0.06976 0.0813
-0.10657 -0.07367 0.1473 -0.05157 0.0735 -0.02013 -0.1763 -0.1116
0.02992 0.2087 0.0529 0.01137 -0.04276 0.1063 0.02165 0.0046
0.1637 -0.02351 0.123 -0.0095 -0.01991 -0.1842 -0.0289 0.0912
-0.0003803 -0.04703 -0.01537 0.02885 0.014626 -0.01884 -0.094 -0.04327
0.001449 0.3643 0.1251 -0.01859 -0.007454 -0.02087 -0.1407 -0.1285
0.0475 0.0273 -0.03546 -0.1284 -0.0373 -0.1499 0.02615 0.04932
0.0424 -0.10266 -0.06088 -0.00443 0.07263 -0.0791 -0.1322 -0.0949
-0.0339 0.01047 0.005123 -0.1808 0.1433 -0.03238 0.04245 -0.02867
-0.05136 0.004524 0.07336 -0.00848 -0.1263 0.0225 -0.03253 -0.1219
0.02353 -0.01533 -0.00772 -0.04807 -0.03363 -0.003376 0.05008 -0.247
0.08435 0.04697 -0.03766 0.096 -0.03217 0.07336 0.08606 0.03842
0.06885 0.0669 0.03748 0.08966 0.03912 -0.0908 -0.03812 0.0656
-0.1268 0.04358 0.01215 0.05328 -0.003933 -0.04135 -0.0442 -0.00984
-0.05878 0.3083 0.2659 -0.0779 -0.0415 0.0361 0.04132 0.04507
-0.0547 -0.0886 0.01732 -0.014984 -0.1035 -0.03044 -0.1157 0.0638
-0.04965 0.02196 -0.03622 -0.0853 -0.1417 0.02911 -0.0713 -0.02458
-0.053 -0.0802 -0.11224 0.077 0.1992 -0.1375 0.10046 0.000378
-0.10785 0.05496 0.06198 -0.01607 0.09045 0.10364 8.935e-05 0.05823
-0.04446 -0.09515 0.0985 0.1354 0.04083 0.0637 -0.05515 -0.1115
0.11554 0.06683 -0.1284 0.05334 -0.04428 -0.002316 0.1084 0.04102
0.1238 -0.002722 0.02338 -0.0002074 -0.0095 -0.06155 0.05328 0.01993
-0.1016 -0.04648 0.0439 0.02446 0.03317 -0.03375 -0.1686 0.0595
-0.03043 0.1919 0.03824 -0.07355 0.1842 0.04614 -0.05798 0.02914
0.01967 -0.0266 -0.0603 -0.001559 -0.10504 -0.1018 -0.1064 -0.1262
0.03232 -0.0399 -0.004124 -0.11346 -0.01223 -0.0902 -0.0653 -0.06647
-0.0505 -0.1709 -0.09735 -0.10406 0.2654 -0.01912 -0.02582 0.01593
-0.014786 0.085 0.05057 -0.10187 -0.11865 0.03415 0.0403 0.0786
0.1559 -0.06305 0.007034 0.1158 0.01645 -0.0597 0.03613 -0.11676
0.0629 0.062 -0.06335 0.03537 -0.04715 0.01718 -0.02565 0.182
0.007072 0.1316 0.08466 -0.00283 0.00539 -0.0726 -0.03336 -0.00627

conv_final.bias f2 [12]
00000000: ad15 262a 2ea5 e39d e429 06a3 3a9d 88ac
00000010: 20a7 149f fba4 8629
0.001386 0.04803 -0.02023 -0.00575 0.04602 -0.01372 -0.005104 -0.0708
-0.02783 -0.006912 -0.01945 0.04315

33 f4 [4]
00000000: 0000 803f 0000 803f 0000 0040 0000 0040
1.0 1.0 2.0 2.0
