tmp/edge-cdp-profile/EdgeOnnxRuntimeDirectML/1.19.2.0/VideoSuperResolution-E-FP16.onnx (onnx, 83895 bytes, 37 tensors)

0.head.0.weight f2 [16, 3, 3, 3]
0	0x958d	-0.001355
1	0x2e12	0.09485
2	0xad6d	-0.0848
3	0x28a5	0.0363
4	0xb34b	-0.2279
5	0x308d	0.1422
6	0xb079	-0.1398
7	0xac4b	-0.0671
8	0x2dc1	0.0899
9	0x311b	0.1595
10	0xa984	-0.0431
11	0x2e43	0.09784
12	0x302a	0.1301
13	0xb097	-0.1434
14	0xafe2	-0.12317
15	0x2d35	0.08136
16	0x2ec0	0.10547
17	0x2bdf	0.0615
18	0x2677	0.02525
19	0x3010	0.127
20	0xa9a9	-0.04422
21	0x269d	0.02583
22	0xa9d7	-0.04562
23	0x2d52	0.0831
24	0x263a	0.02432
25	0xb010	-0.127
26	0xaec1	-0.1055
27	0x17a6	0.001867
28	0xa8a1	-0.03616
29	0x2b53	0.05722
30	0x3130	0.1621
31	0x3327	0.2235
32	0xa262	-0.01247
33	0x2bf5	0.06216
34	0x2320	0.013916
35	0x2881	0.0352
36	0x2348	0.01422
37	0xb114	-0.1587
38	0xa919	-0.03983
39	0x31aa	0.177
40	0xb431	-0.262
41	0xb0a7	-0.1454
42	0xae0f	-0.09467
43	0x2e63	0.0998
44	0xaf72	-0.11633
45	0xa28d	-0.012794
46	0x2f03	0.10956
47	0xac5b	-0.06805
48	0x2822	0.0323
49	0xb541	-0.3284
50	0xb09e	-0.1443
51	0x2881	0.0352
52	0xb00b	-0.1263
53	0x3045	0.1334
54	0x290e	0.0395
55	0x2866	0.03436
56	0xafd6	-0.12244
57	0x2210	0.01184
58	0x35ca	0.3618
59	0x2c72	0.06946
60	0xaeef	-0.10834
61	0x2e2d	0.0965
62	0x9c95	-0.004475
63	0x3008	0.126
64	0x2047	0.008354
65	0x2e38	0.09717
66	0xa9c2	-0.04498
67	0xb1b9	-0.1788
68	0xac2f	-0.06537
69	0x9b78	-0.003647
70	0x2f07	0.1098
71	0x2db2	0.089
72	0xa58a	-0.02164
73	0xac86	-0.0707
74	0x280b	0.0316
75	0xa93c	-0.0409
76	0xae32	-0.0968
77	0x2c2e	0.0653
78	0x2c0d	0.0633
79	0xa972	-0.04254
80	0xafd4	-0.1223
81	0xac3c	-0.06616
82	0xaeeb	-0.1081
83	0x3100	0.1562
84	0x2879	0.03494
85	0xb742	-0.4536
86	0xaf70	-0.1162
87	0x26b0	0.02612
88	0xa908	-0.0393
89	0x2ef1	0.10846
90	0x2880	0.03516
91	0x29d1	0.04544
92	0xa8ce	-0.03754
93	0xb208	-0.1885
94	0xb10c	-0.1577
95	0x2aca	0.05304
96	0x265e	0.02487
97	0xad1d	-0.0799
98	0xa511	-0.01979
99	0xabeb	-0.06186
100	0x2f48	0.1138
101	0xa2fe	-0.01366
102	0x2ae6	0.0539
103	0x356f	0.3396
104	0x3085	0.1412
105	0xad07	-0.07855
106	0x2941	0.04105
107	0xadb8	-0.08936
108	0xa683	-0.02544
109	0x3072	0.1389
110	0x2b89	0.05887
111	0x2572	0.02127
112	0x2642	0.02444
113	0xb1f0	-0.1855
114	0xad57	-0.08344
115	0x28a1	0.03616
116	0x2d55	0.0833
117	0xaa86	-0.05096
118	0xb018	-0.1279
119	0x2d70	0.08496
120	0x2348	0.01422
121	0x31aa	0.177
122	0x2f01	0.10944
123	0x2f78	0.1167
124	0x2792	0.02957
125	0xa2d8	-0.01337
126	0xab7d	-0.0585
127	0xaa55	-0.04947
128	0x1c30	0.00409
129	0xa8d0	-0.0376
130	0x34bc	0.296
131	0x2e99	0.1031
132	0xad2e	-0.08093
133	0x2983	0.04306
134	0xab52	-0.0572
135	0xa9da	-0.04572
136	0xae01	-0.0938
137	0x309b	0.1439
138	0x2a40	0.04883
139	0x2af6	0.05438
140	0x28e2	0.03815
141	0xabd0	-0.06104
142	0xacc3	-0.0744
143	0x1fa9	0.00748
144	0x2a5a	0.04962
145	0x2181	0.01075
146	0xae58	-0.0991
147	0xa9e3	-0.046
148	0x37a1	0.4768
149	0x3065	0.1373
150	0xac0f	-0.0634
151	0xafff	-0.12494
152	0xac14	-0.0637
153	0xaa00	-0.04688
154	0x2c24	0.0647
155	0xa7a1	-0.0298
156	0xb015	-0.1276
157	0xb338	-0.2256
158	0xb225	-0.192
159	0x240c	0.01581
160	0x2d93	0.0871
161	0x3002	0.1252
162	0x2dec	0.0925
163	0xa798	-0.02966
164	0x26a0	0.02588
165	0xacaf	-0.0732
166	0xa68c	-0.02557
167	0xac20	-0.06445
168	0xa24b	-0.01229
169	0x2f04	0.1096
170	0xa26a	-0.01253
171	0xabec	-0.0619
172	0x3080	0.1406
173	0x2890	0.03564
174	0x32c9	0.212
175	0xafa7	-0.11957
176	0x31e3	0.184
177	0x2de1	0.09186
178	0xab57	-0.05734
179	0x2bc9	0.06082
180	0x2943	0.0411
181	0xb03c	-0.1323
182	0xa8dd	-0.038
183	0xad1d	-0.0799
184	0xb334	-0.2251
185	0xa7af	-0.03001
186	0xae58	-0.0991
187	0xa75e	-0.02878
188	0xaceb	-0.07684
189	0x2d9d	0.0877
190	0x2cdc	0.0759
191	0xb164	-0.1685
192	0xad4d	-0.0828
193	0xa4c7	-0.01866
194	0x2bea	0.06183
195	0xac03	-0.0627
196	0x2a6c	0.05017
197	0xacb1	-0.0733
198	0x31c1	0.1798
199	0xb0ed	-0.1539
200	0x2744	0.02838
201	0xb0ba	-0.1477
202	0xb10a	-0.1575
203	0xb1ed	-0.1852
204	0x2f8c	0.1179
205	0xb238	-0.1943
206	0xa72e	-0.02805
207	0xa4dc	-0.01898
208	0x3023	0.1293
209	0xaff8	-0.1245
210	0x3147	0.1649
211	0x1ac8	0.003311
212	0x2c45	0.0667
213	0xad76	-0.0853
214	0x2f79	0.11676
215	0x2a5d	0.0497
216	0x3117	0.159
217	0xa5f3	-0.02324
218	0xaaeb	-0.05405
219	0xad58	-0.0835
220	0x3074	0.1392
221	0xb135	-0.1627
222	0x2f96	0.1185
223	0xb00f	-0.1268
224	0x3046	0.1335
225	0x2093	0.008934
226	0x2d78	0.08545
227	0x2414	0.01593
228	0xaac5	-0.0529
229	0x34f5	0.3098
230	0xb397	-0.2372
231	0x9d60	-0.00525
232	0xb0c1	-0.1486
233	0x2995	0.0436
234	0xab16	-0.05536
235	0x28c4	0.03723
236	0x293c	0.0409
237	0x25d7	0.02281
238	0x2d7e	0.0858
239	0x2f1f	0.11127
240	0xac37	-0.06586
241	0x316a	0.1692
242	0xb122	-0.1604
243	0xaf57	-0.1147
244	0x2d57	0.08344
245	0x2dd5	0.0911
246	0x3052	0.135
247	0xad83	-0.0861
248	0x318e	0.1736
249	0x2a34	0.04846
250	0xa756	-0.02866
251	0xa8b2	-0.03668
252	0x2eb1	0.10455
253	0xb15d	-0.1676
254	0x2487	0.01768
255	0xb142	-0.1643

0.head.0.bias f2 [16]
0	0xad16	-0.07947
1	0x2b1d	0.05557
2	0xaf8b	-0.11786
3	0x24cb	0.01872
4	0xaa25	-0.048
5	0x2664	0.02496
6	0xad63	-0.08417
7	0xa196	-0.01091
8	0xb08a	-0.1418
9	0xa982	-0.04303
10	0x288a	0.03546
11	0x2d3f	0.082
12	0x98a1	-0.00226
13	0x26f6	0.02719
14	0x277b	0.02922
15	0xb0ce	-0.1501

0.body.0.body.0.body.0.weight f2 [16, 16, 3, 3]
0	0x9822	-0.002018
1	0xb30d	-0.2203
2	0x2925	0.0402
3	0x2dc1	0.0899
4	0xb2c8	-0.2119
5	0x366e	0.4019
6	0x2d1c	0.07983
7	0x2e77	0.101
8	0xb221	-0.1915
9	0xac12	-0.0636
10	0xaff9	-0.1246
11	0x2c2a	0.06506
12	0x253b	0.02043
13	0x3120	0.1602
14	0x3495	0.2864
15	0xadd9	-0.0914
16	0x2ce8	0.07666
17	0x311a	0.1594
18	0xaacc	-0.0531
19	0x3014	0.1274
20	0xb044	-0.1333
21	0xaccb	-0.0749
22	0x9d2f	-0.005062
23	0xaae6	-0.0539
24	0xa854	-0.0338
25	0x2b2d	0.05606
26	0x2d2d	0.0809
27	0xa95d	-0.0419
28	0xa541	-0.02052
29	0x28ae	0.03656
30	0xa33d	-0.01414
31	0xb1ac	-0.1772
32	0x2a3d	0.04874
33	0xa57c	-0.02142
34	0xa943	-0.0411
35	0x2c93	0.0715
36	0x224b	0.01229
37	0x25e5	0.02303
38	0xac2f	-0.06537
39	0x2ea4	0.10376
40	0x15a2	0.001375
41	0xae7b	-0.10126
42	0xa891	-0.03568
43	0xa362	-0.01442
44	0xa670	-0.02515
45	0x2a22	0.0479
46	0xaa28	-0.0481
47	0x2100	0.009766
48	0x235c	0.01437
49	0x3823	0.517
50	0xb95c	-0.67
51	0xae25	-0.096
52	0x305e	0.1365
53	0xb191	-0.174
54	0x258b	0.02165
55	0xa359	-0.01435
56	0x2baf	0.06003
57	0xae73	-0.10077
58	0xa460	-0.01709
59	0x2c59	0.06793
60	0x23c3	0.01516
61	0xac89	-0.07086
62	0xab9f	-0.05954
63	0x284c	0.03357
64	0x2c18	0.06396
65	0x1976	0.002666
66	0xae5e	-0.0995
67	0xb087	-0.1415
68	0xabf3	-0.0621
69	0xab4c	-0.057
70	0x2e62	0.09973
71	0x2abc	0.0526
72	0x2863	0.03427
73	0x2d4e	0.0829
74	0x2e6d	0.1004
75	0x25d7	0.02281
76	0x35b4	0.3564
77	0xb65f	-0.3982
78	0x2926	0.04022
79	0x3028	0.1299
80	0xb04c	-0.1343
81	0xaa46	-0.049
82	0xb20a	-0.1887
83	0x2fc0	0.1211
84	0xb019	-0.128
85	0xb82e	-0.5225
86	0x355e	0.3354
87	0xad4d	-0.0828
88	0x2ea9	0.10406
89	0xaa6e	-0.05023
90	0xab12	-0.05524
91	0xa9b0	-0.04443
92	0x3155	0.1666
93	0xac8a	-0.0709
94	0xaafd	-0.0546
95	0xaa0b	-0.0472
96	0xa1cc	-0.01132
97	0x2872	0.03473
98	0xb390	-0.2363
99	0xac50	-0.0674
100	0xacf9	-0.0777
101	0x2999	0.04373
102	0x2f13	0.11053
103	0x2dfa	0.0934
104	0xa2cc	-0.013275
105	0xa8c8	-0.03735
106	0x2ee7	0.10785
107	0x2842	0.03326
108	0xa2e3	-0.01345
109	0xa72e	-0.02805
110	0x2a5e	0.04974
111	0x2c26	0.0648
112	0x2ce3	0.07635
113	0xa66c	-0.02509
114	0x2c22	0.0646
115	0x9562	-0.001314
116	0x2655	0.02473
117	0x2551	0.02077
118	0xad3f	-0.082
119	0xa670	-0.02515
120	0xae53	-0.0988
121	0x3127	0.161
122	0xb019	-0.128
123	0xa486	-0.01767
124	0xa9ef	-0.04636
125	0x2cb5	0.07355
126	0x1765	0.001805
127	0xb165	-0.1686
128	0x2d4e	0.0829
129	0x2812	0.0318
130	0x2dc8	0.09033
131	0x12b7	0.0008197
132	0x9e25	-0.006
133	0x2bb1	0.0601
134	0xaa76	-0.05048
135	0xa8a5	-0.0363
136	0x273d	0.02827
137	0xace0	-0.0762
138	0xaf98	-0.11865
139	0x285b	0.03403
140	0x30ec	0.1538
141	0xa641	-0.02443
142	0x2a4b	0.04916
143	0xa470	-0.01733
144	0x202a	0.00813
145	0xad55	-0.0833
146	0x2f4a	0.1139
147	0xb61f	-0.3826
148	0x35f0	0.371
149	0xaff2	-0.12415
150	0x310e	0.158
151	0xaf0a	-0.11
152	0xa433	-0.0164
153	0xb280	-0.2031
154	0x2c3b	0.0661
155	0x1103	0.000612
156	0xa90a	-0.03937
157	0x3469	0.2756
158	0xaafb	-0.05453
159	0xad74	-0.0852
160	0x3044	0.1333
161	0x2903	0.03915
162	0x2fc9	0.12164
163	0xb037	-0.1317
164	0x2c41	0.06647
165	0xafdc	-0.1228
166	0xb0c0	-0.1484
167	0x2cd1	0.07526
168	0x2d40	0.08203
169	0x3066	0.1375
170	0xb104	-0.1567
171	0xafa5	-0.11945
172	0xaac1	-0.05276
173	0x26c4	0.02643
174	0xb28d	-0.2047
175	0x29f9	0.04666
176	0x2660	0.0249
177	0xacb8	-0.0737
178	0xa6be	-0.02634
179	0xab98	-0.05933
180	0x2a99	0.05154
181	0xa5a2	-0.022
182	0x2c00	0.0625
183	0x3029	0.13
184	0xa4c5	-0.01863
185	0xa123	-0.01003
186	0xac66	-0.0687
187	0x2d12	0.0792
188	0x2972	0.04254
189	0xb23f	-0.1952
190	0xac82	-0.07043
191	0x2cd5	0.0755
192	0x361b	0.3816
193	0xb2e7	-0.2157
194	0xaeff	-0.1093
195	0xaa23	-0.04794
196	0xa995	-0.0436
197	0x2e19	0.0953
198	0xa6e8	-0.02698
199	0xae13	-0.0949
200	0x2a7d	0.0507
201	0xad81	-0.086
202	0x2cc4	0.07446
203	0xa8a0	-0.03613
204	0x18d0	0.00235
205	0x9c12	-0.003975
206	0xa75c	-0.02875
207	0x9ef1	-0.00678
208	0x25e5	0.02303
209	0x1d67	0.005276
210	0xa497	-0.01793
211	0xad6d	-0.0848
212	0x9e10	-0.00592
213	0x2d6c	0.0847
214	0xa743	-0.02837
215	0xa27b	-0.01266
216	0xb0ee	-0.154
217	0x2708	0.02747
218	0xad75	-0.08527
219	0x33c7	0.243
220	0xb3bb	-0.2416
221	0x2835	0.03287
222	0xab44	-0.05676
223	0x2b62	0.05768
224	0x26a9	0.02602
225	0xa99a	-0.04376
226	0x2c31	0.0655
227	0xa8c8	-0.03735
228	0xb586	-0.3452
229	0x3319	0.2218
230	0xabeb	-0.06186
231	0x2f4d	0.1141
232	0xb303	-0.2191
233	0x23dc	0.01535
234	0xaada	-0.05353
235	0x319d	0.1754
236	0xacb0	-0.07324
237	0xb383	-0.2347
238	0x2887	0.03537
239	0xa8d3	-0.0377
240	0x3145	0.1647
241	0xb410	-0.254
242	0x1e3a	0.00608
243	0x2c09	0.06305
244	0x2914	0.03967
245	0xa633	-0.02422
246	0x2419	0.016
247	0x9d60	-0.00525
248	0xa3dd	-0.01536
249	0x278d	0.0295
250	0xa70d	-0.02754
251	0x26ec	0.02704
252	0x2873	0.03476
253	0x22b1	0.01307
254	0xa120	-0.01001
255	0x2cb2	0.07336

0.body.0.body.0.body.0.bias f2 [16]
0	0x1b3f	0.003538
1	0xaa60	-0.0498
2	0x1f5b	0.007183
3	0xa79b	-0.02971
4	0x2963	0.04208
5	0x21c0	0.01123
6	0xa9e6	-0.04608
7	0x2839	0.033
8	0x29f8	0.04663
9	0x2573	0.02129
10	0xa662	-0.02493
11	0xa7eb	-0.03093
12	0x2c94	0.07153
13	0x2b7b	0.05844
14	0x2e15	0.09503
15	0x25f1	0.02321

0.body.0.body.0.body.2.weight f2 [16, 16, 3, 3]
0	0x34e7	0.3064
1	0x33b4	0.2407
2	0x2894	0.03577
3	0x39b2	0.712
4	0x33de	0.2458
5	0xa8da	-0.0379
6	0x31f9	0.1866
7	0xae1e	-0.0956
8	0x20ae	0.00914
9	0xad4b	-0.0827
10	0xb2a2	-0.2073
11	0xafb3	-0.1203
12	0xb22b	-0.1927
13	0xbbc5	-0.971
14	0xb4eb	-0.3074
15	0xb2bf	-0.2108
16	0xb6f5	-0.4348
17	0xad28	-0.08057
18	0x3773	0.4656
19	0x3646	0.392
20	0x3547	0.3298
21	0x2ad2	0.05328
22	0xbb35	-0.901
23	0xab3f	-0.0566
24	0xb871	-0.555
25	0xb7c7	-0.486
26	0xacbd	-0.07404
27	0xab2b	-0.056
28	0xb142	-0.1643
29	0x239c	0.01486
30	0xb297	-0.2059
31	0xb7f3	-0.4968
32	0xa3be	-0.01512
33	0xb5ab	-0.3542
34	0xb5ed	-0.3704
35	0xb0c3	-0.1488
36	0x31f5	0.1862
37	0x30e9	0.1534
38	0xaf3e	-0.11316
39	0x365a	0.397
40	0xb102	-0.1565
41	0x2a35	0.0485
42	0x31ad	0.1774
43	0x3296	0.2058
44	0x2af0	0.0542
45	0x3031	0.131
46	0x32ff	0.2186
47	0x282c	0.0326
48	0x35e5	0.3684
49	0x38a1	0.5786
50	0x27e1	0.03078
51	0x3502	0.313
52	0x3647	0.3923
53	0x2ffd	0.1248
54	0x2831	0.03275
55	0xa8e7	-0.0383
56	0xb157	-0.1669
57	0x2cc4	0.07446
58	0x24e1	0.01906
59	0xb0d3	-0.1508
60	0xa787	-0.0294
61	0xb04b	-0.1342
62	0xae42	-0.0978
63	0xb1e5	-0.1842
64	0xa565	-0.02107
65	0x2c65	0.06866
66	0x292b	0.04037
67	0x2d79	0.0855
68	0x2fa4	0.1194
69	0xaef0	-0.1084
70	0x3241	0.1954
71	0xa8dc	-0.03796
72	0xb3ff	-0.2499
73	0xadb3	-0.08905
74	0xa440	-0.0166
75	0xb694	-0.4111
76	0xb169	-0.1691
77	0x2957	0.04172
78	0xa6d8	-0.02673
79	0x2a2a	0.04816
80	0x2a89	0.05106
81	0xac05	-0.0628
82	0xac3d	-0.0662
83	0xa3d2	-0.015274
84	0xafbb	-0.1208
85	0xb1b4	-0.1782
86	0x1ef9	0.00681
87	0xb068	-0.1377
88	0xb18e	-0.1736
89	0x2f09	0.1099
90	0x2a63	0.0499
91	0x289b	0.03598
92	0x2c09	0.06305
93	0xade7	-0.0922
94	0xae9d	-0.10333
95	0x2375	0.014565
96	0x2cf7	0.0776
97	0x2ae6	0.0539
98	0x274a	0.02847
99	0x2d86	0.0863
100	0x2c40	0.0664
101	0xa6c4	-0.02643
102	0x382a	0.5205
103	0xb511	-0.3167
104	0xaef7	-0.1088
105	0xb1ec	-0.185
106	0xa945	-0.04117
107	0xa825	-0.03238
108	0x2460	0.01709
109	0x2ae7	0.05392
110	0xab52	-0.0572
111	0xaebd	-0.1053
112	0xa8d6	-0.03778
113	0x2c88	0.0708
114	0xaa05	-0.04703
115	0x2bc4	0.06067
116	0x31e8	0.1846
117	0xad06	-0.0785
118	0xae16	-0.0951
119	0x21c7	0.011284
120	0x29d2	0.04547
121	0xb800	-0.5
122	0x373b	0.452
123	0x29f9	0.04666
124	0x3342	0.2268
125	0xae46	-0.098
126	0x2910	0.03955
127	0xae6d	-0.1004
128	0xad10	-0.0791
129	0x3089	0.1417
130	0xa83c	-0.03308
131	0x2047	0.008354
132	0x28ca	0.0374
133	0xb119	-0.1593
134	0x27a1	0.0298
135	0xb114	-0.1587
136	0x2c32	0.06555
137	0x2c30	0.0654
138	0xb46d	-0.2766
139	0xb2f1	-0.2169
140	0x181d	0.002008
141	0xb41a	-0.2563
142	0xaebf	-0.1054
143	0x2633	0.02422
144	0xa4e3	-0.01909
145	0x9992	-0.00272
146	0x2ea0	0.1035
147	0xb140	-0.1641
148	0x2daa	0.0885
149	0x2d87	0.08636
150	0xaed8	-0.10693
151	0xb49a	-0.2876
152	0xadb9	-0.0894
153	0x2154	0.01041
154	0x34a3	0.2898
155	0x363e	0.3901
156	0x335b	0.2299
157	0x3a06	0.753
158	0x3902	0.626
159	0x2ce1	0.07623
160	0x33dd	0.2457
161	0x3815	0.5103
162	0xae47	-0.0981
163	0xa1cb	-0.011314
164	0xa428	-0.01624
165	0x2d3c	0.0818
166	0x313e	0.1638
167	0xb2ac	-0.2085
168	0x3306	0.2195
169	0xb48b	-0.284
170	0xb5f6	-0.3726
171	0x30dd	0.152
172	0x274a	0.02847
173	0x2c44	0.06665
174	0x3038	0.1318
175	0x33d6	0.2449
176	0x2d05	0.0784
177	0x3086	0.1414
178	0x34bc	0.296
179	0x2d4c	0.08276
180	0x38c4	0.5957
181	0x25f3	0.02324
182	0x2f92	0.1183
183	0xb00a	-0.1262
184	0x36f0	0.4336
185	0xae26	-0.09607
186	0x34e1	0.305
187	0x2c0e	0.06335
188	0xad80	-0.08594
189	0xa2e8	-0.01349
190	0x2771	0.02907
191	0x2a75	0.05045
192	0xad80	-0.08594
193	0xab8a	-0.0589
194	0x2941	0.04105
195	0xb01b	-0.1283
196	0xabb0	-0.06006
197	0x2c14	0.0637
198	0xa6b1	-0.02614
199	0xb03e	-0.1326
200	0x2cee	0.077
201	0x3279	0.2023
202	0x3318	0.2217
203	0x37fd	0.4993
204	0x2e2a	0.0963
205	0x33a2	0.2385
206	0x3449	0.2678
207	0xa8b2	-0.03668
208	0xa0fd	-0.00974
209	0xad3d	-0.08185
210	0x2b70	0.0581
211	0x2c72	0.06946
212	0x2f34	0.11255
213	0xa661	-0.02492
214	0xadb4	-0.0891
215	0x2775	0.02913
216	0xac1a	-0.0641
217	0x2f46	0.11365
218	0x9989	-0.002703
219	0x26a3	0.02592
220	0x2ce5	0.0765
221	0x2dae	0.08875
222	0x2c05	0.0628
223	0xa6fa	-0.02725
224	0xa7ac	-0.02997
225	0xa8a6	-0.03632
226	0xaa25	-0.048
227	0xa9f1	-0.04642
228	0xafb8	-0.1206
229	0xaef7	-0.1088
230	0xae10	-0.0947
231	0x2cee	0.077
232	0x2f8c	0.1179
233	0x2305	0.01371
234	0x2d4e	0.0829
235	0x2b83	0.0587
236	0x2d1f	0.08
237	0xa8db	-0.03793
238	0xac56	-0.06775
239	0xaed5	-0.10675
240	0xa3e6	-0.01543
241	0x24b8	0.01843
242	0x2be7	0.06174
243	0x2387	0.0147
244	0xb208	-0.1885
245	0x26d6	0.0267
246	0xaf3a	-0.1129
247	0x3095	0.1432
248	0x2c41	0.06647
249	0x2cd1	0.07526
250	0x2867	0.0344
251	0x2a31	0.04837
252	0xa80e	-0.03168
253	0xad88	-0.0864
254	0x1f62	0.00721
255	0xac70	-0.06934

0.body.0.body.0.body.2.bias f2 [16]
0	0x2f1b	0.111
1	0xa4ec	-0.01923
2	0xac51	-0.06744
3	0xad75	-0.08527
4	0x9672	-0.001574
5	0xaec8	-0.10596
6	0xaed8	-0.10693
7	0x2139	0.0102
8	0x2359	0.01435
9	0xa9ec	-0.04626
10	0x2786	0.02939
11	0x145f	0.001067
12	0x962d	-0.001508
13	0xa4e0	-0.01904
14	0xa837	-0.03293
15	0x1a3b	0.003042

0.body.0.body.1.weight f2 [16, 16, 3, 3]
0	0xa5fe	-0.0234
1	0x211e	0.009995
2	0x2814	0.03186
3	0x2385	0.01469
4	0x3675	0.4036
5	0xac45	-0.0667
6	0xa176	-0.010666
7	0x35a5	0.3528
8	0xb567	-0.3376
9	0xa58e	-0.0217
10	0xaf2c	-0.11206
11	0xaf55	-0.11456
12	0x249d	0.01802
13	0x2d36	0.0814
14	0xa9fb	-0.04672
15	0x2c1b	0.06415
16	0x2557	0.02086
17	0xa249	-0.012276
18	0xae31	-0.09674
19	0xac96	-0.07166
20	0xac40	-0.0664
21	0x26ca	0.02652
22	0xa860	-0.03418
23	0xae49	-0.0982
24	0xb3c0	-0.2422
25	0xb147	-0.1649
26	0xb0ca	-0.1497
27	0x2cdc	0.0759
28	0xab82	-0.05865
29	0x2b81	0.05862
30	0x3419	0.256
31	0xb47c	-0.2803
32	0xac51	-0.06744
33	0x3077	0.1395
34	0xb07c	-0.1401
35	0xb1b6	-0.1785
36	0x9cbf	-0.004635
37	0x3054	0.1353
38	0x20dd	0.0095
39	0x2e80	0.10156
40	0x35c9	0.3616
41	0x300c	0.1265
42	0xb00d	-0.1266
43	0x3496	0.2866
44	0xaf78	-0.1167
45	0x2fd6	0.12244
46	0x3052	0.135
47	0xa7e4	-0.03082
48	0x3520	0.3203
49	0xac46	-0.0668
50	0xa1c9	-0.0113
51	0x2dc2	0.08997
52	0xb24b	-0.1967
53	0x2c34	0.0657
54	0x26e5	0.02693
55	0x2c14	0.0637
56	0x23f4	0.01553
57	0xb142	-0.1643
58	0xb180	-0.1719
59	0xaa60	-0.0498
60	0xb3dc	-0.2456
61	0xb397	-0.2372
62	0x2b8a	0.0589
63	0x2831	0.03275
64	0xaa53	-0.0494
65	0xa15c	-0.01047
66	0x284e	0.03363
67	0xacc7	-0.07465
68	0xae1a	-0.09534
69	0xa983	-0.04306
70	0x2854	0.0338
71	0xabde	-0.06146
72	0xae42	-0.0978
73	0x328a	0.2043
74	0xab2a	-0.05597
75	0xaf1a	-0.11096
76	0xa7b6	-0.03012
77	0x180f	0.001982
78	0xb29f	-0.2069
79	0x2f81	0.11725
80	0x2ccc	0.07495
81	0xa913	-0.03964
82	0x2961	0.04202
83	0x2ca4	0.0725
84	0x2cf9	0.0777
85	0x3580	0.3438
86	0x24a3	0.01811
87	0x32ff	0.2186
88	0x2868	0.03442
89	0xaf79	-0.11676
90	0x1f5a	0.00718
91	0xb029	-0.13
92	0xad61	-0.08405
93	0x2d8d	0.08673
94	0x30f7	0.1552
95	0xa832	-0.03278
96	0x2973	0.04257
97	0x3260	0.1992
98	0x320d	0.1891
99	0xaed8	-0.10693
100	0xb158	-0.167
101	0x1681	0.001588
102	0xaf30	-0.1123
103	0x2f03	0.10956
104	0x29d7	0.04562
105	0xb05f	-0.1366
106	0x1b50	0.00357
107	0x205b	0.00851
108	0xae6f	-0.1005
109	0xaa46	-0.049
110	0xaa68	-0.05005
111	0x2ca0	0.07227
112	0x32f7	0.2177
113	0xa094	-0.00894
114	0xb262	-0.1995
115	0xabfd	-0.0624
116	0xb130	-0.1621
117	0x339e	0.238
118	0x3158	0.167
119	0x2ec3	0.10565
120	0x2e4a	0.09827
121	0xaa2f	-0.0483
122	0xafc0	-0.1211
123	0xb171	-0.17
124	0xae75	-0.1009
125	0xb0b4	-0.147
126	0xb249	-0.1964
127	0xb422	-0.2583
128	0xb43f	-0.2654
129	0xb6ce	-0.4253
130	0x28a5	0.0363
131	0xaaca	-0.05304
132	0xb242	-0.1956
133	0x2d0e	0.079
134	0xb099	-0.1437
135	0x1ec7	0.00662
136	0x2a0f	0.04733
137	0xab9c	-0.05945
138	0x2ad4	0.05334
139	0x26e8	0.02698
140	0xb050	-0.1348
141	0x2a99	0.05154
142	0x2499	0.01796
143	0xaca5	-0.0726
144	0x2c9f	0.0722
145	0x3257	0.1981
146	0xa1e6	-0.01152
147	0xb296	-0.2058
148	0x35cb	0.362
149	0x34e7	0.3064
150	0xaf21	-0.1114
151	0x339a	0.2375
152	0x278a	0.02945
153	0xa1d2	-0.01137
154	0x2ddc	0.09155
155	0x2454	0.0169
156	0xac32	-0.06555
157	0x27fd	0.0312
158	0xaf1b	-0.111
159	0xad71	-0.085
160	0xb07b	-0.14
161	0xa3bf	-0.01513
162	0x2bd7	0.06125
163	0x2c33	0.0656
164	0x2ac4	0.05286
165	0xb09b	-0.1439
166	0xb209	-0.1886
167	0xa558	-0.02087
168	0x9c7f	-0.00439
169	0x28f7	0.0388
170	0x1dbf	0.00561
171	0x32b1	0.2091
172	0x32ce	0.2126
173	0xacd6	-0.07556
174	0x2f0c	0.1101
175	0xaf1b	-0.111
176	0xacc1	-0.0743
177	0xae77	-0.101
178	0xacdb	-0.07587
179	0xb048	-0.1338
180	0x2a64	0.04993
181	0xaf9a	-0.1188
182	0x2d01	0.0782
183	0x347f	0.281
184	0x2679	0.02528
185	0x300d	0.1266
186	0x300c	0.1265
187	0x2b53	0.05722
188	0x2459	0.01698
189	0x2b5f	0.0576
190	0x2f03	0.10956
191	0xa029	-0.008125
192	0x3523	0.321
193	0x22d2	0.01332
194	0xb419	-0.256
195	0x3339	0.2257
196	0x3161	0.1681
197	0x2876	0.03485
198	0xabcc	-0.0609
199	0xae5b	-0.0993
200	0xa8e1	-0.03812
201	0x9eb9	-0.006565
202	0x1dd2	0.005684
203	0xad33	-0.08124
204	0xa251	-0.01234
205	0xab51	-0.05716
206	0x288f	0.0356
207	0x14da	0.001184
208	0x2b22	0.05573
209	0xadbc	-0.0896
210	0xaae9	-0.054
211	0xb042	-0.133
212	0xaf70	-0.1162
213	0xac93	-0.0715
214	0xaeaa	-0.1041
215	0xa9dc	-0.04578
216	0xadb4	-0.0891
217	0x2e02	0.0939
218	0xad59	-0.08356
219	0xaaa5	-0.0519
220	0x300f	0.1268
221	0xa903	-0.03915
222	0xb321	-0.2228
223	0x213b	0.010216
224	0x21d7	0.011406
225	0xb516	-0.3179
226	0xb3d9	-0.2452
227	0xabca	-0.06085
228	0xa8fc	-0.03894
229	0x3598	0.3496
230	0x31f0	0.1855
231	0x2f29	0.1119
232	0x2e97	0.10297
233	0x2aab	0.0521
234	0xabca	-0.06085
235	0x294a	0.04132
236	0x285c	0.03406
237	0xb01c	-0.1284
238	0xa973	-0.04257
239	0x2c22	0.0646
240	0xb25d	-0.1989
241	0xb36f	-0.2323
242	0xaed4	-0.1067
243	0xa84e	-0.03363
244	0xab9a	-0.0594
245	0xa4ad	-0.01826
246	0xa4c5	-0.01863
247	0xa832	-0.03278
248	0xaf8c	-0.1179
249	0x2d67	0.0844
250	0x2735	0.02815
251	0x2da9	0.08844
252	0xb387	-0.2352
253	0x2b32	0.0562
254	0x898c	-0.0001693
255	0x3499	0.2874

0.body.0.body.1.bias f2 [16]
0	0x2b96	0.05927
1	0x2c87	0.07074
2	0x2ea3	0.1037
3	0xac80	-0.0703
4	0xa675	-0.02522
5	0xa9dd	-0.0458
6	0xad77	-0.0854
7	0xae18	-0.0952
8	0xa451	-0.01686
9	0xad25	-0.0804
10	0xa9b6	-0.04462
11	0xafae	-0.12
12	0x200d	0.00791
13	0xae24	-0.09595
14	0x2c6d	0.06915
15	0x3169	0.1691

0.body.1.body.0.body.0.weight f2 [16, 16, 3, 3]
0	0xa70d	-0.02754
1	0x2d52	0.0831
2	0x262e	0.02414
3	0xad45	-0.08234
4	0xb400	-0.25
5	0x2f0b	0.11005
6	0xab11	-0.0552
7	0x2422	0.01614
8	0xa55a	-0.0209
9	0xa929	-0.0403
10	0x2cc3	0.0744
11	0x2a3e	0.04877
12	0x2d27	0.0805
13	0xad95	-0.0872
14	0x0ebb	0.0004108
15	0x2a60	0.0498
16	0xb0ea	-0.1536
17	0xabd7	-0.06125
18	0x294a	0.04132
19	0x2d68	0.0845
20	0xa9ce	-0.04535
21	0x9d52	-0.005196
22	0x2ed1	0.1065
23	0xa575	-0.02132
24	0x2a97	0.05148
25	0x29c6	0.0451
26	0x277e	0.02927
27	0xa81b	-0.03207
28	0xa41c	-0.01605
29	0x2ec7	0.1059
30	0xad98	-0.0874
31	0x27f8	0.03113
32	0xadf3	-0.09296
33	0xa8d3	-0.0377
34	0xa980	-0.04297
35	0x2525	0.0201
36	0x25c6	0.02255
37	0x2d29	0.0806
38	0xaca5	-0.0726
39	0x29f0	0.0464
40	0x2e9e	0.1034
41	0x15a6	0.001379
42	0xa2f6	-0.013596
43	0x2b25	0.05582
44	0xaed1	-0.1065
45	0x2bb7	0.06027
46	0xa980	-0.04297
47	0x1a41	0.003054
48	0x2f59	0.1148
49	0x21c8	0.01129
50	0xa21a	-0.01192
51	0x2b69	0.0579
52	0x2cce	0.0751
53	0xa427	-0.01622
54	0x2be3	0.0616
55	0x242f	0.01634
56	0x2d6c	0.0847
57	0x2964	0.0421
58	0xae6e	-0.10046
59	0xa91d	-0.03995
60	0x2d3c	0.0818
61	0x219b	0.01095
62	0x2c09	0.06305
63	0x1af7	0.0034
64	0x9f0d	-0.006886
65	0x2d09	0.0787
66	0xa8a3	-0.03622
67	0xb1cd	-0.1813
68	0x2a10	0.04736
69	0x2b7f	0.05856
70	0xaaf0	-0.0542
71	0x29b6	0.04462
72	0x1a81	0.003176
73	0x9978	-0.00267
74	0x98b1	-0.00229
75	0xa4df	-0.01903
76	0x2cf0	0.07715
77	0x1f3d	0.00707
78	0xaaee	-0.05414
79	0x2c84	0.07056
80	0x1e69	0.00626
81	0x219e	0.01097
82	0xa7fe	-0.03122
83	0xa713	-0.02763
84	0xa92c	-0.0404
85	0xade3	-0.092
86	0xa74e	-0.02853
87	0x267d	0.02534
88	0x2f7a	0.1168
89	0xa404	-0.01569
90	0xa9a8	-0.0442
91	0xae2f	-0.0966
92	0xac96	-0.07166
93	0x25d1	0.02272
94	0x28ff	0.03903
95	0x2c9a	0.0719
96	0x2d70	0.08496
97	0x2c65	0.06866
98	0xa145	-0.01029
99	0x2bf6	0.0622
100	0x2acc	0.0531
101	0xa42e	-0.01633
102	0xaba3	-0.05966
103	0x2e3c	0.0974
104	0xa908	-0.0393
105	0x2c14	0.0637
106	0x2663	0.02495
107	0xa854	-0.0338
108	0x2a99	0.05154
109	0x259e	0.02194
110	0xaf47	-0.1137
111	0x3161	0.1681
112	0xa1fb	-0.01168
113	0x24dd	0.019
114	0x2d7c	0.0857
115	0x3066	0.1375
116	0xac89	-0.07086
117	0x261e	0.0239
118	0xa282	-0.01271
119	0x2edb	0.1071
120	0xa8d8	-0.03784
121	0xac3b	-0.0661
122	0xa410	-0.01587
123	0xad97	-0.08734
124	0xa80b	-0.0316
125	0x2e8d	0.10236
126	0xab66	-0.0578
127	0xaf54	-0.1145
128	0xb038	-0.1318
129	0xa775	-0.02913
130	0x2ee1	0.1075
131	0xa229	-0.01203
132	0xa97b	-0.04282
133	0x2bb9	0.06033
134	0xa55d	-0.02095
135	0x2a67	0.05002
136	0xa6aa	-0.02603
137	0x3137	0.163
138	0xb1c4	-0.1802
139	0xb2fa	-0.218
140	0x2cff	0.07806
141	0xa8ff	-0.03903
142	0xa806	-0.03143
143	0x2ee9	0.108
144	0xacbe	-0.0741
145	0x2a25	0.048
146	0x2b50	0.05713
147	0x26db	0.02678
148	0x261c	0.02386
149	0xa6fc	-0.02728
150	0xa5da	-0.02286
151	0x3153	0.1664
152	0xaa95	-0.05142
153	0x2f64	0.1155
154	0xb0d9	-0.1515
155	0xacfe	-0.078
156	0x28ad	0.03653
157	0xb091	-0.1427
158	0x3442	0.266
159	0x3107	0.1571
160	0xb023	-0.1293
161	0x2860	0.03418
162	0x240e	0.01584
163	0x30e0	0.1523
164	0xaa1e	-0.0478
165	0x2a50	0.04932
166	0x3045	0.1334
167	0xac11	-0.06354
168	0x2eed	0.1082
169	0x3080	0.1406
170	0xa26f	-0.012566
171	0x2a53	0.0494
172	0xa88b	-0.0355
173	0x30f8	0.1553
174	0x31a1	0.1759
175	0xaa21	-0.04788
176	0x30ad	0.1461
177	0x2268	0.01251
178	0xaa00	-0.04688
179	0x2be0	0.06152
180	0xa96e	-0.04242
181	0xa5e3	-0.023
182	0xb028	-0.1299
183	0x2705	0.02742
184	0xa874	-0.0348
185	0x2944	0.04114
186	0xae42	-0.0978
187	0xae38	-0.09717
188	0xb132	-0.1624
189	0x278e	0.02951
190	0x3070	0.1387
191	0x31a4	0.1763
192	0x3045	0.1334
193	0x2f65	0.11554
194	0xb143	-0.1644
195	0x252c	0.0202
196	0xa815	-0.0319
197	0x2816	0.03192
198	0x233e	0.014145
199	0x250b	0.0197
200	0x25a4	0.02203
201	0x285e	0.03412
202	0x24c5	0.01863
203	0x1d8b	0.005413
204	0xabe8	-0.06177
205	0x2d35	0.08136
206	0xa48f	-0.0178
207	0x2f4e	0.11414
208	0x1c5e	0.004265
209	0x2f22	0.11145
210	0x2ead	0.1043
211	0x357c	0.3428
212	0x34f2	0.309
213	0x30b6	0.1472
214	0x31a8	0.1768
215	0x3168	0.169
216	0x2cb4	0.0735
217	0xb12f	-0.162
218	0xafaa	-0.11975
219	0xac56	-0.06775
220	0x3037	0.1317
221	0xa678	-0.02527
222	0x2abd	0.05264
223	0xaa76	-0.05048
224	0xa3f6	-0.01555
225	0x2b1f	0.05563
226	0x2c6c	0.0691
227	0xa8bc	-0.037
228	0xaa18	-0.0476
229	0x2b6a	0.05792
230	0x3008	0.126
231	0xa6c5	-0.02644
232	0xa9bf	-0.0449
233	0x2911	0.03958
234	0x270e	0.02756
235	0x283f	0.03317
236	0xac2d	-0.06525
237	0x2fca	0.1217
238	0x300a	0.1262
239	0xa79e	-0.02975
240	0xa594	-0.02179
241	0x28b3	0.0367
242	0xa8db	-0.03793
243	0x1728	0.001747
244	0x2795	0.02962
245	0xb24a	-0.1965
246	0x31c3	0.18
247	0x335a	0.2297
248	0xb431	-0.262
249	0xaeba	-0.1051
250	0x97f2	-0.00194
251	0xb324	-0.2231
252	0x24d6	0.01889
253	0x1d69	0.005283
254	0x0fc7	0.0004747
255	0x28a2	0.0362

0.body.1.body.0.body.0.bias f2 [16]
0	0xb806	-0.503
1	0xac3d	-0.0662
2	0xabc9	-0.06082
3	0x9dba	-0.005592
4	0xad86	-0.0863
5	0x25e6	0.02304
6	0xa33f	-0.01415
7	0x2d8d	0.08673
8	0x2cee	0.077
9	0xab12	-0.05524
10	0xa585	-0.02156
11	0x2a03	0.04697
12	0x2b5d	0.05753
13	0x2919	0.03983
14	0xaad6	-0.0534
15	0x2ef8	0.1089

0.body.1.body.0.body.2.weight f2 [16, 16, 3, 3]
0	0xb0fa	-0.1555
1	0xb0e4	-0.1528
2	0xa714	-0.02765
3	0xadf7	-0.0932
4	0xafc7	-0.1215
5	0xacb1	-0.0733
6	0xaf79	-0.11676
7	0xb1df	-0.1835
8	0xa930	-0.04053
9	0x9dc6	-0.00564
10	0x304f	0.1346
11	0x2b1a	0.05548
12	0x2fb0	0.1201
13	0xb28b	-0.2045
14	0xb130	-0.1621
15	0x335f	0.2303
16	0x2167	0.01055
17	0xac1f	-0.0644
18	0xae51	-0.0987
19	0xaf12	-0.1105
20	0x2177	0.01067
21	0x2cfe	0.078
22	0x20cd	0.00938
23	0x2cb0	0.07324
24	0x2f31	0.11237
25	0x2b72	0.05817
26	0x246d	0.01729
27	0xb0ef	-0.1542
28	0x280f	0.0317
29	0xb2f7	-0.2177
30	0xb404	-0.251
31	0x3035	0.1315
32	0xb2c2	-0.2112
33	0xb0ab	-0.1459
34	0xafbb	-0.1208
35	0xad89	-0.0865
36	0x2e4f	0.0986
37	0xa7a6	-0.02988
38	0x2e37	0.0971
39	0x303b	0.1322
40	0xb3d0	-0.2441
41	0xad32	-0.0812
42	0x1e16	0.005943
43	0xafb3	-0.1203
44	0xac74	-0.0696
45	0x2ecd	0.10626
46	0x29b1	0.04446
47	0x2d51	0.08307
48	0xa5e8	-0.02307
49	0xa697	-0.02574
50	0xa682	-0.02542
51	0xac9e	-0.07214
52	0x2a95	0.05142
53	0xa8ff	-0.03903
54	0x376c	0.4639
55	0x381c	0.5137
56	0x32d4	0.2134
57	0x3650	0.3945
58	0x367d	0.4055
59	0x330c	0.2202
60	0x35c8	0.3613
61	0x3572	0.3403
62	0x32bb	0.2103
63	0xaeaa	-0.1041
64	0xac67	-0.0688
65	0xb0b5	-0.1471
66	0x2ada	0.05353
67	0xaaf1	-0.05423
68	0xae4a	-0.09827
69	0xa887	-0.03537
70	0xa70d	-0.02754
71	0xacc3	-0.0744
72	0x2e06	0.0941
73	0x14e6	0.001196
74	0x2b57	0.05734
75	0x2adc	0.0536
76	0x24f7	0.0194
77	0xa6dc	-0.0268
78	0x1501	0.001222
79	0x2837	0.03293
80	0x22cd	0.01328
81	0xaf1e	-0.1112
82	0xa462	-0.01712
83	0xaa5e	-0.04974
84	0xab7f	-0.05856
85	0x2ba8	0.0598
86	0xa525	-0.0201
87	0xab14	-0.0553
88	0x2821	0.03226
89	0x275b	0.02873
90	0xbbbe	-0.968
91	0xbc27	-1.038
92	0xb6ce	-0.4253
93	0xba75	-0.807
94	0xbbb9	-0.9653
95	0xb729	-0.4475
96	0xb7a7	-0.4783
97	0xb826	-0.5186
98	0xb4c6	-0.2983
99	0xa1c1	-0.01124
100	0x2879	0.03494
101	0x1949	0.00258
102	0x2cdc	0.0759
103	0x300d	0.1266
104	0x268e	0.0256
105	0x2d90	0.0869
106	0x2071	0.008675
107	0x287c	0.03503
108	0x21c5	0.01127
109	0xa875	-0.03482
110	0xa7b1	-0.03004
111	0xa565	-0.02107
112	0xa436	-0.01645
113	0xa57e	-0.02145
114	0x23dc	0.01535
115	0xa75a	-0.02872
116	0x2901	0.0391
117	0xaaa1	-0.0518
118	0x2e1e	0.0956
119	0x2aa3	0.05185
120	0x2969	0.04227
121	0x1f60	0.007202
122	0x9cb3	-0.00459
123	0x2509	0.01967
124	0x2f29	0.1119
125	0x2d3a	0.08167
126	0x28cb	0.03745
127	0xa907	-0.03928
128	0xa916	-0.03973
129	0xab4b	-0.05698
130	0xb020	-0.1289
131	0xac15	-0.0638
132	0xab7e	-0.05853
133	0xb086	-0.1414
134	0xadb2	-0.089
135	0x2b6a	0.05792
136	0x231f	0.01391
137	0x292e	0.04047
138	0x2c34	0.0657
139	0x19c2	0.002811
140	0x1e09	0.005894
141	0x1a68	0.003128
142	0x1da3	0.005505
143	0x216f	0.01061
144	0xb05e	-0.1365
145	0xb114	-0.1587
146	0xa6a7	-0.02599
147	0xb0d1	-0.1505
148	0xb529	-0.3225
149	0x2e48	0.09814
150	0x1a1a	0.00298
151	0x2f19	0.1109
152	0x3066	0.1375
153	0x2764	0.02887
154	0x2432	0.01639
155	0x227e	0.01268
156	0xb479	-0.2795
157	0xb04e	-0.1345
158	0x247a	0.01749
159	0x1a31	0.003023
160	0xaca3	-0.07245
161	0x19c5	0.002817
162	0x2829	0.0325
163	0xaff0	-0.124
164	0xac41	-0.06647
165	0x2daf	0.0888
166	0xafa7	-0.11957
167	0xa88a	-0.03546
168	0xae87	-0.102
169	0x2a32	0.0484
170	0x3061	0.1368
171	0x20c9	0.009346
172	0xae61	-0.0997
173	0xb39c	-0.2378
174	0xb07e	-0.1404
175	0xae05	-0.09406
176	0xa429	-0.01625
177	0x27c5	0.03035
178	0x2fd8	0.12256
179	0x2ef7	0.1088
180	0x20b5	0.00919
181	0xb009	-0.1261
182	0x8c24	-0.0002527
183	0xa622	-0.02396
184	0x257f	0.02147
185	0x27cc	0.03046
186	0xafd4	-0.1223
187	0xa888	-0.0354
188	0x3050	0.1348
189	0x2de0	0.0918
190	0x2ca7	0.0727
191	0x2888	0.0354
192	0x2d42	0.08215
193	0x23e1	0.01539
194	0x2daf	0.0888
195	0x2a1e	0.0478
196	0x2d09	0.0787
197	0x26df	0.02684
198	0xb505	-0.3137
199	0xb724	-0.4463
200	0xb4e4	-0.3057
201	0xaef1	-0.10846
202	0xb332	-0.2249
203	0xb3ba	-0.2415
204	0xb430	-0.2617
205	0xb5e1	-0.3674
206	0xb5ad	-0.3547
207	0xb40a	-0.2524
208	0xb407	-0.2517
209	0x2904	0.03918
210	0xb19c	-0.1753
211	0xb08f	-0.1425
212	0x2aa8	0.052
213	0xb3b4	-0.2407
214	0xb233	-0.1937
215	0x214e	0.01036
216	0x9faa	-0.007484
217	0x2c2b	0.0651
218	0xac59	-0.06793
219	0x1ce3	0.004772
220	0x2414	0.01593
221	0x1984	0.002693
222	0x2b4b	0.05698
223	0x2d12	0.0792
224	0xaf8f	-0.1181
225	0xa166	-0.010544
226	0xac3d	-0.0662
227	0xabf4	-0.06213
228	0x2c96	0.07166
229	0xb24b	-0.1967
230	0x1e1b	0.005962
231	0x2d36	0.0814
232	0x282b	0.03256
233	0x2b60	0.05762
234	0x3891	0.571
235	0x3994	0.6973
236	0x375a	0.4595
237	0x331c	0.2222
238	0x374d	0.4563
239	0x376f	0.4646
240	0x3670	0.4023
241	0x3836	0.5264
242	0x3837	0.527
243	0x1d01	0.004887
244	0x2f86	0.11755
245	0x2381	0.014656
246	0xab5d	-0.05753
247	0x3081	0.1407
248	0x21ef	0.01159
249	0xa13f	-0.01025
250	0x27ed	0.03096
251	0xa65e	-0.02487
252	0x250e	0.01974
253	0x2665	0.02498
254	0x1ec4	0.006607
255	0xabb8	-0.0603

0.body.1.body.0.body.2.bias f2 [16]
0	0x27d7	0.03062
1	0x9d5c	-0.005234
2	0x2d0f	0.07904
3	0xacde	-0.07605
4	0xa70c	-0.02753
5	0xa4ce	-0.01877
6	0x28c4	0.03723
7	0xa147	-0.01031
8	0xb0e4	-0.1528
9	0x30b4	0.147
10	0xae69	-0.10016
11	0x2c86	0.0707
12	0xa75a	-0.02872
13	0x2695	0.02571
14	0x2a29	0.04813
15	0x305c	0.1362

0.body.1.body.1.weight f2 [16, 16, 3, 3]
0	0xac90	-0.0713
1	0x2b3a	0.05646
2	0xab42	-0.0567
3	0xa557	-0.02086
4	0x255d	0.02095
5	0x26af	0.02611
6	0xa8ca	-0.0374
7	0xabe6	-0.0617
8	0xac8e	-0.07117
9	0xa4cf	-0.01878
10	0xad48	-0.0825
11	0xabad	-0.05997
12	0xb011	-0.1271
13	0xb097	-0.1434
14	0xa6c2	-0.0264
15	0x2ad2	0.05328
16	0xa2d2	-0.01332
17	0x2dac	0.0886
18	0x2439	0.0165
19	0xaa0a	-0.04718
20	0xa62e	-0.02414
21	0xa3ba	-0.01509
22	0xab70	-0.0581
23	0x2459	0.01698
24	0x2e41	0.0977
25	0x2976	0.04266
26	0x995c	-0.002617
27	0x184f	0.002104
28	0x3012	0.1272
29	0xa67e	-0.02536
30	0xad9b	-0.0876
31	0xa93d	-0.04092
32	0x2ce6	0.07654
33	0xa28a	-0.01277
34	0x2db8	0.08936
35	0xa8e4	-0.0382
36	0x198e	0.002712
37	0xae70	-0.1006
38	0xaf34	-0.11255
39	0x28f7	0.0388
40	0xaddf	-0.09174
41	0xadf6	-0.09314
42	0x2b65	0.05777
43	0x2941	0.04105
44	0xa9d6	-0.0456
45	0x2b56	0.0573
46	0xa382	-0.01466
47	0x9fe4	-0.007706
48	0x22f9	0.01362
49	0xa974	-0.0426
50	0xaac2	-0.0528
51	0x28a6	0.03632
52	0xb01b	-0.1283
53	0xb024	-0.1294
54	0xac23	-0.06464
55	0x2327	0.01397
56	0xa451	-0.01686
57	0xace4	-0.0764
58	0x25b0	0.02222
59	0x2428	0.01624
60	0xb116	-0.1589
61	0xa9dd	-0.0458
62	0xae4c	-0.0984
63	0x2cbe	0.0741
64	0xaf16	-0.1107
65	0x1efc	0.00682
66	0x1dc5	0.005634
67	0x2ff0	0.124
68	0x3282	0.2034
69	0x2800	0.03125
70	0x244e	0.01682
71	0x2122	0.010025
72	0xad12	-0.0792
73	0xa492	-0.01785
74	0x998e	-0.002712
75	0xab76	-0.0583
76	0xb2bf	-0.2108
77	0x2edf	0.10736
78	0x2d92	0.08704
79	0x2cb0	0.07324
80	0x2375	0.014565
81	0xa9cd	-0.04532
82	0xb22c	-0.1929
83	0xa6a9	-0.02602
84	0x308e	0.1423
85	0xaeab	-0.1042
86	0xa817	-0.03195
87	0x2ca3	0.07245
88	0x2960	0.042
89	0x2bae	0.06
90	0x25e9	0.02309
91	0xacc1	-0.0743
92	0xa9d5	-0.04556
93	0x2cbc	0.074
94	0x2ef0	0.1084
95	0x20aa	0.00911
96	0x2c3b	0.0661
97	0x245d	0.01704
98	0x2732	0.0281
99	0x2250	0.01233
100	0x1656	0.001547
101	0xae6f	-0.1005
102	0xac10	-0.0635
103	0x2b94	0.0592
104	0xae10	-0.0947
105	0xabf7	-0.06223
106	0x28f3	0.03867
107	0x9666	-0.001562
108	0x288e	0.03558
109	0x28c3	0.0372
110	0xa5df	-0.02293
111	0x31b6	0.1785
112	0x2fe6	0.1234
113	0xaa97	-0.05148
114	0x188a	0.002216
115	0x30c0	0.1484
116	0x29b7	0.04465
117	0xa422	-0.01614
118	0xa66f	-0.02513
119	0x2461	0.0171
120	0xa90f	-0.03952
121	0xacee	-0.077
122	0x2b6b	0.05795
123	0x23c5	0.015175
124	0x2169	0.01057
125	0x2a9a	0.05157
126	0x2bdc	0.0614
127	0xa65e	-0.02487
128	0xabbf	-0.06052
129	0x2ebd	0.1053
130	0xa0fa	-0.00972
131	0x1808	0.001968
132	0xacd3	-0.0754
133	0x9d5b	-0.00523
134	0x2470	0.01733
135	0xa828	-0.03247
136	0x20b9	0.009224
137	0xa88b	-0.0355
138	0x2e64	0.09985
139	0x2c47	0.06683
140	0x231e	0.0139
141	0x2849	0.03348
142	0xabb7	-0.06027
143	0xae02	-0.0939
144	0xab5b	-0.05746
145	0xa73e	-0.02829
146	0x2026	0.0081
147	0x29f4	0.0465
148	0x2586	0.02158
149	0x2c77	0.06976
150	0x99e7	-0.002882
151	0xacda	-0.0758
152	0xa809	-0.03152
153	0x1bbb	0.003775
154	0xabbc	-0.06042
155	0xad00	-0.0781
156	0xafa5	-0.11945
157	0xb02b	-0.1302
158	0xaab4	-0.05237
159	0x2d4d	0.0828
160	0xa61c	-0.02386
161	0x2b69	0.0579
162	0xa72f	-0.02806
163	0xa9cd	-0.04532
164	0xa4e9	-0.01918
165	0x9f9e	-0.00744
166	0x2594	0.02179
167	0xa429	-0.01625
168	0x27e4	0.03082
169	0xad2e	-0.08093
170	0xa6cb	-0.02654
171	0xa9f5	-0.04654
172	0x21cf	0.011345
173	0x21ca	0.01131
174	0xa8c6	-0.0373
175	0x28d0	0.0376
176	0xa901	-0.0391
177	0x9c71	-0.004337
178	0x1cc1	0.004642
179	0xac9e	-0.07214
180	0x25f4	0.02325
181	0xa0ae	-0.00914
182	0xa14e	-0.01036
183	0x2f0b	0.11005
184	0xb248	-0.1963
185	0xaaa1	-0.0518
186	0x1f61	0.007206
187	0xa40e	-0.01584
188	0x1c68	0.004303
189	0xa9c3	-0.045
190	0xaccd	-0.075
191	0x230c	0.01376
192	0x295c	0.04187
193	0xae48	-0.09814
194	0xa7dc	-0.0307
195	0xa663	-0.02495
196	0xadff	-0.0937
197	0xac4b	-0.0671
198	0xae99	-0.1031
199	0xac77	-0.06976
200	0xa420	-0.01611
201	0xb001	-0.1251
202	0x219d	0.01096
203	0x28db	0.03793
204	0xab44	-0.05676
205	0xac88	-0.0708
206	0xaad8	-0.05347
207	0x9482	-0.001101
208	0x2b04	0.0548
209	0x2331	0.014046
210	0xa673	-0.02519
211	0x2731	0.02809
212	0x2447	0.01671
213	0xaa38	-0.04858
214	0x90f0	-0.0006027
215	0x29bc	0.0448
216	0x245d	0.01704
217	0x2559	0.02089
218	0xa402	-0.01566
219	0x2987	0.04318
220	0x9e19	-0.005955
221	0xa692	-0.02567
222	0xa0a1	-0.00904
223	0x2cde	0.07605
224	0xa726	-0.02792
225	0xa7d2	-0.03055
226	0xaaaf	-0.05222
227	0xa7fb	-0.03117
228	0x2da7	0.0883
229	0x2488	0.0177
230	0xa972	-0.04254
231	0xa9f7	-0.0466
232	0x2aa3	0.05185
233	0x2d85	0.08624
234	0xaa18	-0.0476
235	0x2b7a	0.0584
236	0x2aed	0.0541
237	0xa87d	-0.03506
238	0x2922	0.0401
239	0x2722	0.02786
240	0x2a6d	0.0502
241	0xaae8	-0.05396
242	0x24a8	0.01819
243	0x27fa	0.03116
244	0x28a8	0.03638
245	0x260e	0.02365
246	0xa83f	-0.03317
247	0xa4b2	-0.01834
248	0xac3f	-0.06635
249	0x2752	0.0286
250	0xa09a	-0.00899
251	0x1e55	0.006184
252	0xa7d2	-0.03055
253	0xa83f	-0.03317
254	0xa40e	-0.01584
255	0x3118	0.1592

0.body.1.body.1.bias f2 [16]
0	0x2d21	0.08014
1	0xaa7c	-0.05066
2	0xafef	-0.12396
3	0xa8af	-0.0366
4	0x2460	0.01709
5	0xaeb2	-0.1046
6	0xac02	-0.0626
7	0xa7c5	-0.03035
8	0x23cd	0.015236
9	0x2d59	0.08356
10	0x3247	0.1962
11	0x2b74	0.05823
12	0xa63d	-0.02437
13	0x284c	0.03357
14	0xa405	-0.0157
15	0x2668	0.02502

0.body.2.body.0.body.0.weight f2 [16, 16, 3, 3]
0	0xb090	-0.1426
1	0xb4f3	-0.3093
2	0xaf2b	-0.112
3	0x25da	0.02286
4	0xb00f	-0.1268
5	0xb108	-0.1572
6	0x9934	-0.00254
7	0x2dab	0.08856
8	0x2c4a	0.067
9	0x29af	0.0444
10	0x357d	0.343
11	0x2e94	0.1028
12	0x1f27	0.006985
13	0xad83	-0.0861
14	0x2591	0.02174
15	0x2d1b	0.0798
16	0xb239	-0.1945
17	0xad5d	-0.0838
18	0xac35	-0.06573
19	0x2c6f	0.0693
20	0xa8f9	-0.03885
21	0xacff	-0.07806
22	0x27c4	0.03033
23	0xa49c	-0.018
24	0xadd2	-0.09094
25	0x2c2e	0.0653
26	0x2b57	0.05734
27	0xaf45	-0.1136
28	0xb34f	-0.2284
29	0xac69	-0.0689
30	0x2af8	0.05444
31	0x3168	0.169
32	0xae7a	-0.1012
33	0xa6b2	-0.02615
34	0xaccc	-0.07495
35	0x282b	0.03256
36	0xafa0	-0.11914
37	0xb0af	-0.1464
38	0xa85e	-0.03412
39	0x2321	0.01392
40	0x2e61	0.0997
41	0x3186	0.1726
42	0xa1e3	-0.0115
43	0x2b6c	0.05798
44	0xa922	-0.0401
45	0xb390	-0.2363
46	0xb68c	-0.4092
47	0x1d32	0.005074
48	0x3372	0.2327
49	0x3278	0.2021
50	0xb1e3	-0.184
51	0x2f94	0.1184
52	0x996b	-0.002645
53	0x28cd	0.0375
54	0x20a3	0.009056
55	0x34ca	0.2993
56	0x2b6b	0.05795
57	0x2da1	0.08795
58	0xad6e	-0.08484
59	0xad81	-0.086
60	0x240c	0.01581
61	0xb066	-0.1375
62	0x1ffb	0.007793
63	0x29ec	0.04626
64	0xa94e	-0.04144
65	0x3238	0.1943
66	0xadb9	-0.0894
67	0x2927	0.04025
68	0xae74	-0.1008
69	0xa925	-0.0402
70	0xa9ad	-0.04434
71	0xa441	-0.01662
72	0x2c40	0.0664
73	0x314f	0.1659
74	0x242d	0.01631
75	0xab6f	-0.05807
76	0xb44a	-0.268
77	0xb06c	-0.1382
78	0xa20a	-0.011795
79	0x3090	0.1426
80	0x27df	0.03075
81	0xad74	-0.0852
82	0xac4d	-0.0672
83	0xabe0	-0.06152
84	0x2b9f	0.05954
85	0x2d7d	0.08575
86	0xaaf3	-0.0543
87	0x287d	0.03506
88	0xafe4	-0.1233
89	0x2b0e	0.0551
90	0xa41e	-0.01608
91	0xa813	-0.03183
92	0x3086	0.1414
93	0xa5b5	-0.0223
94	0xa550	-0.02075
95	0x1fc4	0.007584
96	0xa468	-0.01721
97	0x2870	0.03467
98	0x187d	0.002192
99	0xb013	-0.1273
100	0xb11c	-0.1597
101	0x9b1f	-0.003477
102	0x2c6f	0.0693
103	0x2aea	0.05402
104	0x2b6f	0.05807
105	0x2efb	0.1091
106	0x2032	0.008194
107	0xa407	-0.01573
108	0xac65	-0.06866
109	0xa5b7	-0.02232
110	0x2ce9	0.0767
111	0x23bb	0.0151
112	0x2b54	0.05725
113	0x2977	0.0427
114	0x1cb8	0.00461
115	0x301c	0.1284
116	0x21e4	0.011505
117	0x2f5a	0.11487
118	0x224d	0.01231
119	0x2c5b	0.06805
120	0x2e4b	0.0983
121	0xaa9d	-0.05167
122	0xae0e	-0.0946
123	0xac44	-0.06665
124	0xaa14	-0.0475
125	0xa600	-0.02344
126	0x94d0	-0.001175
127	0xb32a	-0.2239
128	0xa9ea	-0.0462
129	0xae02	-0.0939
130	0x301e	0.1287
131	0x2443	0.01665
132	0xa612	-0.02371
133	0x1e16	0.005943
134	0x294b	0.04135
135	0x2dfd	0.09357
136	0x320a	0.1887
137	0xb213	-0.1898
138	0x2ee7	0.10785
139	0xb41e	-0.2573
140	0xa15d	-0.010475
141	0xa9a7	-0.04416
142	0x303e	0.1326
143	0x9f92	-0.007393
144	0xadb3	-0.08905
145	0xb427	-0.2595
146	0xa887	-0.03537
147	0x301b	0.1283
148	0x289e	0.03607
149	0xa86b	-0.03452
150	0x2a8d	0.05118
151	0xa85a	-0.034
152	0x2b94	0.0592
153	0xb15e	-0.1677
154	0xb018	-0.1279
155	0x26b3	0.02617
156	0xb06e	-0.1384
157	0xaa6e	-0.05023
158	0x2eb8	0.105
159	0xae8b	-0.10223
160	0xacd9	-0.07574
161	0x2dff	0.0937
162	0x2ce8	0.07666
163	0x289c	0.036
164	0x2b15	0.05533
165	0xa81d	-0.03214
166	0xace1	-0.07623
167	0x2de9	0.09235
168	0xac96	-0.07166
169	0x2990	0.04346
170	0x2d80	0.08594
171	0xa511	-0.01979
172	0xb067	-0.1376
173	0xb08e	-0.1423
174	0xaeb4	-0.10474
175	0xa6da	-0.02676
176	0xb40c	-0.253
177	0x9b11	-0.00345
178	0x2ffa	0.12463
179	0xa9e7	-0.0461
180	0xade5	-0.0921
181	0x2bf4	0.06213
182	0xa98a	-0.04327
183	0xa91f	-0.04
184	0x2a42	0.0489
185	0xa861	-0.0342
186	0x2cbc	0.074
187	0xabe2	-0.06158
188	0x25e3	0.023
189	0xac96	-0.07166
190	0x30af	0.1464
191	0xa942	-0.04108
192	0xa50e	-0.01974
193	0x2fe8	0.12354
194	0xa9bb	-0.04477
195	0xadf8	-0.09326
196	0xaa32	-0.0484
197	0xa756	-0.02866
198	0xb058	-0.1357
199	0xa383	-0.01467
200	0x9c1b	-0.00401
201	0xb1cd	-0.1813
202	0xab28	-0.0559
203	0xaff9	-0.1246
204	0xad63	-0.08417
205	0xa4ce	-0.01877
206	0x2f09	0.1099
207	0x2cb4	0.0735
208	0x24e3	0.01909
209	0x2a4c	0.0492
210	0x319c	0.1753
211	0x2d63	0.08417
212	0x171e	0.001738
213	0x2e56	0.099
214	0xaf07	-0.1098
215	0xac4b	-0.0671
216	0x27cc	0.03046
217	0x2b41	0.05667
218	0x2cbd	0.07404
219	0x2c42	0.0665
220	0xaaf9	-0.05447
221	0xa483	-0.01762
222	0x2d93	0.0871
223	0x2f4f	0.1142
224	0x27c0	0.03027
225	0xaa80	-0.05078
226	0xaf0f	-0.1103
227	0xb0a7	-0.1454
228	0xa940	-0.04102
229	0xb2bc	-0.2104
230	0xafe8	-0.12354
231	0xade7	-0.0922
232	0xae35	-0.097
233	0xa8a3	-0.03622
234	0xa974	-0.0426
235	0xac52	-0.0675
236	0xac17	-0.0639
237	0x2e40	0.09766
238	0x2a3e	0.04877
239	0x2e9e	0.1034
240	0xa95f	-0.04196
241	0x2e99	0.1031
242	0xa629	-0.02406
243	0x2732	0.0281
244	0x2401	0.01564
245	0xa97e	-0.0429
246	0x2496	0.01791
247	0x2fba	0.1207
248	0xab67	-0.05783
249	0xae0c	-0.0945
250	0x27ec	0.03094
251	0x2c53	0.06757
252	0xada0	-0.0879
253	0xad23	-0.08026
254	0xa700	-0.02734
255	0x237a	0.0146

0.body.2.body.0.body.0.bias f2 [16]
0	0x2f2e	0.1122
1	0x2e12	0.09485
2	0x2cd6	0.07556
3	0x2ced	0.07697
4	0xaf22	-0.11145
5	0xa36d	-0.0145
6	0x308f	0.1425
7	0xae7a	-0.1012
8	0xa951	-0.04153
9	0x2d2f	0.081
10	0xaccc	-0.07495
11	0x2d7c	0.0857
12	0x2daf	0.0888
13	0x2221	0.01197
14	0x2824	0.03235
15	0x2c4a	0.067

0.body.2.body.0.body.2.weight f2 [16, 16, 3, 3]
0	0x1d41	0.00513
1	0xaa28	-0.0481
2	0x2cfd	0.07794
3	0x2e33	0.09686
4	0x311f	0.16
5	0x2975	0.04263
6	0x3271	0.2013
7	0x18ff	0.00244
8	0x30ca	0.1497
9	0xa102	-0.00978
10	0x2f9f	0.1191
11	0x280c	0.03162
12	0xaba3	-0.05966
13	0xae0d	-0.09454
14	0xa87a	-0.03497
15	0xa505	-0.0196
16	0x2b38	0.0564
17	0xafa9	-0.1197
18	0xb0c2	-0.1487
19	0xb255	-0.1979
20	0x2a11	0.0474
21	0xafb6	-0.1205
22	0x342c	0.2607
23	0x2881	0.0352
24	0xa111	-0.009895
25	0xaf7a	-0.1168
26	0x2ecc	0.1062
27	0x36a8	0.416
28	0x3482	0.2817
29	0x2ff7	0.12445
30	0x35e1	0.3674
31	0xb584	-0.3447
32	0x3054	0.1353
33	0x2f55	0.11456
34	0x201a	0.00801
35	0x2f5e	0.1151
36	0xb07c	-0.1401
37	0x2f48	0.1138
38	0xacf4	-0.0774
39	0xb039	-0.132
40	0x2e51	0.0987
41	0xaa58	-0.04956
42	0x2194	0.010895
43	0x2a43	0.04892
44	0x2c08	0.063
45	0xb0e1	-0.1525
46	0x1670	0.001572
47	0xac19	-0.064
48	0xac3b	-0.0661
49	0x31ce	0.1814
50	0xae2b	-0.0964
51	0x2675	0.02522
52	0x9519	-0.001245
53	0xaef3	-0.1086
54	0x9dca	-0.005653
55	0xae32	-0.0968
56	0xa21e	-0.01195
57	0x2fd5	0.1224
58	0xa0ac	-0.009125
59	0x282c	0.0326
60	0x2bf4	0.06213
61	0x301a	0.1282
62	0x2cb5	0.07355
63	0xa676	-0.02524
64	0x20f4	0.009674
65	0xa83f	-0.03317
66	0x9fce	-0.00762
67	0xaecf	-0.1064
68	0xad21	-0.08014
69	0xaeb9	-0.10504
70	0x2518	0.0199
71	0xaf75	-0.1165
72	0xac72	-0.06946
73	0xa87a	-0.03497
74	0x303e	0.1326
75	0xab30	-0.05615
76	0x30c2	0.1487
77	0x271e	0.0278
78	0x2190	0.010864
79	0x2861	0.0342
80	0xac96	-0.07166
81	0x2742	0.02835
82	0xaa43	-0.04892
83	0x2c7c	0.07007
84	0xac46	-0.0668
85	0xb01b	-0.1283
86	0x31f0	0.1855
87	0xaf27	-0.11176
88	0xae62	-0.09973
89	0x9612	-0.001482
90	0xaadb	-0.05356
91	0xa14f	-0.01037
92	0xa534	-0.02032
93	0xae74	-0.1008
94	0xa773	-0.0291
95	0x2863	0.03427
96	0x22c6	0.01323
97	0x2b3f	0.0566
98	0x2faf	0.12006
99	0x9e22	-0.00599
100	0xa5dd	-0.0229
101	0xa79e	-0.02975
102	0x2dcd	0.09064
103	0xa9b4	-0.04456
104	0xaf4a	-0.1139
105	0xb145	-0.1647
106	0x3239	0.1945
107	0xad86	-0.0863
108	0x953d	-0.001279
109	0xab72	-0.05817
110	0x2403	0.01567
111	0xa485	-0.01765
112	0x3011	0.1271
113	0xaed5	-0.10675
114	0x2cd1	0.07526
115	0x318c	0.1733
116	0x1fb6	0.00753
117	0x2d82	0.08606
118	0x32e7	0.2157
119	0xa911	-0.03958
120	0xae01	-0.0938
121	0x25a5	0.02205
122	0xb107	-0.1571
123	0x1493	0.001117
124	0xaf6b	-0.1159
125	0x2920	0.04004
126	0xa2b9	-0.01313
127	0xaaab	-0.0521
128	0xb0d0	-0.1504
129	0xa394	-0.0148
130	0xb41c	-0.2568
131	0xb0de	-0.1521
132	0xb046	-0.1335
133	0x1f66	0.007225
134	0xb474	-0.2783
135	0xad24	-0.0803
136	0x2e90	0.10254
137	0x2adb	0.05356
138	0xb22c	-0.1929
139	0x1eeb	0.006756
140	0x28b7	0.03683
141	0x2689	0.02553
142	0x2c5a	0.068
143	0x299d	0.04385
144	0x29bd	0.04483
145	0x92cc	-0.0008297
146	0x222b	0.01205
147	0x29e4	0.04602
148	0x2c79	0.0699
149	0x2af1	0.05423
150	0x2d93	0.0871
151	0xa8b3	-0.0367
152	0x2c8f	0.0712
153	0xa391	-0.01478
154	0xa89b	-0.03598
155	0x2d88	0.0864
156	0xb026	-0.1296
157	0xaad8	-0.05347
158	0x280f	0.0317
159	0x2bb6	0.06024
160	0x3196	0.1746
161	0xa86a	-0.0345
162	0x0e07	0.0003679
163	0xac4f	-0.0673
164	0x2fed	0.12384
165	0x2ad3	0.0533
166	0x304e	0.1345
167	0x3052	0.135
168	0x1886	0.002209
169	0xab9d	-0.05948
170	0x283a	0.03302
171	0x3545	0.3293
172	0x2ab2	0.0523
173	0xa398	-0.01483
174	0x265b	0.02483
175	0x2dcb	0.0905
176	0x2be4	0.06165
177	0x2f2b	0.112
178	0x9a5d	-0.003107
179	0x260d	0.02364
180	0xae12	-0.09485
181	0xa03b	-0.00826
182	0x2ce5	0.0765
183	0x29ee	0.04633
184	0x2ced	0.07697
185	0xa88d	-0.03555
186	0x2e50	0.09863
187	0x990a	-0.00246
188	0x2fc3	0.1213
189	0xaf89	-0.11774
190	0x3256	0.198
191	0xaf7d	-0.117
192	0x2e10	0.0947
193	0x304f	0.1346
194	0xaedb	-0.1071
195	0xa872	-0.03473
196	0xac33	-0.0656
197	0xaac1	-0.05276
198	0x2b05	0.05484
199	0x2e8d	0.10236
200	0x1ea2	0.006477
201	0x2e16	0.0951
202	0x3448	0.2676
203	0x28d8	0.03784
204	0x2609	0.02357
205	0x3047	0.1337
206	0x2d10	0.0791
207	0xb051	-0.1349
208	0xb261	-0.1993
209	0xb19b	-0.1752
210	0xad10	-0.0791
211	0xafc4	-0.12134
212	0xa48c	-0.01776
213	0xaaab	-0.0521
214	0xb450	-0.2695
215	0xac73	-0.0695
216	0xadb6	-0.08923
217	0x3345	0.2272
218	0x2b85	0.05875
219	0xb2c6	-0.2117
220	0x2610	0.02368
221	0x27bd	0.03023
222	0xa44d	-0.0168
223	0xacdd	-0.076
224	0xafd4	-0.1223
225	0x212c	0.0101
226	0x2e38	0.09717
227	0xac49	-0.06696
228	0xb240	-0.1953
229	0x28fd	0.03897
230	0x26d5	0.02669
231	0xab59	-0.0574
232	0xa9dd	-0.0458
233	0x8e65	-0.0003903
234	0xab15	-0.05533
235	0xacee	-0.077
236	0xa92d	-0.04044
237	0xa678	-0.02527
238	0x2f4e	0.11414
239	0xab68	-0.05786
240	0x16e1	0.001679
241	0x2aec	0.05408
242	0x1551	0.001298
243	0x2f07	0.1098
244	0xa816	-0.03192
245	0x2667	0.02501
246	0x226c	0.01254
247	0xb072	-0.1389
248	0xae74	-0.1008
249	0x3057	0.1356
250	0xade3	-0.092
251	0xb101	-0.1564
252	0xaf0f	-0.1103
253	0x26a3	0.02592
254	0x2801	0.03128
255	0xa6cc	-0.02655

0.body.2.body.0.body.2.bias f2 [16]
0	0xaf29	-0.1119
1	0x2d44	0.0823
2	0x31b6	0.1785
3	0x2b32	0.0562
4	0xa9c3	-0.045
5	0xa937	-0.04074
6	0x284c	0.03357
7	0x2a6a	0.0501
8	0xa922	-0.0401
9	0x2fb9	0.12067
10	0xa1e5	-0.01151
11	0x25b9	0.02235
12	0xa477	-0.01744
13	0x2891	0.03568
14	0x2d4b	0.0827
15	0xb36c	-0.2319
