tmp/edge-cdp-profile/EdgeOnnxRuntimeDirectML/1.19.2.0/VideoSuperResolution-FP16.onnx (onnx, 795924 bytes, 134 tensors)

head.0.weight f2 [32, 3, 3, 3]
0	0x1c97	0.004482
1	0x2f50	0.11426
2	0xacd6	-0.07556
3	0xa4dc	-0.01898
4	0xabef	-0.06198
5	0x2655	0.02473
6	0xa8c7	-0.03732
7	0x263b	0.02434
8	0xac16	-0.06384
9	0x28f6	0.03876
10	0xaea0	-0.1035
11	0xaa97	-0.05148
12	0xb0ce	-0.1501
13	0xb2cd	-0.2125
14	0xaa91	-0.0513
15	0x2c64	0.0686
16	0x1e38	0.006073
17	0x259f	0.02196
18	0xaa6c	-0.05017
19	0x2662	0.02493
20	0x28fd	0.03897
21	0x3013	0.1273
22	0x2ff2	0.12415
23	0x301e	0.1287
24	0xa9c3	-0.045
25	0xa2cf	-0.0133
26	0x945f	-0.001067
27	0xa1c8	-0.01129
28	0xa917	-0.03976
29	0x2608	0.02356
30	0xab64	-0.05774
31	0x3065	0.1373
32	0xaf8d	-0.118
33	0xacb9	-0.0738
34	0xa7a1	-0.0298
35	0x9c3a	-0.004128
36	0x1f84	0.00734
37	0xa3ea	-0.01546
38	0x2c80	0.0703
39	0x2c24	0.0647
40	0xb03c	-0.1323
41	0xa7d3	-0.03056
42	0x26a1	0.0259
43	0xb1ae	-0.1775
44	0xa28c	-0.01279
45	0x9fd7	-0.007656
46	0x2ad8	0.05347
47	0xa46d	-0.01729
48	0x9b48	-0.003555
49	0x2da1	0.08795
50	0x2d70	0.08496
51	0x2bca	0.06085
52	0x2fa5	0.11945
53	0x2964	0.0421
54	0x2a22	0.0479
55	0xb06c	-0.1382
56	0xa75b	-0.02873
57	0xab8b	-0.05893
58	0xb171	-0.17
59	0xab60	-0.05762
60	0x2a2d	0.04825
61	0x2da7	0.0883
62	0x220f	0.01183
63	0xa814	-0.03186
64	0x300e	0.1267
65	0xaab8	-0.0525
66	0x2043	0.00832
67	0x2b68	0.05786
68	0x3020	0.1289
69	0x2eab	0.1042
70	0xaafe	-0.05463
71	0x281d	0.03214
72	0xa467	-0.0172
73	0x3064	0.1372
74	0x2ac2	0.0528
75	0x310f	0.1581
76	0xa7a8	-0.0299
77	0xb0c3	-0.1488
78	0xaa83	-0.05087
79	0xae03	-0.09393
80	0xa7bc	-0.03021
81	0x2e78	0.1011
82	0x2b65	0.05777
83	0xb175	-0.1705
84	0x3093	0.143
85	0xa50d	-0.01973
86	0x2c5d	0.0682
87	0xa89f	-0.0361
88	0x2889	0.03543
89	0x2807	0.03146
90	0xa4ee	-0.01926
91	0x2c21	0.0645
92	0x2e80	0.10156
93	0x2880	0.03516
94	0xb36c	-0.2319
95	0x246f	0.01732
96	0x267d	0.02534
97	0x2852	0.03375
98	0xa4cf	-0.01878
99	0xac15	-0.0638
100	0x2d6f	0.0849
101	0x2c7f	0.07025
102	0xaefa	-0.109
103	0xb173	-0.1703
104	0xadd2	-0.09094
105	0x2736	0.02817
106	0xad54	-0.08325
107	0xa33d	-0.01414
108	0xa230	-0.012085
109	0x2fda	0.1227
110	0xa575	-0.02132
111	0x2c82	0.07043
112	0xad63	-0.08417
113	0x3026	0.1296
114	0x22cd	0.01328
115	0xa05a	-0.0085
116	0xabc4	-0.06067
117	0x2c02	0.0626
118	0xa6cd	-0.02657
119	0x28bf	0.03708
120	0x2e74	0.1008
121	0xac7f	-0.07025
122	0xa867	-0.0344
123	0x2b2a	0.05597
124	0xabaa	-0.05988
125	0xa1eb	-0.01156
126	0xac4a	-0.067
127	0xa65a	-0.02481
128	0xa9e7	-0.0461
129	0xaf6b	-0.1159
130	0xadc9	-0.0904
131	0xa0a2	-0.00905
132	0xaef1	-0.10846
133	0x2d22	0.0802
134	0x2c13	0.06366
135	0x9ad9	-0.003344
136	0x2e79	0.10114
137	0x9e13	-0.00593
138	0xa2dd	-0.013405
139	0x352a	0.3228
140	0x314a	0.1653
141	0xa66b	-0.02507
142	0x3014	0.1274
143	0xac33	-0.0656
144	0xa736	-0.02817
145	0xb053	-0.1351
146	0x28b5	0.03677
147	0x9ac7	-0.00331
148	0xb281	-0.2032
149	0xb10c	-0.1577
150	0x2650	0.02466
151	0xaf32	-0.1124
152	0x1d04	0.004898
153	0x29a7	0.04416
154	0x2bb9	0.06033
155	0xa536	-0.02036
156	0x25f4	0.02325
157	0xb32b	-0.224
158	0xa1d3	-0.011375
159	0x9c07	-0.003933
160	0xa438	-0.01648
161	0x2ae4	0.05383
162	0xa882	-0.03522
163	0xafb3	-0.1203
164	0x243d	0.01656
165	0x28ab	0.03647
166	0xae03	-0.09393
167	0x2cf2	0.0773
168	0xaca4	-0.0725
169	0xaa85	-0.05093
170	0x2f08	0.10986
171	0x1fe0	0.00769
172	0x3129	0.1613
173	0xa3f3	-0.015526
174	0xb0eb	-0.1537
175	0x31a3	0.1761
176	0xaca2	-0.0724
177	0xa76d	-0.029
178	0x3071	0.1388
179	0xad1c	-0.07983
180	0x2660	0.0249
181	0xabf1	-0.06204
182	0x29a8	0.0442
183	0x27f3	0.03105
184	0x2c49	0.06696
185	0x25d5	0.02278
186	0x2634	0.02423
187	0xa9a6	-0.04413
188	0xabda	-0.06134
189	0x24aa	0.01822
190	0x3068	0.1377
191	0x2be5	0.06168
192	0xae1f	-0.09564
193	0x24a1	0.01808
194	0xab7f	-0.05856
195	0x2b36	0.05634
196	0xaccd	-0.075
197	0x2c24	0.0647
198	0xa87b	-0.035
199	0xa2ca	-0.01326
200	0x285b	0.03403
201	0x2e3a	0.0973
202	0xb406	-0.2515
203	0xaef0	-0.1084
204	0xaa00	-0.04688
205	0x2580	0.02148
206	0xadce	-0.0907
207	0x1f1b	0.00694
208	0x2277	0.01263
209	0xaa18	-0.0476
210	0x2b20	0.05566
211	0x3037	0.1317
212	0x2e44	0.0979
213	0xa92b	-0.04037
214	0x27b4	0.03009
215	0x2472	0.01736
216	0xad24	-0.0803
217	0x2778	0.02917
218	0x292a	0.04034
219	0xab36	-0.05634
220	0xac87	-0.07074
221	0x2c7a	0.06995
222	0x251f	0.02
223	0x21af	0.0111
224	0xad8a	-0.08655
225	0x2a8e	0.0512
226	0xaa38	-0.04858
227	0xaa42	-0.0489
228	0x2999	0.04373
229	0xb1da	-0.1829
230	0xac1f	-0.0644
231	0x281e	0.03217
232	0xae08	-0.09424
233	0x2e2a	0.0963
234	0x2b36	0.05634
235	0xa33d	-0.01414
236	0x244c	0.01678
237	0x29db	0.04575
238	0xa88f	-0.0356
239	0x2cb2	0.07336
240	0x2669	0.02504
241	0x3089	0.1417
242	0xa708	-0.02747
243	0xa9b1	-0.04446
244	0x2d2b	0.08075
245	0xa18d	-0.01084
246	0x2fd3	0.12225
247	0xad06	-0.0785
248	0x2c33	0.0656
249	0xa488	-0.0177
250	0xaa5d	-0.0497
251	0x24d4	0.01886
252	0x2724	0.0279
253	0xae93	-0.1027
254	0xa928	-0.04028
255	0xb037	-0.1317

head.0.bias f2 [32]
0	0x2d6e	0.08484
1	0xa625	-0.024
2	0xa9e7	-0.0461
3	0xa898	-0.0359
4	0x2339	0.01411
5	0x1d75	0.00533
6	0x24f1	0.0193
7	0xa0f7	-0.0097
8	0xac1c	-0.0642
9	0x2149	0.01032
10	0x2703	0.02739
11	0x26d1	0.02663
12	0x2c00	0.0625
13	0x2d65	0.0843
14	0xb106	-0.157
15	0x28c9	0.03738
16	0x261b	0.02385
17	0xad7c	-0.0857
18	0xa85a	-0.034
19	0x2d7f	0.0859
20	0x268f	0.02562
21	0x9d9a	-0.00547
22	0x1d0f	0.00494
23	0xa760	-0.02881
24	0x2561	0.02101
25	0x24bc	0.0185
26	0xacb4	-0.0735
27	0x2d66	0.08435
28	0x2035	0.00822
29	0x2bb6	0.06024
30	0x9761	-0.0018015
31	0x29b7	0.04465

body.0.body.0.body.0.weight f2 [32, 32, 3, 3]
0	0xaf5e	-0.1151
1	0xb46f	-0.277
2	0xb1a1	-0.1759
3	0x2b5e	0.05756
4	0x3006	0.1257
5	0x3220	0.1914
6	0x3112	0.1584
7	0x3084	0.1411
8	0x2f64	0.1155
9	0xa69c	-0.02582
10	0xa71a	-0.02774
11	0x2c94	0.07153
12	0xb131	-0.1622
13	0xb190	-0.1738
14	0xad51	-0.08307
15	0xa934	-0.04065
16	0xa3bc	-0.01511
17	0xb024	-0.1294
18	0x3492	0.2856
19	0x30b9	0.1476
20	0xacbf	-0.07416
21	0x327e	0.2029
22	0x301e	0.1287
23	0x3461	0.2737
24	0xadb3	-0.08905
25	0xb03c	-0.1323
26	0x2513	0.01982
27	0x2cce	0.0751
28	0x2813	0.03183
29	0xa612	-0.02371
30	0x2a19	0.04764
31	0xb0a5	-0.1451
32	0x2974	0.0426
33	0x2db6	0.08923
34	0x2c3b	0.0661
35	0xa097	-0.008965
36	0xb0da	-0.1516
37	0xa9dc	-0.04578
38	0x2fa0	0.11914
39	0xac6f	-0.0693
40	0xad2d	-0.0809
41	0xaa2f	-0.0483
42	0x24ff	0.01952
43	0xb08e	-0.1423
44	0x2bc6	0.06073
45	0x2db4	0.0891
46	0x308b	0.142
47	0xabd8	-0.06128
48	0x97ca	-0.001902
49	0xab3c	-0.05652
50	0xb2ad	-0.2086
51	0xaaf7	-0.0544
52	0x269a	0.02579
53	0x9a41	-0.003054
54	0x2d29	0.0806
55	0x26d5	0.02669
56	0xb257	-0.1981
57	0xa7dc	-0.0307
58	0x265d	0.02486
59	0xb08e	-0.1423
60	0xafea	-0.12366
61	0xadff	-0.0937
62	0xb47d	-0.2805
63	0xb11c	-0.1597
64	0xb0ec	-0.1538
65	0xaef8	-0.1089
66	0x248d	0.01778
67	0xb0f8	-0.1553
68	0xb1fe	-0.1873
69	0x349b	0.2878
70	0x3589	0.346
71	0x2de2	0.0919
72	0xa41f	-0.0161
73	0x2cb5	0.07355
74	0x1e10	0.00592
75	0x1eee	0.006767
76	0x2e03	0.09393
77	0x2827	0.03244
78	0xaceb	-0.07684
79	0xa572	-0.02127
80	0xabd0	-0.06104
81	0xad9c	-0.08765
82	0xafee	-0.1239
83	0xa447	-0.01671
84	0xb143	-0.1644
85	0xaddf	-0.09174
86	0x2bc7	0.06076
87	0xaf47	-0.1137
88	0x3017	0.1278
89	0x2d2a	0.0807
90	0x1cc3	0.00465
91	0xa41c	-0.01605
92	0xacb4	-0.0735
93	0x2e78	0.1011
94	0x28f1	0.0386
95	0x2825	0.03238
96	0xa6eb	-0.02702
97	0xaefd	-0.1092
98	0xa95a	-0.0418
99	0xb10c	-0.1577
100	0xb444	-0.2666
101	0xacb7	-0.07367
102	0xa673	-0.02519
103	0xab85	-0.05875
104	0x282e	0.03265
105	0x2cb5	0.07355
106	0x2cf5	0.07745
107	0x2f58	0.11475
108	0xa93f	-0.041
109	0x249e	0.01804
110	0x2223	0.011986
111	0xab38	-0.0564
112	0x9b0d	-0.003443
113	0x2914	0.03967
114	0x2715	0.02766
115	0x2a84	0.0509
116	0x2e93	0.1027
117	0x2a09	0.04715
118	0x2c8d	0.0711
119	0x3202	0.1877
120	0x9b61	-0.003603
121	0x23cb	0.01522
122	0x21cc	0.01132
123	0x2ad7	0.05344
124	0xa075	-0.008705
125	0x2454	0.0169
126	0xaf38	-0.1128
127	0x9d73	-0.00532
128	0x2283	0.01272
129	0xad13	-0.0793
130	0x961b	-0.001491
131	0x2cf3	0.07733
132	0xa68b	-0.02556
133	0x2d11	0.07916
134	0x2e70	0.1006
135	0x334b	0.2279
136	0x31a0	0.1758
137	0xb100	-0.1562
138	0x3273	0.2015
139	0x2b07	0.0549
140	0xb54b	-0.3308
141	0x2c39	0.066
142	0xad82	-0.08606
143	0xacea	-0.0768
144	0x2cda	0.0758
145	0x3219	0.1906
146	0xb00a	-0.1262
147	0xa599	-0.02187
148	0xaad8	-0.05347
149	0xb053	-0.1351
150	0x3254	0.1978
151	0x3070	0.1387
152	0xb1b8	-0.1787
153	0x2c9e	0.07214
154	0x263f	0.0244
155	0xab47	-0.05685
156	0x28e0	0.0381
157	0x2563	0.02104
158	0xaf93	-0.11835
159	0xaa1c	-0.04773
160	0xa691	-0.02565
161	0xacb7	-0.07367
162	0x25c2	0.02249
163	0xada3	-0.0881
164	0x2d28	0.08057
165	0x321c	0.1909
166	0x31f7	0.1864
167	0x325e	0.199
168	0xa260	-0.01245
169	0xb0e5	-0.153
170	0xb363	-0.2308
171	0x2855	0.03384
172	0x25c5	0.02254
173	0xa432	-0.01639
174	0x2f00	0.1094
175	0x22c1	0.01319
176	0xabec	-0.0619
177	0x2a50	0.04932
178	0x2644	0.02448
179	0xac2d	-0.06525
180	0x2aec	0.05408
181	0x2974	0.0426
182	0x3276	0.2019
183	0x2517	0.01988
184	0x2c03	0.0627
185	0x2b57	0.05734
186	0xb012	-0.1272
187	0xacfd	-0.07794
188	0x29df	0.04587
189	0x27fe	0.03122
190	0x213a	0.01021
191	0x2f07	0.1098
192	0xa821	-0.03226
193	0x21da	0.01143
194	0x30e7	0.1532
195	0xa90e	-0.0395
196	0xa931	-0.04056
197	0x2f65	0.11554
198	0xa4e6	-0.01913
199	0xa938	-0.04077
200	0x2c84	0.07056
201	0xafa8	-0.1196
202	0xac55	-0.0677
203	0x25f8	0.02332
204	0x22c1	0.01319
205	0x996e	-0.002651
206	0x2e28	0.0962
207	0x2204	0.01175
208	0x2c71	0.0694
209	0xb19e	-0.1755
210	0xb62d	-0.386
211	0xb469	-0.2756
212	0xb4fe	-0.312
213	0x15ac	0.001385
214	0xa439	-0.0165
215	0xb07b	-0.14
216	0x348d	0.2844
217	0x3456	0.271
218	0x355a	0.3345
219	0xb398	-0.2373
220	0xb42c	-0.2607
221	0xac67	-0.0688
222	0xb169	-0.1691
223	0xb224	-0.1919
224	0xa4b7	-0.01842
225	0x1cfb	0.004864
226	0x994b	-0.002584
227	0xacf1	-0.0772
228	0xaf47	-0.1137
229	0xafa1	-0.1192
230	0xb378	-0.2334
231	0x9cd7	-0.004726
232	0x2472	0.01736
233	0xa8af	-0.0366
234	0x3116	0.1589
235	0x2fb2	0.12024
236	0xaca7	-0.0727
237	0x34f3	0.3093
238	0x2784	0.02936
239	0xb3f3	-0.2484
240	0xad91	-0.087
241	0xb489	-0.2834
242	0xb66a	-0.401
243	0xada8	-0.0884
244	0xb173	-0.1703
245	0xae57	-0.09906
246	0x2d27	0.0805
247	0x29cc	0.0453
248	0x24af	0.0183
249	0x30e6	0.1531
250	0x2e72	0.1007
251	0xa421	-0.01613
252	0x1d21	0.00501
253	0xb5ef	-0.3708
254	0xb029	-0.13
255	0x2e75	0.1009

body.0.body.0.body.0.bias f2 [32]
0	0xa875	-0.03482
1	0x2e4f	0.0986
2	0x3186	0.1726
3	0x24a2	0.0181
4	0x9f8a	-0.007362
5	0xae3a	-0.0973
6	0xa1ea	-0.01155
7	0x29dc	0.04578
8	0x30ab	0.1459
9	0xad4e	-0.0829
10	0x287d	0.03506
11	0x23f3	0.015526
12	0x2551	0.02077
13	0x2cc9	0.07477
14	0xade6	-0.09216
15	0xa93d	-0.04092
16	0xa5f1	-0.02321
17	0xa9c7	-0.04514
18	0x24bd	0.01851
19	0x9a82	-0.003178
20	0x9fa3	-0.007458
21	0x1c7e	0.004387
22	0x26cd	0.02657
23	0x303c	0.1323
24	0xa29f	-0.01293
25	0xa790	-0.02954
26	0x27f8	0.03113
27	0x28a7	0.03635
28	0xac98	-0.0718
29	0x279f	0.02977
30	0x2f3a	0.1129
31	0x29f7	0.0466

body.0.body.0.body.2.weight f2 [32, 32, 3, 3]
0	0xaf49	-0.11383
1	0xafc2	-0.1212
2	0x2aab	0.0521
3	0xb124	-0.1606
4	0xa7fb	-0.03117
5	0xadbc	-0.0896
6	0x25ea	0.0231
7	0xa196	-0.01091
8	0x2c70	0.06934
9	0xab00	-0.0547
10	0xadb8	-0.08936
11	0x21c8	0.01129
12	0xae72	-0.1007
13	0xad00	-0.0781
14	0x30c9	0.1495
15	0xa81e	-0.03217
16	0x2c41	0.06647
17	0x2ca7	0.0727
18	0xa74b	-0.02849
19	0xb087	-0.1415
20	0xad6d	-0.0848
21	0xa943	-0.0411
22	0xaf04	-0.1096
23	0xa925	-0.0402
24	0xa81b	-0.03207
25	0x24e3	0.01909
26	0xad22	-0.0802
27	0xad98	-0.0874
28	0x2b2b	0.056
29	0x2174	0.01065
30	0x22bc	0.01315
31	0x2909	0.03934
32	0x2481	0.0176
33	0xae35	-0.097
34	0xac91	-0.07135
35	0xae05	-0.09406
36	0x943d	-0.001035
37	0x2836	0.0329
38	0xa669	-0.02504
39	0xa4ea	-0.0192
40	0xacd6	-0.07556
41	0x2629	0.02406
42	0xa510	-0.01978
43	0xb120	-0.1602
44	0xb116	-0.1589
45	0xac5a	-0.068
46	0xae0e	-0.0946
47	0xb15d	-0.1676
48	0xadb4	-0.0891
49	0xb06e	-0.1384
50	0xb3a3	-0.2386
51	0xac4a	-0.067
52	0xb0f8	-0.1553
53	0xa7b8	-0.03015
54	0x2fa3	0.1193
55	0x31b9	0.1788
56	0x11b8	0.000698
57	0x2f64	0.1155
58	0x3294	0.2056
59	0x2bb2	0.06012
60	0x3197	0.1747
61	0x35e3	0.368
62	0x2546	0.0206
63	0x2bbb	0.0604
64	0xa658	-0.02478
65	0x9825	-0.002024
66	0xa529	-0.02016
67	0x2e29	0.09625
68	0xa3ff	-0.01562
69	0xa9e2	-0.04596
70	0x23e2	0.015396
71	0x9d2b	-0.005047
72	0xb2b0	-0.209
73	0xb342	-0.2268
74	0xa7cc	-0.03046
75	0x2480	0.01758
76	0xb2ba	-0.2102
77	0x214a	0.01033
78	0xa16b	-0.01058
79	0x2475	0.01741
80	0x2e06	0.0941
81	0x2759	0.0287
82	0x2bbf	0.06052
83	0x2cb1	0.0733
84	0xa447	-0.01671
85	0x2626	0.02402
86	0xa739	-0.02821
87	0x9064	-0.000536
88	0x2d9c	0.08765
89	0x3089	0.1417
90	0x24d0	0.0188
91	0xac40	-0.0664
92	0xa563	-0.02104
93	0x2d9f	0.0878
94	0xacde	-0.07605
95	0x2d62	0.0841
96	0xadec	-0.0925
97	0xafb1	-0.1202
98	0xad97	-0.08734
99	0x0f4e	0.0004458
100	0x2c31	0.0655
101	0x2dd5	0.0911
102	0xa87c	-0.03503
103	0x2f3a	0.1129
104	0x31ba	0.179
105	0x3212	0.1897
106	0x3059	0.1359
107	0x2dc6	0.0902
108	0xb0bb	-0.1478
109	0xb007	-0.1259
110	0xadb5	-0.0892
111	0xb11e	-0.1599
112	0xa40e	-0.01584
113	0x2351	0.01429
114	0xb5be	-0.359
115	0xb22f	-0.1932
116	0xad8e	-0.0868
117	0xad4b	-0.0827
118	0xa48c	-0.01776
119	0xa5d5	-0.02278
120	0xaca5	-0.0726
121	0xa929	-0.0403
122	0xa0e0	-0.00952
123	0x1963	0.00263
124	0x2e4e	0.0985
125	0x2057	0.00848
126	0xa78f	-0.02953
127	0xb07a	-0.1399
128	0xad7c	-0.0857
129	0x2915	0.0397
130	0xac7a	-0.06995
131	0xae8a	-0.1022
132	0x2e52	0.09875
133	0x1e88	0.00638
134	0x2961	0.04202
135	0xa616	-0.02377
136	0xb349	-0.2277
137	0xac55	-0.0677
138	0xa689	-0.02553
139	0xb331	-0.2247
140	0x95b7	-0.001395
141	0x2c73	0.0695
142	0xae01	-0.0938
143	0xa8fe	-0.039
144	0xaeea	-0.10803
145	0xa878	-0.0349
146	0x1f70	0.007263
147	0xacdf	-0.0761
148	0x2d23	0.08026
149	0x29df	0.04587
150	0xa073	-0.00869
151	0x259e	0.02194
152	0xa6f5	-0.02718
153	0xae8b	-0.10223
154	0xab67	-0.05783
155	0xa93c	-0.0409
156	0x2973	0.04257
157	0x2b43	0.05673
158	0xa8e8	-0.03833
159	0x2f3f	0.1132
160	0x3067	0.1376
161	0x2db6	0.08923
162	0xac4d	-0.0672
163	0x2e9d	0.10333
164	0x2cbc	0.074
165	0x2e1f	0.09564
166	0x2503	0.01958
167	0x30a2	0.1448
168	0xa940	-0.04102
169	0x2a9a	0.05157
170	0x3130	0.1621
171	0x2fd5	0.1224
172	0x3115	0.1588
173	0x99da	-0.002857
174	0x25be	0.02243
175	0x2c9a	0.0719
176	0x2b19	0.05545
177	0xac44	-0.06665
178	0x2cd6	0.07556
179	0x2516	0.01987
180	0xb216	-0.1902
181	0xadf5	-0.0931
182	0x2466	0.01718
183	0xaf18	-0.11084
184	0xb102	-0.1565
185	0x2a73	0.05038
186	0xa4d4	-0.01886
187	0xafc1	-0.12115
188	0x2850	0.0337
189	0xabbd	-0.06046
190	0xa824	-0.03235
191	0x34c6	0.2983
192	0x312c	0.1616
193	0xa834	-0.03284
194	0x348e	0.2847
195	0xa261	-0.01246
196	0x20cb	0.00936
197	0x3773	0.4656
198	0xb031	-0.131
199	0xaba6	-0.05975
200	0x23c4	0.01517
201	0xb1b2	-0.178
202	0xaa5d	-0.0497
203	0xa91a	-0.03986
204	0xa999	-0.04373
205	0x2d59	0.08356
206	0xa7f4	-0.03107
207	0xa9e6	-0.04608
208	0x2613	0.02373
209	0x9a3c	-0.003044
210	0xa9e7	-0.0461
211	0x27ae	0.03
212	0x96f4	-0.001698
213	0xacc9	-0.07477
214	0x2530	0.02026
215	0x249f	0.01805
216	0xa6f4	-0.02716
217	0xad4a	-0.08264
218	0x2967	0.0422
219	0xae88	-0.10205
220	0x2d01	0.0782
221	0xaa98	-0.0515
222	0xb08b	-0.142
223	0x3140	0.1641
224	0x30c7	0.1493
225	0x2813	0.03183
226	0x2f61	0.1153
227	0x1c6d	0.004322
228	0x321a	0.1907
229	0x2e2c	0.09644
230	0x2a1d	0.04776
231	0x2f93	0.11835
232	0x2f31	0.11237
233	0x2706	0.02744
234	0xac9f	-0.0722
235	0xad8d	-0.08673
236	0xb1c1	-0.1798
237	0xa071	-0.008675
238	0x1a3d	0.003046
239	0xa103	-0.00979
240	0x2b48	0.0569
241	0x2d36	0.0814
242	0x24b3	0.01836
243	0xb056	-0.1355
244	0x13fc	0.0009747
245	0x28a1	0.03616
246	0xaa5b	-0.04965
247	0xa59d	-0.02193
248	0x1d85	0.00539
249	0x2e3a	0.0973
250	0xa4b9	-0.01845
251	0x297e	0.0429
252	0xa473	-0.01738
253	0x2d0a	0.07874
254	0x2ccc	0.07495
255	0x1197	0.0006824

body.0.body.0.body.2.bias f2 [32]
0	0x33e4	0.2466
1	0xabb6	-0.06024
2	0xad26	-0.08044
3	0xb2f4	-0.2173
4	0xab35	-0.0563
5	0x2e1a	0.09534
6	0x28dd	0.038
7	0x24bd	0.01851
8	0x1a47	0.003065
9	0xaab0	-0.05225
10	0x31af	0.1776
11	0xb1ad	-0.1774
12	0xa872	-0.03473
13	0x3279	0.2023
14	0xb177	-0.1708
15	0x1c42	0.004158
16	0x26e5	0.02693
17	0xacd6	-0.07556
18	0xb284	-0.2036
19	0x30b0	0.1465
20	0xa252	-0.012344
21	0xa8f8	-0.03882
22	0x3002	0.1252
23	0x307f	0.1405
24	0x3144	0.1646
25	0x3633	0.3875
26	0xb432	-0.2622
27	0x321d	0.191
28	0xa853	-0.03378
29	0x35ab	0.3542
30	0xb309	-0.2198
31	0x2ee8	0.1079

body.0.body.0.body.3.body.0.weight f2 [2, 32, 1, 1]
0	0x36a0	0.414
1	0xb004	-0.1255
2	0x35c1	0.3596
3	0x32ea	0.2161
4	0x2f78	0.1167
5	0xac20	-0.06445
6	0xb4eb	-0.3074
7	0xb7e5	-0.4934
8	0xac2b	-0.0651
9	0xafa7	-0.11957
10	0x32e3	0.2152
11	0xb66b	-0.4011
12	0xb16b	-0.1693
13	0xb311	-0.2208
14	0x2ee2	0.10754
15	0x3368	0.2314
16	0xb30d	-0.2203
17	0x2dac	0.0886
18	0xa267	-0.012505
19	0xb467	-0.2751
20	0xb147	-0.1649
21	0x315b	0.1674
22	0x259b	0.0219
23	0x30e0	0.1523
24	0x348e	0.2847
25	0xa8dd	-0.038
26	0xb502	-0.313
27	0x327f	0.203
28	0xb11b	-0.1595
29	0x2993	0.04355
30	0xae91	-0.1026
31	0x33cd	0.2438
32	0x3041	0.1329
33	0x2fa9	0.1197
34	0x3544	0.329
35	0xb543	-0.3289
36	0x34f1	0.3088
37	0x3254	0.1978
38	0xaea9	-0.10406
39	0xb3d7	-0.245
40	0x360b	0.3777
41	0x2a20	0.04785
42	0x35c1	0.3596
43	0xba26	-0.7686
44	0xaf8d	-0.118
45	0xb25e	-0.199
46	0xb03c	-0.1323
47	0xaa95	-0.05142
48	0xb691	-0.4104
49	0xa57f	-0.02147
50	0x2c2b	0.0651
51	0xad5f	-0.0839
52	0xb294	-0.2056
53	0xb28b	-0.2045
54	0xae54	-0.0989
55	0x3316	0.2214
56	0x3354	0.229
57	0x3943	0.6577
58	0x3302	0.219
59	0xb2cd	-0.2125
60	0xacb1	-0.0733
61	0xaa84	-0.0509
62	0xb548	-0.33
63	0x3197	0.1747

body.0.body.0.body.3.body.2.weight f2 [32, 2, 1, 1]
0	0x27ec	0.03094
1	0xb364	-0.231
2	0xba2e	-0.7725
3	0xb50b	-0.3152
4	0xb3e2	-0.2463
5	0xb5c1	-0.3596
6	0xb3fa	-0.2493
7	0x3a06	0.753
8	0xacdf	-0.0761
9	0xb9ab	-0.7085
10	0xbca6	-1.162
11	0xb9fb	-0.7476
12	0xae92	-0.10266
13	0xb78e	-0.4722
14	0x3115	0.1588
15	0xb3e8	-0.2471
16	0x3854	0.541
17	0xb942	-0.657
18	0xa4f7	-0.0194
19	0xb4b6	-0.2944
20	0xbc18	-1.023
21	0xb45c	-0.2725
22	0xb867	-0.5503
23	0xb562	-0.3364
24	0x3576	0.3413
25	0xb833	-0.525
26	0xacf5	-0.07745
27	0xb58f	-0.3474
28	0x30d0	0.1504
29	0xb21d	-0.191
30	0xba74	-0.8066
31	0x2a6b	0.05014
32	0x3362	0.2307
33	0xb7ee	-0.4956
34	0x3196	0.1746
35	0x2cf3	0.07733
36	0xb2ce	-0.2126
37	0xb6c3	-0.4226
38	0xa728	-0.02795
39	0xb80f	-0.5073
40	0xb468	-0.2754
41	0xb90d	-0.6313
42	0xaffc	-0.12476
43	0xa537	-0.02037
44	0xb66e	-0.4019
45	0xb843	-0.5327
46	0x3968	0.676
47	0xbbb3	-0.9624
48	0x3137	0.163
49	0xb4a9	-0.2913
50	0xa8fd	-0.03897
51	0x3361	0.2306
52	0x323e	0.1951
53	0xb913	-0.6343
54	0x379b	0.4753
55	0xb787	-0.4705
56	0x3046	0.1335
57	0xb668	-0.4004
58	0xb048	-0.1338
59	0xaacd	-0.05313
60	0x3d9f	1.405
61	0x2928	0.04028
62	0x2d39	0.0816
63	0xb90e	-0.632

body.0.body.0.body.3.body.2.bias f2 [32]
0	0xb862	-0.548
1	0xb87f	-0.562
2	0xb17e	-0.1716
3	0xbc61	-1.095
4	0xb801	-0.5005
5	0xb9fb	-0.7476
6	0xb828	-0.5195
7	0xb5e7	-0.369
8	0xaa21	-0.04788
9	0xb5b9	-0.3577
10	0x2d7f	0.0859
11	0xba25	-0.768
12	0xb2cf	-0.2128
13	0x3621	0.383
14	0xb8de	-0.6084
15	0xbc24	-1.035
16	0xb86f	-0.554
17	0xbb4d	-0.9126
18	0xb629	-0.385
19	0x334a	0.2278
20	0xb7a8	-0.4785
21	0xb6ba	-0.4204
22	0xb4d0	-0.3008
23	0xb9e1	-0.735
24	0xba3e	-0.7803
25	0xb2d3	-0.2133
26	0x2a65	0.04996
27	0xb97a	-0.6846
28	0xb96f	-0.679
29	0xb724	-0.4463
30	0xbba6	-0.956
31	0xb20d	-0.1891

body.0.body.1.body.0.weight f2 [32, 32, 3, 3]
0	0x1bfc	0.003899
1	0x2c0e	0.06335
2	0x2895	0.0358
3	0xaf24	-0.1116
4	0xa967	-0.0422
5	0x2cb6	0.0736
6	0x987a	-0.002186
7	0xae2c	-0.09644
8	0x9b00	-0.003418
9	0xa971	-0.0425
10	0xaf9a	-0.1188
11	0xa96b	-0.04233
12	0x26a3	0.02592
13	0x2bdb	0.06137
14	0xae1d	-0.0955
15	0x2734	0.02814
16	0x2d4d	0.0828
17	0x2e03	0.09393
18	0xac84	-0.07056
19	0xaa08	-0.04712
20	0x28c7	0.03732
21	0xb0c6	-0.1492
22	0x2df3	0.09296
23	0x2caa	0.0729
24	0x2ff0	0.124
25	0x3049	0.1339
26	0x25b5	0.0223
27	0x278c	0.02948
28	0x2749	0.02846
29	0xaab9	-0.05252
30	0x2d38	0.08154
31	0x2ee5	0.1077
32	0x2d5f	0.0839
33	0x265a	0.02481
34	0x344a	0.268
35	0xa9df	-0.04587
36	0x29bc	0.0448
37	0x16d8	0.001671
38	0x2b20	0.05566
39	0xa124	-0.01004
40	0x31bf	0.1796
41	0x2c75	0.06964
42	0xaf29	-0.1119
43	0xb43b	-0.2644
44	0xa4a9	-0.0182
45	0x2f13	0.11053
46	0x2e81	0.1016
47	0xa392	-0.014786
48	0x2bcd	0.06094
49	0x2cb0	0.07324
50	0x2b72	0.05817
51	0x208a	0.008865
52	0x2908	0.0393
53	0xa86c	-0.03455
54	0xaf48	-0.1138
55	0x3104	0.1567
56	0x31e7	0.1844
57	0xb06c	-0.1382
58	0xafe2	-0.12317
59	0x1494	0.001118
60	0xa822	-0.0323
61	0x29b9	0.0447
62	0x2c3f	0.06635
63	0x2ffd	0.1248
64	0xaa86	-0.05096
65	0x2e7d	0.1014
66	0x2e3d	0.0975
67	0xa88b	-0.0355
68	0x3285	0.2037
69	0x2b9d	0.05948
70	0xa520	-0.02002
71	0x3045	0.1334
72	0xb16c	-0.1694
73	0x356e	0.3394
74	0xb3e5	-0.2467
75	0x2b23	0.05576
76	0xacb8	-0.0737
77	0xb039	-0.132
78	0x33f1	0.2482
79	0xb0ba	-0.1477
80	0x1ddb	0.00572
81	0x29d0	0.0454
82	0x2c23	0.06464
83	0x1bcb	0.003805
84	0x3103	0.1566
85	0x2e50	0.09863
86	0xaf4a	-0.1139
87	0x2d00	0.0781
88	0xab10	-0.05518
89	0x9ea0	-0.00647
90	0x2067	0.0086
91	0x214c	0.010345
92	0x2d23	0.08026
93	0x2845	0.03336
94	0x317c	0.1714
95	0x256b	0.02116
96	0xaf84	-0.11743
97	0xae0e	-0.0946
98	0xb0e3	-0.1527
99	0x2b43	0.05673
100	0x2a41	0.04886
101	0x2cda	0.0758
102	0x2ad4	0.05334
103	0xb2fe	-0.2185
104	0xa7cf	-0.0305
105	0x3451	0.2698
106	0xabd2	-0.0611
107	0x2966	0.04218
108	0xaa01	-0.0469
109	0xaf50	-0.11426
110	0xab74	-0.05823
111	0x2b04	0.0548
112	0x2a0b	0.0472
113	0x2040	0.0083
114	0x30db	0.1517
115	0x341e	0.2573
116	0x2fef	0.12396
117	0x1f3b	0.00706
118	0x2d45	0.08234
119	0x2bd2	0.0611
120	0xabd0	-0.06104
121	0x2619	0.02382
122	0x1e72	0.006294
123	0xb0f5	-0.1549
124	0x2b95	0.05923
125	0xa9fd	-0.04678
126	0xb0e2	-0.1526
127	0xb14e	-0.1658
128	0xad9d	-0.0877
129	0xa4f6	-0.01938
130	0x2a22	0.0479
131	0xa86b	-0.03452
132	0x2f03	0.10956
133	0x2f7b	0.1169
134	0x2ff9	0.1246
135	0xae94	-0.1028
136	0xaf2a	-0.11194
137	0x2917	0.03976
138	0x2064	0.008575
139	0xb116	-0.1589
140	0xaa6f	-0.05026
141	0xb073	-0.139
142	0xb262	-0.1995
143	0xb37f	-0.2343
144	0x31bc	0.1792
145	0xb1f2	-0.1858
146	0xaa7c	-0.05066
147	0xb05e	-0.1365
148	0xadf7	-0.0932
149	0x2e8a	0.1022
150	0xb11b	-0.1595
151	0xa9c7	-0.04514
152	0x2988	0.0432
153	0x2e7c	0.1013
154	0x2f4b	0.11395
155	0x2fb6	0.1205
156	0x21e1	0.01148
157	0xaca9	-0.0728
158	0xa027	-0.00811
159	0xab40	-0.05664
160	0xafc2	-0.1212
161	0xadf7	-0.0932
162	0xaced	-0.07697
163	0xb53d	-0.3274
164	0xaf59	-0.1148
165	0x316d	0.1696
166	0x35ba	0.358
167	0x2818	0.03198
168	0xa9be	-0.04486
169	0x336d	0.232
170	0x2c97	0.0717
171	0x3034	0.1313
172	0x2ef8	0.1089
173	0x261e	0.0239
174	0x2da7	0.0883
175	0x2ea8	0.104
176	0xb11a	-0.1594
177	0xb263	-0.1996
178	0xb1f1	-0.1857
179	0xac89	-0.07086
180	0xae11	-0.0948
181	0x2fde	0.1229
182	0xac0e	-0.06335
183	0x2b2e	0.0561
184	0x2d0a	0.07874
185	0xac6f	-0.0693
186	0xa75d	-0.02876
187	0x2d1d	0.0799
188	0xacdb	-0.07587
189	0x32ea	0.2161
190	0xaf76	-0.1166
191	0x2b30	0.05615
192	0xad16	-0.07947
193	0xa776	-0.02914
194	0x9f4c	-0.007126
195	0xaca1	-0.0723
196	0x290b	0.0394
197	0xab5c	-0.0575
198	0xa271	-0.01258
199	0xa92a	-0.04034
200	0xadbb	-0.08954
201	0xab83	-0.0587
202	0x2d9a	0.0875
203	0xb0ab	-0.1459
204	0x2ce6	0.07654
205	0x2b83	0.0587
206	0x2e88	0.10205
207	0xa848	-0.03345
208	0xb199	-0.1749
209	0xaf0a	-0.11
210	0xad74	-0.0852
211	0x33ae	0.24
212	0x3041	0.1329
213	0x301f	0.1288
214	0x2d83	0.0861
215	0x29f5	0.04654
216	0xa34b	-0.014244
217	0xad1d	-0.0799
218	0x2adb	0.05356
219	0xa993	-0.04355
220	0x2cdb	0.07587
221	0x308d	0.1422
222	0x2d8b	0.0866
223	0xa97a	-0.0428
224	0x2c3f	0.06635
225	0x2a3b	0.04868
226	0x31dc	0.1831
227	0x9f0d	-0.006886
228	0x2bcd	0.06094
229	0xa4f3	-0.01933
230	0x28c7	0.03732
231	0xa799	-0.02968
232	0x2bb8	0.0603
233	0xa81e	-0.03217
234	0xb22f	-0.1932
235	0x31e8	0.1846
236	0x282e	0.03265
237	0x31b0	0.1777
238	0x31d3	0.182
239	0x1fcf	0.007626
240	0xac62	-0.0685
241	0xb02a	-0.1301
242	0x2b22	0.05573
243	0x3097	0.1434
244	0x34c7	0.2986
245	0x26d4	0.02667
246	0xb645	-0.3918
247	0xa342	-0.014175
248	0xb2b8	-0.21
249	0xabab	-0.0599
250	0x2e71	0.10065
251	0x296e	0.04242
252	0x2a20	0.04785
253	0x2cdc	0.0759
254	0x32d0	0.2129
255	0x31c4	0.1802

body.0.body.1.body.0.bias f2 [32]
0	0x9b77	-0.003645
1	0x204b	0.008385
2	0xa2aa	-0.013016
3	0x1ee2	0.00672
4	0x26ed	0.02705
5	0xaffe	-0.1249
6	0x2d4f	0.08295
7	0x248c	0.01776
8	0x9d70	-0.00531
9	0x90df	-0.0005946
10	0x2727	0.02794
11	0x2916	0.03973
12	0xa50f	-0.01976
13	0xa090	-0.00891
14	0x992d	-0.002527
15	0x25fb	0.02336
16	0xaaee	-0.05414
17	0x2ce0	0.0762
18	0x2e4c	0.0984
19	0xaf24	-0.1116
20	0xaae3	-0.0538
21	0x2996	0.04364
22	0x263a	0.02432
23	0xa04f	-0.008415
24	0xa8e5	-0.03824
25	0x25cc	0.02264
26	0x33e7	0.247
27	0x9c87	-0.00442
28	0x1ffc	0.007797
29	0x144a	0.001047
30	0x9af5	-0.003397
31	0x29d0	0.0454

body.0.body.1.body.2.weight f2 [32, 32, 3, 3]
0	0x2be7	0.06174
1	0x2fca	0.1217
2	0x2dfc	0.0935
3	0x29b9	0.0447
4	0x3460	0.2734
5	0x319d	0.1754
6	0x319e	0.1755
7	0x3415	0.2551
8	0x31d6	0.1824
9	0x2c8f	0.0712
10	0xaf6d	-0.116
11	0xac52	-0.0675
12	0x2f35	0.1126
13	0xae5d	-0.0994
14	0x2892	0.0357
15	0xa3fd	-0.0156
16	0x1f82	0.00733
17	0x314d	0.1656
18	0xa3f7	-0.01556
19	0xaf11	-0.1104
20	0x29e5	0.04605
21	0x2544	0.02057
22	0xa6da	-0.02676
23	0x9780	-0.001831
24	0xb065	-0.1373
25	0xb2b2	-0.2092
26	0xb005	-0.1256
27	0x925e	-0.0007772
28	0x2061	0.00855
29	0xa44e	-0.01682
30	0x2dba	0.0895
31	0xac72	-0.06946
32	0xab0a	-0.055
33	0x2fc4	0.12134
34	0xa9ed	-0.0463
35	0x2867	0.0344
36	0xa650	-0.02466
37	0xa8be	-0.03705
38	0xac9b	-0.07196
39	0x2eeb	0.1081
40	0xacdb	-0.07587
41	0x28bd	0.03702
42	0xa490	-0.01782
43	0x27b2	0.03006
44	0xab76	-0.0583
45	0x985c	-0.002129
46	0xade0	-0.0918
47	0x202f	0.00817
48	0xaf24	-0.1116
49	0x33b6	0.241
50	0x3003	0.1254
51	0xa634	-0.02423
52	0xafc2	-0.1212
53	0x28fb	0.0389
54	0x2f97	0.1186
55	0x9ade	-0.003353
56	0xa987	-0.04318
57	0x24df	0.01903
58	0x1a63	0.003119
59	0x2b7c	0.05847
60	0x2b5e	0.05756
61	0xacae	-0.0731
62	0xb004	-0.1255
63	0xb154	-0.1665
64	0x300e	0.1267
65	0x243d	0.01656
66	0x2866	0.03436
67	0x2d2f	0.081
68	0xb438	-0.2637
69	0x2bc6	0.06073
70	0xadf4	-0.093
71	0x95f7	-0.001456
72	0x2d4c	0.08276
73	0x2a26	0.04803
74	0x2cd8	0.0757
75	0x2624	0.02399
76	0xae5b	-0.0993
77	0x306d	0.1383
78	0x288b	0.0355
79	0xa3b1	-0.01502
80	0x2d3b	0.0817
81	0xac90	-0.0713
82	0xae4e	-0.0985
83	0x2291	0.012825
84	0xa89b	-0.03598
85	0x2a3e	0.04877
86	0x2495	0.0179
87	0x2913	0.03964
88	0x2ccc	0.07495
89	0xa691	-0.02565
90	0xa688	-0.02551
91	0xa1e8	-0.011536
92	0xacfb	-0.0778
93	0x27e3	0.0308
94	0xad7c	-0.0857
95	0x2b81	0.05862
96	0xa00f	-0.00793
97	0xb18a	-0.1731
98	0x2827	0.03244
99	0xaa7b	-0.05063
100	0x3232	0.1936
101	0x30db	0.1517
102	0x288c	0.03552
103	0x2d3f	0.082
104	0x2dda	0.09143
105	0x2f48	0.1138
106	0x2d2b	0.08075
107	0x2c76	0.0697
108	0x1c5e	0.004265
109	0xaf9b	-0.11884
110	0x219b	0.01095
111	0x2c19	0.064
112	0xa73a	-0.02823
113	0xa30d	-0.01377
114	0x1987	0.002699
115	0xadcf	-0.09076
116	0x9d1e	-0.004997
117	0x260f	0.02367
118	0x260f	0.02367
119	0x2c99	0.07184
120	0x310b	0.1576
121	0x2c6c	0.0691
122	0x2817	0.03195
123	0x2e31	0.09674
124	0x29fd	0.04678
125	0xa8a8	-0.03638
126	0xab67	-0.05783
127	0xab4c	-0.057
128	0x2f6b	0.1159
129	0xada4	-0.08813
130	0x2640	0.02441
131	0x3154	0.1665
132	0xab9f	-0.05954
133	0xaf95	-0.11847
134	0xac8b	-0.071
135	0x19c9	0.002825
136	0x2e4a	0.09827
137	0xac5c	-0.0681
138	0x2e94	0.1028
139	0x331d	0.2223
140	0xa66e	-0.02512
141	0x2d11	0.07916
142	0x306e	0.1384
143	0x2d10	0.0791
144	0x2a73	0.05038
145	0xa878	-0.0349
146	0xaea4	-0.10376
147	0xab2c	-0.05603
148	0xa5aa	-0.02213
149	0x32ac	0.2085
150	0xb32a	-0.2239
151	0x9d73	-0.00532
152	0x2eb9	0.10504
153	0xa386	-0.014694
154	0xab34	-0.05627
155	0xb2c9	-0.212
156	0x25c7	0.02257
157	0x350c	0.3154
158	0x2453	0.01689
159	0xae02	-0.0939
160	0xa4a0	-0.01807
161	0xb03e	-0.1326
162	0x27b1	0.03004
163	0x225f	0.01244
164	0x2df3	0.09296
165	0xb026	-0.1296
166	0xb370	-0.2324
167	0xb015	-0.1276
168	0x297d	0.04288
169	0xadc0	-0.08984
170	0xae5d	-0.0994
171	0x2d36	0.0814
172	0xa996	-0.04364
173	0x2581	0.0215
174	0xac30	-0.0654
175	0x260f	0.02367
176	0x2e4f	0.0986
177	0x19c3	0.002813
178	0xb1f1	-0.1857
179	0x2c50	0.0674
180	0x26e8	0.02698
181	0xad4b	-0.0827
182	0xaa84	-0.0509
183	0x2a41	0.04886
184	0x290a	0.03937
185	0xac4d	-0.0672
186	0x21ff	0.01171
187	0xb262	-0.1995
188	0xadbc	-0.0896
189	0x2803	0.03134
190	0x2cdd	0.076
191	0xa6ad	-0.02608
192	0x228b	0.01278
193	0x2d27	0.0805
194	0x2f7a	0.1168
195	0x2f18	0.11084
196	0x380a	0.505
197	0x3591	0.348
198	0x9d71	-0.005314
199	0x3173	0.1703
200	0x250a	0.01968
201	0xb18c	-0.1733
202	0x2cbc	0.074
203	0x23d7	0.01531
204	0x2c0e	0.06335
205	0xa50a	-0.01968
206	0x986c	-0.00216
207	0x2cce	0.0751
208	0xa880	-0.03516
209	0xb061	-0.1368
210	0x29f2	0.04645
211	0xb120	-0.1602
212	0xa899	-0.03592
213	0xab48	-0.0569
214	0xb512	-0.317
215	0xaeaa	-0.1041
216	0xaeb0	-0.1045
217	0x9eab	-0.00651
218	0xa5fb	-0.02336
219	0xa3f9	-0.01557
220	0xb171	-0.17
221	0xafd9	-0.1226
222	0x2a4f	0.0493
223	0x26c6	0.02646
224	0xab7f	-0.05856
225	0x3061	0.1368
226	0x2094	0.00894
227	0xa77d	-0.02925
228	0x2cbf	0.07416
229	0xb3f8	-0.249
230	0xadc4	-0.0901
231	0x2c5f	0.0683
232	0xad18	-0.0796
233	0x2c75	0.06964
234	0xb07a	-0.1399
235	0xafb2	-0.12024
236	0xad94	-0.08716
237	0xa660	-0.0249
238	0x2be6	0.0617
239	0xac7c	-0.07007
240	0x91b7	-0.0006976
241	0xa17a	-0.0107
242	0xad25	-0.0804
243	0x24d9	0.01894
244	0x2805	0.0314
245	0xa323	-0.01394
246	0x9b35	-0.00352
247	0x2114	0.00992
248	0x2278	0.012634
249	0x220c	0.01181
250	0xafff	-0.12494
251	0xb08b	-0.142
252	0x22a6	0.012985
253	0x321e	0.1912
254	0xa857	-0.0339
255	0xa5e5	-0.02303

body.0.body.1.body.2.bias f2 [32]
0	0x2cdb	0.07587
1	0x9456	-0.001059
2	0xacfa	-0.07776
3	0x23bc	0.01511
4	0xaba9	-0.05984
5	0xb0c1	-0.1486
6	0x2e7e	0.10144
7	0xace4	-0.0764
8	0xa97a	-0.0428
9	0x1554	0.001301
10	0xac21	-0.0645
11	0xb017	-0.1278
12	0xaba2	-0.05963
13	0x2ca6	0.07263
14	0xaffb	-0.1247
15	0x2c82	0.07043
16	0xa822	-0.0323
17	0x2c42	0.0665
18	0xaef7	-0.1088
19	0x30f0	0.1543
20	0xa563	-0.02104
21	0xa57a	-0.0214
22	0xa91a	-0.03986
23	0x2bbd	0.06046
24	0xa501	-0.01955
25	0x3045	0.1334
26	0xb164	-0.1685
27	0xa61b	-0.02385
28	0x2e2c	0.09644
29	0x316f	0.1698
30	0xad70	-0.08496
31	0x2d58	0.0835

body.0.body.1.body.3.body.0.weight f2 [2, 32, 1, 1]
0	0xb69a	-0.4126
1	0xb6ec	-0.4326
2	0xb436	-0.2632
3	0x3773	0.4656
4	0x229c	0.01291
5	0xb0cc	-0.1499
6	0x36e0	0.4297
7	0x37e8	0.4941
8	0xb28f	-0.205
9	0x3448	0.2676
10	0x3a2d	0.772
11	0x3586	0.3452
12	0xb474	-0.2783
13	0x2d45	0.08234
14	0xaf93	-0.11835
15	0x39ad	0.7095
16	0x3902	0.626
17	0x33d2	0.2444
18	0xb16f	-0.1698
19	0xb5a4	-0.3525
20	0x2a20	0.04785
21	0x37b3	0.4812
22	0xb25e	-0.199
23	0xb1f2	-0.1858
24	0xb9a3	-0.7046
25	0x396e	0.6787
26	0xb0e4	-0.1528
27	0xb997	-0.6987
28	0x2c16	0.06384
29	0xb29d	-0.2067
30	0x2d80	0.08594
31	0xaca9	-0.0728
32	0x3196	0.1746
33	0x2d06	0.0785
34	0xb3ed	-0.2477
35	0x2986	0.04315
36	0x36a9	0.4163
37	0x302b	0.1302
38	0xbc15	-1.0205
39	0xb4ea	-0.3071
40	0x3805	0.5024
41	0x38c5	0.596
42	0xb8e8	-0.6133
43	0xa6ef	-0.02708
44	0x27e7	0.03087
45	0xa0da	-0.009476
46	0xad75	-0.08527
47	0xb44a	-0.268
48	0xba15	-0.7603
49	0x2e31	0.09674
50	0xb751	-0.4573
51	0x38ba	0.591
52	0xb172	-0.1702
53	0x3b0d	0.8813
54	0x1abb	0.003286
55	0x387f	0.562
56	0x3715	0.4426
57	0x3272	0.2014
58	0xba13	-0.7593
59	0xb3ec	-0.2476
60	0x38ca	0.5986
61	0xb983	-0.689
62	0x3958	0.668
63	0x3011	0.1271

body.0.body.1.body.3.body.2.weight f2 [32, 2, 1, 1]
0	0xb1a4	-0.1763
1	0x2f42	0.1134
2	0xb6be	-0.4214
3	0x249c	0.018
4	0xb91f	-0.64
5	0x3812	0.509
6	0xbba2	-0.954
7	0x3872	0.5557
8	0xb8ce	-0.6006
9	0x347f	0.281
10	0xb43e	-0.2651
11	0x341d	0.257
12	0xb901	-0.6255
13	0x3a09	0.7544
14	0xb98d	-0.694
15	0x3975	0.682
16	0xba5d	-0.7954
17	0x3560	0.336
18	0xbd45	-1.317
19	0xb7d5	-0.4895
20	0xb5c7	-0.361
21	0x355f	0.3357
22	0xb809	-0.5044
23	0x375a	0.4595
24	0x3909	0.6294
25	0x3d0b	1.261
26	0x3759	0.4592
27	0xb83e	-0.5303
28	0xb463	-0.2742
29	0x3559	0.3342
30	0xafc6	-0.12146
31	0x240e	0.01584
32	0xb7c3	-0.485
33	0x23c6	0.01518
34	0x36c3	0.4226
35	0xb0ec	-0.1538
36	0xb5de	-0.3667
37	0x370e	0.441
38	0xb92b	-0.646
39	0x395d	0.6704
40	0xb8b3	-0.5874
41	0x366b	0.4011
42	0xba76	-0.8076
43	0x36c1	0.422
44	0xb5af	-0.3552
45	0x35fc	0.374
46	0xba5f	-0.7964
47	0x3ab7	0.8394
48	0xb923	-0.642
49	0x3423	0.2585
50	0x2efd	0.1092
51	0x2efd	0.1092
52	0xb7c0	-0.4844
53	0x355c	0.335
54	0xbabf	-0.8433
55	0x3751	0.4573
56	0xbb04	-0.877
57	0x390c	0.631
58	0xab0a	-0.055
59	0xaaf1	-0.05423
60	0xb88c	-0.5684
61	0x341d	0.257
62	0xbd84	-1.379
63	0x2da8	0.0884

body.0.body.1.body.3.body.2.bias f2 [32]
0	0xb6a9	-0.4163
1	0xb39a	-0.2375
2	0x26b6	0.02621
3	0xb533	-0.325
4	0xb8cb	-0.599
5	0xb95a	-0.669
6	0xb37b	-0.2338
7	0xb4ce	-0.3003
8	0xb88c	-0.5684
9	0x309f	0.1444
10	0xb7de	-0.4917
11	0xa691	-0.02565
12	0xbbc8	-0.9727
13	0xacfd	-0.07794
14	0x3746	0.4546
15	0xa768	-0.02893
16	0xb450	-0.2695
17	0xb85e	-0.546
18	0xaa94	-0.0514
19	0xb46f	-0.277
20	0xb5b8	-0.3574
21	0xb2a8	-0.208
22	0xb736	-0.4507
23	0xb8f8	-0.621
24	0xa46d	-0.01729
25	0xb44b	-0.2683
26	0x2e2f	0.0966
27	0xb87d	-0.561
28	0xab43	-0.05673
29	0xb129	-0.1613
30	0xa693	-0.02568
31	0xacc4	-0.07446

body.0.body.2.weight f2 [32, 32, 3, 3]
0	0x2d0f	0.07904
1	0xa190	-0.010864
2	0xa508	-0.01965
3	0xac67	-0.0688
4	0x2bfe	0.06244
5	0xae32	-0.0968
6	0x26ce	0.02658
7	0xb0be	-0.1482
8	0xafda	-0.1227
9	0xa7ea	-0.03091
10	0x2659	0.0248
11	0x2f4d	0.1141
12	0xa4dc	-0.01898
13	0xab5a	-0.05743
14	0xae81	-0.1016
15	0x2522	0.02005
16	0xb21e	-0.1912
17	0x27f9	0.03114
18	0x3012	0.1272
19	0xa517	-0.01988
20	0x2cb5	0.07355
21	0xa032	-0.008194
22	0xb155	-0.1666
23	0x3080	0.1406
24	0x9f0d	-0.006886
25	0xab94	-0.0592
26	0xa049	-0.00837
27	0x2b51	0.05716
28	0x9eed	-0.006763
29	0xa527	-0.02013
30	0x2c5a	0.068
31	0xb00c	-0.1265
32	0x30e3	0.1527
33	0xa4d0	-0.0188
34	0xb115	-0.1588
35	0x2c61	0.0684
36	0x28f2	0.03864
37	0x2be3	0.0616
38	0xa586	-0.02158
39	0x17a4	0.001865
40	0xa6a9	-0.02602
41	0x2aa6	0.05194
42	0xaec1	-0.1055
43	0x2912	0.0396
44	0xac8e	-0.07117
45	0x2941	0.04105
46	0x20e0	0.00952
47	0xb049	-0.1339
48	0x2fdf	0.123
49	0x2c25	0.06476
50	0x2ae7	0.05392
51	0xaf97	-0.1186
52	0x2c68	0.06885
53	0xa916	-0.03973
54	0x3140	0.1641
55	0x2171	0.01063
56	0x3079	0.1398
57	0xb0da	-0.1516
58	0xa6bf	-0.02635
59	0xa6be	-0.02634
60	0xa93d	-0.04092
61	0x2f0d	0.11017
62	0x2937	0.04074
63	0x299e	0.04388
64	0xa875	-0.03482
65	0xa693	-0.02568
66	0x2268	0.01251
67	0xaf60	-0.11523
68	0x2d67	0.0844
69	0xaea4	-0.10376
70	0xb1b5	-0.1783
71	0xac70	-0.06934
72	0xb0fb	-0.1556
73	0x2cb5	0.07355
74	0xa11f	-0.01
75	0xab7a	-0.0584
76	0x2dc6	0.0902
77	0x2cda	0.0758
78	0xb32e	-0.2244
79	0x2bbe	0.0605
80	0x25b4	0.02228
81	0x2933	0.04062
82	0xa723	-0.02788
83	0x2f1d	0.11115
84	0xaeec	-0.10815
85	0x3326	0.2234
86	0x27e2	0.03079
87	0x90c0	-0.00058
88	0xabc3	-0.06064
89	0xac8c	-0.07104
90	0xa893	-0.03574
91	0x279c	0.02972
92	0x2c83	0.0705
93	0xa6b1	-0.02614
94	0x3134	0.1626
95	0xae38	-0.09717
96	0x2cfe	0.078
97	0x2ea9	0.10406
98	0xab35	-0.0563
99	0xaabe	-0.05267
100	0xabf5	-0.06216
101	0x2920	0.04004
102	0xb180	-0.1719
103	0xb1ab	-0.1771
104	0xafc3	-0.1213
105	0xaf4e	-0.11414
106	0xad30	-0.08105
107	0x2979	0.04276
108	0xa6de	-0.02682
109	0x2b2e	0.0561
110	0xaae0	-0.0537
111	0xb02e	-0.1306
112	0x27c3	0.03032
113	0xac5b	-0.06805
114	0x9d2a	-0.005043
115	0xab85	-0.05875
116	0xae76	-0.10095
117	0x2d69	0.08453
118	0x2829	0.0325
119	0xa834	-0.03284
120	0x2d35	0.08136
121	0x34d0	0.3008
122	0x255b	0.02092
123	0xa69a	-0.02579
124	0x2bd3	0.06113
125	0xaa40	-0.04883
126	0x2d1e	0.07996
127	0xacd2	-0.0753
128	0xa805	-0.0314
129	0xad95	-0.0872
130	0xaba2	-0.05963
131	0x2bdc	0.0614
132	0xaf00	-0.1094
133	0xa0fa	-0.00972
134	0xa0e0	-0.00952
135	0x2b5d	0.05753
136	0x9d23	-0.005016
137	0xadeb	-0.09247
138	0x24a2	0.0181
139	0xac71	-0.0694
140	0xa701	-0.02736
141	0x1bcb	0.003805
142	0xacd4	-0.07544
143	0x2c9d	0.0721
144	0xaaa2	-0.05182
145	0x22bf	0.013176
146	0x29d1	0.04544
147	0x2651	0.02467
148	0x30fa	0.1555
149	0x1610	0.00148
150	0xae35	-0.097
151	0xa73b	-0.02824
152	0xa5f4	-0.02325
153	0x2863	0.03427
154	0x2a54	0.04944
155	0xa7f6	-0.0311
156	0x823d	-3.415e-05
157	0xace7	-0.0766
158	0x28f4	0.0387
159	0xa770	-0.02905
160	0xac9c	-0.072
161	0x9916	-0.002483
162	0xaf59	-0.1148
163	0x2c63	0.06854
164	0xa9b9	-0.0447
165	0x286e	0.0346
166	0xaf8e	-0.11804
167	0xab90	-0.05908
168	0x2b53	0.05722
169	0x30d6	0.1511
170	0xa480	-0.01758
171	0xa5a2	-0.022
172	0x2b8f	0.05905
173	0xa92e	-0.04047
174	0x3206	0.1882
175	0xb03d	-0.1324
176	0xabc9	-0.06082
177	0x9d7d	-0.00536
178	0x2b3f	0.0566
179	0xa36d	-0.0145
180	0x152a	0.001261
181	0xb305	-0.2194
182	0xa894	-0.03577
183	0xb057	-0.1356
184	0x32e9	0.216
185	0x9fab	-0.00749
186	0x3118	0.1592
187	0x253c	0.02045
188	0xafe0	-0.12305
189	0xae3a	-0.0973
190	0xb285	-0.2037
191	0xab6e	-0.05804
192	0x2aca	0.05304
193	0x3294	0.2056
194	0xaf48	-0.1138
195	0x2f7b	0.1169
196	0xaaa5	-0.0519
197	0xa71c	-0.02777
198	0x1c6c	0.00432
199	0xad74	-0.0852
200	0xa938	-0.04077
201	0xa409	-0.01576
202	0xa8d0	-0.0376
203	0x3025	0.1295
204	0x2c59	0.06793
205	0x2e20	0.0957
206	0x2c59	0.06793
207	0xb008	-0.126
208	0x2892	0.0357
209	0x2a25	0.048
210	0xa19a	-0.01094
211	0xb764	-0.462
212	0xa941	-0.04105
213	0x2a94	0.0514
214	0xb0e1	-0.1525
215	0x29b2	0.0445
216	0x245c	0.01703
217	0x2f43	0.11346
218	0x2959	0.04178
219	0x2bf7	0.06223
220	0xb0aa	-0.1458
221	0xac08	-0.063
222	0xaa77	-0.0505
223	0x30f4	0.1548
224	0x28de	0.03802
225	0x30d0	0.1504
226	0x8959	-0.0001632
227	0x2d85	0.08624
228	0xb065	-0.1373
229	0x3201	0.1876
230	0xaeb9	-0.10504
231	0xac85	-0.0706
232	0x27e3	0.0308
233	0x28b5	0.03677
234	0xaaa0	-0.05176
235	0xb0e5	-0.153
236	0x2911	0.03958
237	0xaf6d	-0.116
238	0xb71f	-0.445
239	0x2a1b	0.0477
240	0xa99c	-0.04382
241	0x2f9b	0.11884
242	0x220d	0.01182
243	0x30a4	0.145
244	0x9b4e	-0.003567
245	0x2303	0.013695
246	0x28e3	0.03818
247	0x2ce9	0.0767
248	0x281b	0.03207
249	0x32ed	0.2164
250	0x304b	0.1342
251	0x2b13	0.05527
252	0xa833	-0.0328
253	0x18f2	0.002415
254	0xaf86	-0.11755
255	0x2f3a	0.1129

body.0.body.2.bias f2 [32]
0	0xa062	-0.00856
1	0x251c	0.01996
2	0x287c	0.03503
3	0xa90c	-0.03943
4	0xabc8	-0.0608
5	0xa02f	-0.00817
6	0xaff5	-0.1243
7	0xaaa5	-0.0519
8	0x2eed	0.1082
9	0x2b58	0.05737
10	0xab74	-0.05823
11	0x2333	0.01406
12	0xb08b	-0.142
13	0x15f1	0.001451
14	0x1fdf	0.007687
15	0xaa4b	-0.04916
16	0x1d11	0.004948
17	0x3108	0.1572
18	0x2bc3	0.06064
19	0x29e0	0.0459
20	0x2ef6	0.10876
21	0xa8b1	-0.03665
22	0xae91	-0.1026
23	0x1eb8	0.00656
24	0x24cf	0.01878
25	0xa959	-0.04178
26	0x30a9	0.1456
27	0xa793	-0.02959
28	0x1a7c	0.003166
29	0xab15	-0.05533
30	0x2a11	0.0474
31	0xa4af	-0.0183

body.1.body.0.body.0.weight f2 [32, 32, 3, 3]
0	0x27ec	0.03094
1	0xafb2	-0.12024
2	0xb18e	-0.1736
3	0x3332	0.2249
4	0x1f49	0.007114
5	0x2d16	0.07947
6	0xb096	-0.1433
7	0xb09f	-0.1444
8	0xb66a	-0.401
9	0xb30b	-0.2201
10	0xb3d2	-0.2444
11	0xadc3	-0.09
12	0x3504	0.3135
13	0x9c62	-0.00428
14	0x9f71	-0.007267
15	0x2cd2	0.0753
16	0xaaf0	-0.0542
17	0xb672	-0.4028
18	0xb34c	-0.228
19	0xb45c	-0.2725
20	0xa90b	-0.0394
21	0x2dd8	0.0913
22	0xa94d	-0.0414
23	0x25d5	0.02278
24	0x2faf	0.12006
25	0xac2a	-0.06506
26	0xa9af	-0.0444
27	0xb0c8	-0.1494
28	0xb351	-0.2286
29	0x1f3f	0.007076
30	0xaa30	-0.04834
31	0xaf38	-0.1128
32	0x300f	0.1268
33	0xad71	-0.085
34	0x1dd7	0.005703
35	0x31f8	0.1865
36	0x2c8a	0.0709
37	0x1c52	0.00422
38	0xa6bd	-0.02632
39	0x2021	0.008064
40	0xa5cc	-0.02264
41	0x2c2c	0.0652
42	0x2fdb	0.12274
43	0x2e0e	0.0946
44	0x31d1	0.1818
45	0x2186	0.01079
46	0x2596	0.02182
47	0x2ac0	0.05273
48	0xac9e	-0.07214
49	0x30d6	0.1511
50	0x2fe0	0.12305
51	0xaaaa	-0.05206
52	0x272f	0.02806
53	0x2cd5	0.0755
54	0xac14	-0.0637
55	0xa8e5	-0.03824
56	0xaf76	-0.1166
57	0xb048	-0.1338
58	0xb17f	-0.1718
59	0xac1a	-0.0641
60	0x2c92	0.0714
61	0x2977	0.0427
62	0x309b	0.1439
63	0x2e48	0.09814
64	0x3381	0.2345
65	0x256d	0.0212
66	0xab59	-0.0574
67	0x30cf	0.1503
68	0x287a	0.03497
69	0xb070	-0.1387
70	0x99bf	-0.002806
71	0xa97f	-0.04294
72	0x2c0d	0.0633
73	0x2eaf	0.10443
74	0xac1c	-0.0642
75	0x94fb	-0.001216
76	0x310f	0.1581
77	0x2832	0.03278
78	0xa4ab	-0.01823
79	0xadce	-0.0907
80	0xab2c	-0.05603
81	0xa87a	-0.03497
82	0x3209	0.1886
83	0x252d	0.02022
84	0xaaff	-0.05466
85	0xb3aa	-0.2395
86	0xac99	-0.07184
87	0x30f7	0.1552
88	0x31e4	0.1841
89	0x2c46	0.0668
90	0xa415	-0.01595
91	0x2b6f	0.05807
92	0x302a	0.1301
93	0xa982	-0.04303
94	0x2f20	0.1113
95	0x2f57	0.1147
96	0xac61	-0.0684
97	0x2ce1	0.07623
98	0x311b	0.1595
99	0x9dbe	-0.005608
100	0xb117	-0.159
101	0xa849	-0.03348
102	0xac11	-0.06354
103	0x246d	0.01729
104	0xae0f	-0.09467
105	0x31ec	0.185
106	0x324d	0.1969
107	0x2eaf	0.10443
108	0x2496	0.01791
109	0x2d53	0.0832
110	0x2b17	0.0554
111	0x237d	0.014626
112	0x2a37	0.04855
113	0x2d46	0.0824
114	0xaf66	-0.1156
115	0xacae	-0.0731
116	0x2c47	0.06683
117	0xb29c	-0.2065
118	0xab0a	-0.055
119	0xaca5	-0.0726
120	0x2de5	0.0921
121	0x2544	0.02057
122	0x2485	0.01765
123	0x2a58	0.04956
124	0x330d	0.2203
125	0x2dae	0.08875
126	0xa9c5	-0.04507
127	0x2929	0.0403
128	0x2509	0.01967
129	0xac8d	-0.0711
130	0x2c31	0.0655
131	0x2fcc	0.1218
132	0xaabd	-0.05264
133	0x2d9f	0.0878
134	0x2494	0.01788
135	0xb1c4	-0.1802
136	0xaed7	-0.1069
137	0x1e96	0.00643
138	0x2508	0.01965
139	0x2815	0.0319
140	0x305d	0.1364
141	0xb060	-0.1367
142	0xb0fc	-0.1558
143	0xad29	-0.0806
144	0x29e3	0.046
145	0xa842	-0.03326
146	0x2e28	0.0962
147	0x2bef	0.06198
148	0x2b92	0.05914
149	0x302e	0.1306
150	0x22bb	0.013145
151	0xb15a	-0.1672
152	0xaff6	-0.1244
153	0x29ff	0.04684
154	0x2e2d	0.0965
155	0x2d5b	0.0837
156	0x2b25	0.05582
157	0x2b6d	0.058
158	0x30b0	0.1465
159	0x1e60	0.006226
160	0xac22	-0.0646
161	0x23fd	0.0156
162	0x2650	0.02466
163	0x2cd1	0.07526
164	0x25a6	0.02206
165	0x284f	0.03366
166	0x272e	0.02805
167	0xb0a2	-0.1448
168	0x2f39	0.11285
169	0xa2e5	-0.013466
170	0xad24	-0.0803
171	0x2d4c	0.08276
172	0xac67	-0.0688
173	0xb26b	-0.2006
174	0x2d1c	0.07983
175	0xaec9	-0.106
176	0xaa1b	-0.0477
177	0x2f06	0.10974
178	0x2846	0.0334
179	0x2eec	0.10815
180	0xa1fb	-0.01168
181	0xa96e	-0.04242
182	0x1c97	0.004482
183	0xad1d	-0.0799
184	0xaacb	-0.05307
185	0xad2d	-0.0809
186	0x2aa3	0.05185
187	0xa5b9	-0.02235
188	0x2389	0.01472
189	0x2f5f	0.1152
190	0x3151	0.1661
191	0xacc9	-0.07477
192	0xad84	-0.0862
193	0xafd3	-0.12225
194	0xb2ee	-0.2166
195	0x2db9	0.0894
196	0xaba2	-0.05963
197	0x2844	0.03333
198	0x3418	0.2559
199	0x2bc1	0.06058
200	0x2a6e	0.05023
201	0xb341	-0.2267
202	0xb3b9	-0.2413
203	0xaf08	-0.10986
204	0x2dc5	0.09015
205	0x2c54	0.0676
206	0x32c3	0.2113
207	0xb079	-0.1398
208	0xb0d2	-0.1506
209	0xa29d	-0.01292
210	0x14a9	0.001138
211	0xafe5	-0.12335
212	0xab28	-0.0559
213	0xacdd	-0.076
214	0xac58	-0.0679
215	0xae25	-0.096
216	0xaf92	-0.1183
217	0xa442	-0.01663
218	0xaba7	-0.05978
219	0x2079	0.008736
220	0xb259	-0.1984
221	0xa759	-0.0287
222	0x2832	0.03278
223	0x2f30	0.1123
224	0x31e5	0.1842
225	0x2ec6	0.10583
226	0x2a41	0.04886
227	0x1ffa	0.00779
228	0xb579	-0.342
229	0xb869	-0.5513
230	0xb424	-0.2588
231	0xb029	-0.13
232	0x9af8	-0.003403
233	0x33c0	0.2422
234	0x9f53	-0.007153
235	0xad79	-0.0855
236	0x9fbd	-0.007557
237	0xaa16	-0.04755
238	0xa948	-0.04126
239	0xb033	-0.1312
240	0x2d40	0.08203
241	0x2fc9	0.12164
242	0xa8f9	-0.03885
243	0xb45c	-0.2725
244	0xb5b2	-0.356
245	0xb395	-0.2369
246	0x2f77	0.11664
247	0x314d	0.1656
248	0x313e	0.1638
249	0x2c25	0.06476
250	0xa742	-0.02835
251	0xac87	-0.07074
252	0x26eb	0.02702
253	0x2911	0.03958
254	0xac40	-0.0664
255	0x299f	0.0439

body.1.body.0.body.0.bias f2 [32]
0	0x9db7	-0.00558
1	0xa29d	-0.01292
2	0xb6d4	-0.4268
3	0x29b3	0.04453
4	0x28a1	0.03616
5	0x9d74	-0.005325
6	0xa2dc	-0.0134
7	0xabe4	-0.06165
8	0x2498	0.01794
9	0x2b64	0.05774
10	0x1a58	0.003098
11	0xac63	-0.06854
12	0x28bf	0.03708
13	0x126d	0.0007844
14	0x24a0	0.01807
15	0xac38	-0.0659
16	0xa8aa	-0.03644
17	0xac21	-0.0645
18	0x24b0	0.01831
19	0x2d40	0.08203
20	0x20ca	0.00935
21	0xb96f	-0.679
22	0x2054	0.00845
23	0xaba2	-0.05963
24	0xa7a3	-0.02983
25	0x286b	0.03452
26	0x2bfc	0.06238
27	0x1d68	0.00528
28	0xa8ac	-0.0365
29	0x95de	-0.001432
30	0xa6ad	-0.02608
31	0x2a16	0.04755

body.1.body.0.body.2.weight f2 [32, 32, 3, 3]
0	0x2854	0.0338
1	0xb034	-0.1313
2	0x9c51	-0.004215
3	0x309f	0.1444
4	0xb044	-0.1333
5	0x2c4d	0.0672
6	0xa681	-0.0254
7	0xb157	-0.1669
8	0x2c9e	0.07214
9	0xa801	-0.03128
10	0xada7	-0.0883
11	0x292f	0.0405
12	0xa9e9	-0.04617
13	0xad36	-0.0814
14	0x2b5c	0.0575
15	0xac98	-0.0718
16	0x275d	0.02876
17	0xa438	-0.01648
18	0x1f48	0.00711
19	0xb7d0	-0.4883
20	0xb79a	-0.475
21	0x3698	0.412
22	0xa767	-0.02892
23	0xadeb	-0.09247
24	0x30e8	0.1533
25	0x308b	0.142
26	0x3c3e	1.061
27	0x1700	0.001709
28	0x309b	0.1439
29	0x2d78	0.08545
30	0x2abd	0.05264
31	0x3275	0.2018
32	0x0f2a	0.0004373
33	0xb02f	-0.1307
34	0xa5b3	-0.02226
35	0x1ec6	0.006615
36	0xa9fd	-0.04678
37	0xa4c5	-0.01863
38	0xac2a	-0.06506
39	0x2943	0.0411
40	0x2976	0.04266
41	0x236d	0.0145
42	0x2c1f	0.0644
43	0x2afa	0.0545
44	0x1e9b	0.00645
45	0xa4ea	-0.0192
46	0x2a79	0.05057
47	0xafe8	-0.12354
48	0xad01	-0.0782
49	0xb327	-0.2235
50	0xb37c	-0.2339
51	0xb042	-0.133
52	0xacb1	-0.0733
53	0xa63c	-0.02435
54	0xb142	-0.1643
55	0xb0f6	-0.155
56	0xa989	-0.04324
57	0x314b	0.1654
58	0x2879	0.03494
59	0x2c95	0.0716
60	0x1b13	0.003454
61	0xab4a	-0.05695
62	0xad03	-0.0783
63	0x29bb	0.04477
64	0xaf37	-0.11273
65	0xb034	-0.1313
66	0xb082	-0.1409
67	0xad53	-0.0832
68	0xaa2f	-0.0483
69	0x212e	0.01012
70	0xa19a	-0.01094
71	0x2348	0.01422
72	0xac01	-0.06256
73	0xb211	-0.1896
74	0xac4e	-0.06726
75	0xadd1	-0.0909
76	0xb1fe	-0.1873
77	0xa7bd	-0.03023
78	0x2ab1	0.05228
79	0xb004	-0.1255
80	0x1d59	0.005222
81	0x2b82	0.05865
82	0x2d9a	0.0875
83	0x2ba3	0.05966
84	0x2af1	0.05423
85	0xa36d	-0.0145
86	0x329e	0.2068
87	0x1f94	0.0074
88	0xac58	-0.0679
89	0x2033	0.0082
90	0x29ed	0.0463
91	0xaa7f	-0.05075
92	0x30d2	0.1506
93	0x2c08	0.063
94	0xaaee	-0.05414
95	0x2a10	0.04736
96	0xa0f7	-0.0097
97	0x30b7	0.1473
98	0x2aa6	0.05194
99	0x29e2	0.04596
100	0x29ee	0.04633
101	0xa607	-0.02354
102	0x2bb4	0.06018
103	0x2662	0.02493
104	0xb00d	-0.1266
105	0xaf4e	-0.11414
106	0xaf0c	-0.1101
107	0xaf5f	-0.1152
108	0x29fa	0.0467
109	0x2d1f	0.08
110	0xa834	-0.03284
111	0x2e32	0.0968
112	0x2d8d	0.08673
113	0xaede	-0.1073
114	0x3067	0.1376
115	0x2560	0.021
116	0xb08a	-0.1418
117	0x2913	0.03964
118	0xb0c7	-0.1493
119	0x2424	0.01617
120	0x9614	-0.001484
121	0xae10	-0.0947
122	0x2d2d	0.0809
123	0xa863	-0.03427
124	0xacbf	-0.07416
125	0xabc7	-0.06076
126	0x2f3f	0.1132
127	0xa4a2	-0.0181
128	0xa7e0	-0.03076
129	0xa486	-0.01767
130	0xad9e	-0.08777
131	0xade6	-0.09216
132	0x2f83	0.1174
133	0xa41c	-0.01605
134	0x1598	0.001366
135	0x2859	0.03397
136	0xab21	-0.0557
137	0xa055	-0.00846
138	0xa96c	-0.04236
139	0xb093	-0.143
140	0x2841	0.03323
141	0x1e1c	0.005966
142	0xa9fa	-0.0467
143	0x2825	0.03238
144	0xad93	-0.0871
145	0x1fa7	0.007473
146	0x24e8	0.01917
147	0x2c85	0.0706
148	0xac35	-0.06573
149	0x280b	0.0316
150	0x2ba2	0.05963
151	0xac3e	-0.0663
152	0xb05a	-0.136
153	0xa969	-0.04227
154	0x2b64	0.05774
155	0x2b7b	0.05844
156	0xb055	-0.1354
157	0xafb8	-0.1206
158	0xad9d	-0.0877
159	0xaf52	-0.1144
160	0x282e	0.03265
161	0x270a	0.0275
162	0x1fa8	0.007477
163	0x2d12	0.0792
164	0x96ac	-0.001629
165	0xaca6	-0.07263
166	0xabbb	-0.0604
167	0x25c4	0.02252
168	0xa758	-0.02869
169	0x2947	0.04123
170	0xa6d0	-0.02661
171	0x2f51	0.1143
172	0x2d34	0.0813
173	0x28b9	0.0369
174	0xabcb	-0.06088
175	0xadc0	-0.08984
176	0xac8a	-0.0709
177	0xb0b6	-0.1472
178	0xadc1	-0.0899
179	0xa6bc	-0.0263
180	0x23f4	0.01553
181	0x2435	0.01643
182	0xa868	-0.03442
183	0xa8cc	-0.03748
184	0xb39d	-0.2379
185	0x2eb2	0.1046
186	0x25de	0.02292
187	0x2df4	0.093
188	0xaf3c	-0.11304
189	0xab92	-0.05914
190	0x34b6	0.2944
191	0x31f5	0.1862
192	0x344d	0.2688
193	0x1e9e	0.006462
194	0xbd52	-1.33
195	0x2ad4	0.05334
196	0xaaf8	-0.05444
197	0xb586	-0.3452
198	0x2a66	0.05
199	0x2d8f	0.08685
200	0x2488	0.0177
201	0xaae4	-0.05383
202	0x2ea5	0.1038
203	0x2c5f	0.0683
204	0x24d3	0.01884
205	0x3162	0.1682
206	0x2c13	0.06366
207	0xa8b0	-0.03662
208	0xacee	-0.077
209	0xb204	-0.188
210	0x272b	0.028
211	0xb1ce	-0.1814
212	0xb265	-0.1998
213	0xb101	-0.1564
214	0x2a9e	0.0517
215	0xaffe	-0.1249
216	0x3202	0.1877
217	0x2dc7	0.0903
218	0x9ce8	-0.00479
219	0x2657	0.02477
220	0xa82e	-0.03265
221	0x2911	0.03958
222	0x2a84	0.0509
223	0xa8a5	-0.0363
224	0xa824	-0.03235
225	0x2bf7	0.06223
226	0x2429	0.01625
227	0xa427	-0.01622
228	0xa60b	-0.0236
229	0xad85	-0.08624
230	0xa850	-0.0337
231	0x2744	0.02838
232	0xb1cb	-0.181
233	0xa969	-0.04227
234	0xaa59	-0.0496
235	0xad1d	-0.0799
236	0xb0ed	-0.1539
237	0x28bb	0.03696
238	0x2f17	0.1108
239	0x32b1	0.2091
240	0xa9b8	-0.04468
241	0x274d	0.02852
242	0x1fb3	0.00752
243	0x2c13	0.06366
244	0x3443	0.2664
245	0x2e94	0.1028
246	0xad2b	-0.08075
247	0x2f99	0.1187
248	0xacc5	-0.0745
249	0x2854	0.0338
250	0xaa21	-0.04788
251	0xae97	-0.10297
252	0xa997	-0.04367
253	0xa9a4	-0.04407
254	0xac39	-0.066
255	0xb1f5	-0.1862

body.1.body.0.body.2.bias f2 [32]
0	0x310e	0.158
1	0xa1c8	-0.01129
2	0xa694	-0.0257
3	0x31e9	0.1847
4	0x25fe	0.0234
5	0x11c5	0.0007043
6	0xab0d	-0.05508
7	0x2657	0.02477
8	0x2d98	0.0874
9	0x2b8e	0.05902
10	0xacc5	-0.0745
11	0xa103	-0.00979
12	0xaff7	-0.12445
13	0xaf79	-0.11676
14	0xb1f3	-0.1859
15	0xae89	-0.1021
16	0xa572	-0.02127
17	0xaec3	-0.10565
18	0xab83	-0.0587
19	0xaa3c	-0.0487
20	0xa43d	-0.01656
21	0xab20	-0.05566
22	0x32a7	0.2079
23	0x2c82	0.07043
24	0x337b	0.2338
25	0x2818	0.03198
26	0xaf0e	-0.1102
27	0xa421	-0.01613
28	0x27b2	0.03006
29	0x322f	0.1932
30	0x3112	0.1584
31	0xb080	-0.1406

body.1.body.0.body.3.body.0.weight f2 [2, 32, 1, 1]
0	0x3332	0.2249
1	0xacf1	-0.0772
2	0xb07e	-0.1404
3	0xaedb	-0.1071
4	0xaea2	-0.10364
5	0xa914	-0.03967
6	0x37ff	0.4998
7	0x2c32	0.06555
8	0xa69c	-0.02582
9	0xb455	-0.2708
10	0x260d	0.02364
11	0xace6	-0.07654
12	0xb798	-0.4746
13	0xb3dc	-0.2456
14	0xb1dc	-0.1831
15	0x339f	0.2382
16	0x30fb	0.1556
17	0xb9be	-0.718
18	0x3457	0.2712
19	0x3590	0.3477
20	0xb390	-0.2363
21	0x3156	0.1667
22	0xb304	-0.2192
23	0xb896	-0.573
24	0x30c7	0.1493
25	0x33e4	0.2466
26	0xacb1	-0.0733
27	0xba98	-0.824
28	0x3a7c	0.8105
29	0x30d5	0.151
30	0x30d1	0.1505
31	0x88c3	-0.0001453
32	0xa4cd	-0.01875
33	0x30bd	0.1481
34	0x39e1	0.735
35	0xaac8	-0.05298
36	0x2f86	0.11755
37	0xa9b0	-0.04443
38	0x3172	0.1702
39	0x3cfe	1.248
40	0x3346	0.2273
41	0x34be	0.2964
42	0x2e90	0.10254
43	0x33d7	0.245
44	0xae57	-0.09906
45	0x33a4	0.2388
46	0xb318	-0.2217
47	0xac0c	-0.06323
48	0x2590	0.02173
49	0xb1e9	-0.1847
50	0xbb00	-0.875
51	0xb927	-0.644
52	0xb72a	-0.4478
53	0xb610	-0.379
54	0x3941	0.6567
55	0x3437	0.2634
56	0xaece	-0.1063
57	0xb151	-0.1661
58	0xb876	-0.5576
59	0xb6e3	-0.4304
60	0xb01a	-0.1282
61	0x3790	0.4727
62	0xaf86	-0.11755
63	0x2c37	0.06586
