tmp/edge-cdp-profile/EdgeOnnxRuntimeDirectML/1.19.2.0/VideoSuperResolution-DXM-FP32.onnx (onnx, 20168 bytes, 11 tensors)

conv1.weight f4 [8, 3, 3, 3]
0.13037132 -0.16337052 -0.08775834 -0.070859656 -0.045210212 -0.11471668 0.062806524 0.15501522
0.079194 0.16293934 0.12831202 -0.0012864765 -0.16135125 0.23113929 0.0800431 0.19175892
0.21342894 0.22941372 0.07488213 -0.18136257 -0.0043624924 -0.03987446 0.16841218 -0.09942753
-0.02621444 -0.09953926 0.09035067 -0.20185404 -0.20269704 0.13647212 0.03692463 0.11206536
0.02915112 0.02133102 0.14769958 -0.075224616 0.011495094 -0.05833326 -0.13534404 -0.19274396
-0.06611889 -0.09272196 -0.17261057 0.19229549 -0.0013168143 0.13127643 0.07656982 0.14713342
-0.124504946 0.21199279 0.22153595 -0.048698198 0.22164334 0.2167698 -0.02261366 0.013937273
0.22099146 -0.13076529 0.0843324 -0.06520963 -0.18588796 -0.16098711 0.15688704 0.15757157
-0.051948644 0.18797266 -0.14477408 -0.22503205 -0.0024353876 0.06904215 0.014541161 0.03070723
-0.1274091 0.15594764 -0.0542505 -0.25362596 -0.15266608 0.047358092 -0.21271159 -0.07357285
-0.049264975 0.13073443 -0.15000613 -0.095823094 0.16791905 0.21941133 0.2040134 -0.09645331
0.19726922 0.1878821 0.10428916 0.14961883 0.055400416 0.18064035 -0.10618813 0.18932417
-0.011877124 -0.16261308 -0.12654416 -0.09410236 0.06055171 -0.022399003 0.09298763 0.07499862
-0.053370982 -0.07794282 0.18823484 -0.073445454 -0.0035866604 -0.15719715 0.08168336 -0.06485925
0.14042075 0.009975035 0.18177174 0.07015344 0.16082177 0.11449461 0.047184665 -0.09210888
-0.166781 0.062254887 -0.21390021 -0.076198 -0.18101181 -0.027681762 -0.09704975 -0.14839524
-0.059227873 -0.101856574 0.067028254 0.12060127 -0.1387553 -0.05853745 -0.0979796 -0.057443533
0.21174486 -0.0646844 0.24522853 0.24925502 0.09511922 0.06612193 0.16068317 0.07500009
-0.07355734 0.16337578 0.15720627 0.16359091 0.18980977 -0.048063777 -0.1537968 0.21768433
-0.02986326 -0.033136316 0.04090197 -0.050547145 0.07954814 0.19620761 -0.14673688 -0.064174704
0.03925845 -0.15281725 -0.014200296 0.034554686 -0.19116743 -0.13676976 -0.014231202 -0.047061812
0.1400931 -0.15877724 -0.20175448 0.17864378 -0.1459702 0.123227015 0.2223963 -0.03937013
0.14155445 0.15884864 -0.13682625 0.04605331 0.020219846 0.008015164 -0.089221194 0.018385116
-0.10908523 0.0051996335 0.12629157 0.110850744 -0.16093251 -0.17068529 0.07116301 -0.13978048
0.10882797 0.025039729 -0.13854572 -0.05060059 -0.16752724 0.08222281 -0.13746771 0.032739278
-0.036090836 -0.1903698 -0.008251803 0.1033218 -0.10369752 0.11264698 -0.16957015 0.06845447
0.16767251 -0.12419775 0.1428777 -0.11377336 -0.107518256 0.13267028 -0.15795061 -0.004565664
00000000: 0f80 053e 9a4a 27be a5ba b3bd de1e 91bd
00000010: 582e 39bd 94f0 eabd b5a0 803d 4fbc 1e3e
00000020: 7730 a23d 92d9 263e 3a64 033e fd9e a8ba
00000030: 4339 25be c7af 6c3e a3ed a33d 735c 443e
00000040: 1e8d 5a3e 6eeb 6a3e cd5b 993d 1cb7 39be
00000050: 3df3 8ebb 6753 23bd 3e74 2c3e a9a0 cbbd
00000060: aabf d6bc 3ddb cbbd c609 b93d d3b2 4ebe
00000070: d08f 4fbe 59bf 0b3e 483e 173d 8682 e53d
00000080: 54ce ee3c 64be ae3c 8f3e 173e 5d0f 9abd
00000090: eb55 3c3c dbee 6ebd a197 0abe ac5e 45be
000000a0: 5769 87bd 03e5 bdbd d3c0 30be 1ce9 443e
000000b0: f598 acba 546d 063e a3d0 9c3d 25aa 163e
000000c0: 73fc febd a314 593e 52da 623e c377 47bd
000000d0: 79f6 623e e7f8 5d3e 4840 b9bc 2959 643c
000000e0: 964b 623e 56e7 05be 77b6 ac3d a08c 85bd
000000f0: 6a59 3ebe ced9 24be ffa6 203e 715a 213e
00000100: 1ac8 54bd e87b 403e a83f 14be cd6e 66be
00000110: 069b 1fbb f965 8d3d 0d3e 6e3c bb8d fb3c
00000120: 8877 02be bdb0 1f3e c635 5ebd 43db 81be
00000130: 7f54 1cbe 8ffa 413d 11d1 59be 5dad 96bd
00000140: 12ca 49bd 3fdf 053e 359b 19be e63e c4bd
00000150: f9f2 2b3e 5dad 603e e4e8 503e 5089 c5bd
00000160: f100 4a3e 2a64 403e 8e95 d53d ae35 193e
00000170: 8ceb 623d c9f9 383e 2a79 d9bd 32de 413e
00000180: 4598 42bc 0b84 26be cb94 01be bdb8 c0bd
00000190: 1205 783d 1d7e b7bc 4c70 be3d e098 993d
000001a0: 889b 5abd 7ca0 9fbd a2c0 403e 926a 96bd
000001b0: 2d0e 6bbb 4af8 20be 9b49 a73d edd4 84bd
000001c0: 75ca 0f3e 546e 233c 5f22 3a3e 9bac 8f3d
000001d0: 76ae 243e 267c ea3d b544 413d 95a3 bcbd
000001e0: a3c8 2abe fbfe 7e3d a808 5bbe b20d 9cbd
000001f0: 295b 39be ddc4 e2bc 05c2 c6bd ecf4 17be
00000200: ed98 72bd 2e9a d0bd 1c46 893d ccfd f63d
00000210: df15 0ebe f7c4 6fbd 87a9 c8bd e949 6bbd
00000220: a5d3 583e 4179 84bd 301d 7b3e b53c 7f3e
00000230: decd c23d ef6a 873d 218a 243e a699 993d
00000240: 3ba5 96bd fb4b 273e aefa 203e 6084 273e
00000250: 7e5d 423e 86de 44bd e97c 1dbe a4e8 5e3e
00000260: cca3 f4bc f2b9 07bd d388 273d 860a 4fbd
00000270: 23ea a23d a6ea 483e 3142 16be 076e 83bd
00000280: 78cd 203d 207c 1cbe 5ca8 68bc 3789 0d3d
00000290: 65c1 43be 5f0d 0cbe fd29 69bc e3c3 40bd
000002a0: 9174 0f3e 8096 22be ba98 4ebe 65ee 363e
000002b0: 3679 15be 725e fc3d dbbb 633e 9342 21bd
000002c0: a6f3 103e 38a9 223e 2e1c 0cbe 65a2 3c3d
000002d0: 17a4 a53c 0952 033c 9ab9 b6bd 629c 963c
000002e0: 1468 dfbd b061 aa3b 9452 013e b705 e33d
000002f0: 7ecb 24be 20c8 2ebe eabd 913d 9d22 0fbe
00000300: 33e1 de3d 1e20 cd3c eede 0dbe 9042 4fbd
00000310: 438c 2bbe 6f64 a83d 56c4 0cbe 9f19 063d
00000320: fcd3 13bd 4df0 42be 9232 07bc 619a d33d
00000330: 5e5f d4bd 76b3 e63d cca3 2dbe db31 8c3d
00000340: 58b2 2b3e 645b febd 884e 123e 0202 e9bd
00000350: 8832 dcbd b8da 073e cebd 21be 919b 95bb

conv1.bias f4 [8]
0.08574262 -0.039954066 0.19886743 0.1465708 -0.0668063 -0.0893201 -0.1606668 -0.07434838
00000000: d499 af3d e0a6 23bd e7a3 4b3e a816 163e
00000010: bed1 88bd 75ed b6bd d685 24be f743 98bd

RDB1.conv1.weight f4 [8, 8, 3, 3]
0.034898985 0.024433468 -0.08776554 -0.02820803 0.08455383 0.0017745536 0.04067523 0.078188464
0.029694121 -0.09679638 0.06996978 -0.10760496 0.03747559 0.11331916 -0.041825533 0.019606398
0.03077487 -0.059852388 0.070224546 -0.025791872 0.0023327072 -0.11206877 -0.08783714 0.034813672
0.074778266 -0.14882474 -0.014754276 0.0887002 0.02268622 0.05667602 -0.075268276 0.0368487
0.046611737 0.06529241 0.03157845 0.070369974 0.114253365 0.1235776 0.06713593 0.0037807708
-0.018932808 0.032074273 0.051633686 0.08988442 0.05400726 -0.0069290083 -0.076960474 -0.03986387
0.029402984 0.04268098 0.09583742 -0.022544391 -0.09302757 0.07065597 -0.022948768 -0.0837588
-0.06654076 0.07096072 0.085134126 -0.11349802 -0.03594844 0.07534721 -0.046355825 -0.06537615
0.01183888 0.002922538 0.08459342 0.06621451 -0.006291865 -0.02613857 -0.037650168 -0.09111394
0.07467285 -0.1369201 0.0025961935 -0.01302814 0.16999656 -0.08739626 0.00238335 -0.104083516
-0.018688288 0.053646054 0.020508556 0.10265619 0.051744927 0.19421682 -0.15791263 -0.108335644
-0.02950539 -0.041665167 0.04378461 0.04793243 0.105394386 -0.10135752 -0.20061916 -0.26299974
-0.103966676 0.1836124 -0.023911249 -0.03810239 0.046509154 0.09390041 -0.09646361 0.12887274
0.009503211 -0.050003514 0.042825434 -0.10643849 0.115432225 -0.005406845 -0.038902342 0.07967592
0.032347657 -0.02699491 -0.028035365 -0.0014436503 0.12869425 -3.5229114e-05 -0.013036582 -0.056704987
0.073993586 0.23609823 0.13190216 -0.032038014 0.06688171 -0.007654988 0.07272307 0.08155754
-0.08823652 -0.040656637 -0.121374406 0.22266471 -0.031975377 -0.15788507 0.13038926 0.058664646
0.03363855 0.03398605 0.03460045 -0.03394058 0.030274052 -0.0010291394 0.01810622 -0.055736642
0.07883046 -0.113377534 0.12217934 -0.011125472 0.06702123 -0.05688639 0.012352101 0.0478352
0.061759587 -0.020238023 0.066318974 0.092817165 0.15166512 -0.076832965 0.028814634 -0.12109846
-0.033820484 0.09993951 0.12979062 0.027017646 -0.011358839 0.010372485 0.06433999 0.023072528
0.101135015 -0.038027104 -0.18857262 0.03691838 -0.04606538 0.010959553 0.09728304 0.070676275
0.1018021 -0.04515597 -0.014007754 -0.110307164 -0.01419459 0.10700145 0.13856412 0.035996564
0.034742948 -0.036751904 0.050123233 0.109899566 0.10982104 -0.08545826 0.085673586 0.04334951
0.046498887 0.048965592 -0.09779858 0.063689865 0.07582362 -0.043936502 -0.11355422 0.06385084
-0.09554447 0.09636478 0.10091445 -0.049015064 0.047430266 -0.05046138 -0.053699702 -0.0024546161
0.06726468 -0.053423926 -0.023052996 0.0863 0.032200076 0.018161662 0.0010002612 -0.08612646
0.025924344 0.09779033 0.09159329 -0.07182369 0.0026237604 0.09747633 -0.14042902 -0.108516194
-0.049463306 -0.052836325 -0.07360686 -0.029045442 -0.0401484 -0.12962958 0.023649665 -0.11401837
-0.030477278 0.09892544 0.08933822 0.016452635 -0.062607594 -0.0022394443 0.06082735 0.045963615
0.04870748 -0.041235536 -0.07251191 -0.07895594 0.040860217 0.0030754057 -0.04719332 -0.026017666
-0.038830463 0.078731105 -0.029992977 0.11746827 0.033707377 0.036510203 -0.09172973 0.038359534
00000000: 3df2 0e3d b228 c83c 6bbe b3bd 8714 e7bc
00000010: 8f2a ad3d 2398 e83a 129b 263d 4621 a03d
00000020: 1641 f33c 2e3d c6bd 514c 8f3d fd5f dcbd
00000030: 0180 193d e013 e83d 4051 2bbd 999d a03c
00000040: 951b fc3c c727 75bd e3d1 8f3d 7a49 d3bc
00000050: 55e0 183b 5084 e5bd f5e3 b3bd c898 0e3d
00000060: 5925 993d 8365 18be ebbb 71bc 73a8 b53d
00000070: 74d8 b93c 1d25 683d 4126 9abd aaee 163d
00000080: f3eb 3e3d 07b8 853d 6858 013d 221e 903d
00000090: abfd e93d 4116 fd3d 907e 893d cfc6 773b
000000a0: fa18 9bbc 5060 033d d87d 533d 5315 b83d
000000b0: b736 5d3d bc0c e3bb 749d 9dbd 4c48 23bd
000000c0: 87de f03c 40d2 2e3d 6946 c43d 04af b8bc
000000d0: 3d85 bebd 14b4 903d 0eff bbbc bc89 abbd
000000e0: 8646 88bd db53 913d cd5a ae3d a671 e8bd
000000f0: ac3e 13bd a34f 9a3d 9bdf 3dbd eee3 85bd
00000100: ddf7 413c 0d88 3f3b 513f ad3d 799b 873d
00000110: fd2b cebb 8e20 d6bc 1037 1abd f299 babd
00000120: 14ee 983d c834 0cbe e624 2a3b fb73 55bc
00000130: 9413 2e3e cffc b2bd fa31 1c3b bd29 d5bd
00000140: 2e18 99bc f7bb 5b3d 8f01 a83c 693d d23d
00000150: 7df2 533d c6e0 463e d9b3 21be 14df ddbd
00000160: 4ab5 f1bc 18a9 2abd 7e57 333d cc54 443d
00000170: 03d9 d73d 8894 cfbd 1c6f 4dbe e7a7 86be
00000180: 7bec d4bd e404 3c3e 86e1 c3bc 4011 1cbd
00000190: 6280 3e3d dc4e c03d b78e c5bd 37f7 033e
000001a0: 5bb3 1b3c 7cd0 4cbd b969 2f3d 6cfc d9bd
000001b0: bb67 ec3d e72b b1bb 1058 1fbd 212d a33d
000001c0: fa7e 043d 6e24 ddbc 6caa e5bc de38 bdba
000001d0: 6dc8 033e f9c2 13b8 6397 55bc 7d43 68bd
000001e0: f389 973d bcc3 713e 5c11 073e 4b3a 03bd
000001f0: 47f9 883d b2d6 fabb d5ef 943d a407 a73d
00000200: 59b5 b4bd 9387 26bd 2593 f8bd 3802 643e
00000210: 9df8 02bd a0ac 21be c384 053e 574a 703d
00000220: 94c8 093d f534 0b3d 34b9 0d3d 4705 0bbd
00000230: 4a01 f83c 30e4 86ba 7f53 943c 1b4c 64bd
00000240: dd71 a13d 7b32 e8bd 2939 fa3d 9d47 36bc
00000250: 6d42 893d b401 69bd 7760 4a3c d8ee 433d
00000260: 9ff7 7c3d 36ca a5bc 3ed2 873d ed16 be3d
00000270: 1a4e 1b3e 9a5a 9dbd ab0c ec3c 7802 f8bd
00000280: 5987 0abd 16ad cc3d d5e7 043e 1c54 dd3c
00000290: 6d1a 3abc 5bf1 293c afc4 833d 9902 bd3c
000002a0: e01f cf3d 4fc2 1bbd 2e19 41be ba37 173d
000002b0: 0daf 3cbd b28f 333c 553c c73d b9be 903d
000002c0: 9f7d d03d 77f5 38bd c780 65bc b9e8 e1bd
000002d0: 6d90 68bc 9423 db3d c1e3 0d3e 2271 133d
000002e0: 9f4e 0e3d 2a89 16bd 054e 4d3d 0613 e13d
000002f0: dae9 e03d bd04 afbd a275 af3d 418f 313d
00000300: 9e75 3e3d 2590 483d 9f4a c8bd d56f 823d
00000310: 6a49 9b3d c3f6 33bd 1d8f e8bd 3bc4 823d
00000320: d2ac c3bd e65a c53d 3cac ce3d 05c4 48bd
00000330: 3d46 423d 98b0 4ebd 38f4 5bbd a0dd 20bb
00000340: 11c2 893d 0cd3 5abd a3d9 bcbc 0ebe b03d
00000350: 3ae4 033d c4c7 943c 321b 833a 1263 b0bd
00000360: 4a5f d43c 4c46 c83d 4395 bb3d 4c18 93bd
00000370: 65f3 2b3b aca1 c73d a0cc 0fbe bd3d debd
00000380: 099a 4abd e76a 58bd 32bf 96bd b5f0 edbc
00000390: a672 24bd 9ebd 04be f1bc c13c 7782 e9bd
000003a0: 7cab f9bc 6c99 ca3d f5f6 b63d adc7 863c
000003b0: 6938 80bd a4c3 12bb 1926 793d 5844 3c3d
000003c0: 7f81 473d 98e6 28bd 2081 94bd a7b3 a1bd
000003d0: 0b5d 273d bf8c 493b c84d 41bd 0023 d5bc
000003e0: b10c 1fbd c63d a13d d5b3 f5bc 3493 f03d
000003f0: bf10 0a3d b98b 153d ccdc bbbd e31e 1d3d

RDB1.conv1.bias f4 [8]
-0.10269618 0.05979326 0.03747301 -0.04668075 0.064960174 -0.014004359 0.10323436 0.13751814
00000000: 6052 d2bd c7e9 743d 4d7d 193d 5034 3fbd
00000010: d709 853d 8a72 65bc 896c d33d 8ed1 0c3e

RDB1.conv2.weight f4 [8, 16, 3, 3]
0.048564944 -0.065173134 -0.06296786 -0.0023993137 0.012480078 -0.078427926 -0.08936992 -0.03976322
-0.028776692 0.0092607 0.06168039 0.055491336 0.0017437354 -0.0040211063 -0.009679299 -0.057432026
-0.036895066 -0.036067158 -0.021216884 -0.04730729 -0.053806715 -0.028514834 0.022955794 0.0882972
0.02945339 0.024610484 -0.052241426 0.027852688 0.0017356741 -0.0801155 -0.077998936 -0.014752852
-0.02520032 0.03703805 0.05602611 0.029312925 0.03741939 0.028299125 -0.06693788 -0.037058454
0.08304723 -0.059267953 -0.05859444 0.0427528 -0.049134098 -0.043275002 -0.07882097 -0.05382655
0.030168775 0.03996361 0.05332403 -0.013193628 -0.026343599 -0.009003422 0.007800267 0.015747149
-0.01108281 0.014208154 0.078803815 0.04122572 0.087730795 -0.062262356 0.031145759 0.030278647
-0.04814468 -0.040595967 -0.0055100764 0.08201153 0.011082744 0.034496944 0.069742054 -0.017254766
-0.07764177 -0.037862133 0.054143075 -0.065038905 0.0021993327 -0.069361195 -0.061752778 -0.010105723
0.042744022 -0.08051878 -0.021383805 0.029543633 -0.046606507 0.040712964 -0.0018803572 0.068717614
-0.041470684 0.057562273 0.0015023808 -0.04613988 -0.06598819 0.046788048 -0.010919867 -0.05048168
-0.066695675 -0.038462296 -0.078841105 -0.00026945752 -0.042003386 0.04743088 -0.033212107 -0.047403645
0.011222754 0.007940957 0.035117056 0.014105632 0.023681205 -0.06047056 -0.053275455 0.035239175
-0.0871713 0.008826388 -0.038110994 -0.04678567 0.0063504144 -0.049898215 0.047885 -0.005940673
0.026512014 -0.014192361 -0.020396827 -0.07578348 -0.053715162 0.05771239 -0.07404698 -0.03273734
-0.042903457 0.0348517 0.02253605 0.02636817 -0.05647721 -0.04849572 -0.045195125 -0.02468963
-0.03016323 -0.078654625 -0.079357244 0.041580208 -0.03927883 -0.009486955 -0.03964822 0.023574423
0.04157076 0.036686406 -0.018757854 -0.059823744 0.06367733 -0.05495225 -0.05361252 -0.028107805
-0.08253082 -0.032211836 -0.084234044 -0.0024921063 -0.0005184991 -0.036193892 -0.059901565 -0.0690433
0.051427186 -0.06399433 0.0783381 0.04442078 0.02533744 -0.03420328 0.0051295534 -0.06135957
0.004974504 0.108208396 0.08324125 0.06152886 0.045275968 -0.07849736 -0.03510256 0.033113454
-0.068642065 0.04509786 0.04359837 -0.08289574 -0.008680239 0.05803785 0.0037619048 -0.021910451
0.062471844 -0.016437251 0.06880858 0.064717 -0.051324368 -0.02971792 -0.018198347 -0.060914308
0.0437871 0.06723597 -0.05643515 -0.081957564 0.016932443 -0.00087162707 -0.072643846 -0.061842542
-0.049613517 0.016790668 0.045131207 0.047238242 -0.012318645 -0.007172894 0.028142637 -0.0032082354
-0.02076908 0.014425758 0.07777969 -0.013657036 0.081731156 5.7675632e-05 -0.021928843 0.04049933
-0.012912985 -0.07556814 0.037821125 -0.06213957 0.027801163 -0.06736511 -0.016248463 -0.02335165
-0.037490934 -0.0063130446 -0.0019901558 -0.050532088 -0.027679242 0.07550374 -0.063346766 -0.0144801615
-0.0033252526 0.05222038 -0.03880524 0.06887291 0.03334066 0.055709373 0.017555425 -0.025424646
0.012121613 0.011230708 0.04077045 -0.07459832 0.015556766 -0.064002894 -0.0019249261 0.047064736
0.04540982 0.023944095 -0.073179886 0.028721098 0.145458 -0.123783186 -0.21817318 0.122992896
00000000: 09ec 463d 7e79 85bd 4bf5 80bd ce3d 1dbb
00000010: 3e79 4c3c d29e a0bd 9407 b7bd c2de 22bd
00000020: 19bd ebbc 31ba 173c 94a4 7c3d e24a 633d
00000030: 0d8e e43a 7cc3 83bb ec95 1ebc d83d 6bbd
00000040: 481f 17bd 28bb 13bd 08cf adbc 4ac5 41bd
00000050: 6e64 5cbd f197 e9bc ca0d bc3c 2ad5 b43d
00000060: 3c48 f13c ed9b c93c 1bfb 55bd 522b e43c
00000070: 8f7f e33a 9813 a4bd e8bd 9fbd f2b5 71bc
00000080: e770 cebc 36b5 173d a27b 653d a921 f03c
00000090: 1345 193d 91d3 e73c ba16 89bd 9bca 17bd
000000a0: ab14 aa3d f4c2 72bd b900 70bd 8f1d 2f3d
000000b0: d640 49bd 2141 31bd e46c a1bd 3a79 5cbd
000000c0: 8224 f73c e2b0 233d 4c6a 5a3d 162a 58bc
000000d0: 88ce d7bc 1783 13bc 6299 ff3b 2a00 813c
000000e0: ad94 35bc 51c9 683c e563 a13d 4ddc 283d
000000f0: 34ac b33d d006 7fbd 6425 ff3c ed0a f83c
00000100: 5b33 45bd f547 26bd df8d b4bb a9f5 a73d
00000110: 6694 353c ab4c 0d3d ecd4 8e3d de59 8dbc
00000120: a602 9fbd 5315 1bbd 21c5 5d3d 1e33 85bd
00000130: ae22 103b 3e0d 8ebd 7bf0 7cbd 7992 25bc
00000140: 5b14 2f3d 08e7 a4bd 172d afbc 7d05 f23c
00000150: 77e6 3ebd a3c2 263d 5176 f6ba d2bb 8c3d
00000160: 2add 29bd 6bc6 6b3d 89eb c43a 2cfd 3cbd
00000170: d124 87bd d3a4 3f3d 3ee9 32bc e1c5 4ebd
00000180: be97 88bd a48a 1dbd 7277 a1bd fa45 8db9
00000190: be0b 2cbd e246 423d 6b09 08bd 532a 42bd
000001a0: a4df 373c ca1a 023c e7d6 0f3d 4f1b 673c
000001b0: 16ff c13c faaf 77bd 5d37 5abd f456 103d
000001c0: de86 b2bd 8e9c 103c 461a 1cbd 55a2 3fbd
000001d0: 2317 d03b 1262 4cbd 1023 443d faa9 c2bb
000001e0: b92f d93c 1487 68bc 3f17 a7bc 5f34 9bbd
000001f0: 6e04 5cbd d463 6c3d f1a5 97bd 9717 06bd
00000200: 89bb 2fbd a8c0 0e3d 869d b83c 0f02 d83c
00000210: a654 67bd 73a3 46bd 861e 39bd e841 cabc
00000220: e118 f7bc ad15 a1bd 0d86 a2bd 0250 2a3d
00000230: d7e2 20bd 2c6f 1bbc 2c66 22bd 261f c13c
00000240: 1a46 2a3d 7c44 163d 12aa 99bc be09 75bd
00000250: 4369 823d 9c15 61bd cd98 5bbd 5742 e6bc
00000260: eb05 a9bd 8ff0 03bd e682 acbd 9b52 23bb
00000270: e3eb 07ba 0c40 14bd 585b 75bd 9366 8dbd
00000280: 50a5 523d 760f 83bd ba6f a03d 90f2 353d
00000290: 7790 cf3c bd18 0cbd d015 a83b 2c54 7bbd
000002a0: 2a01 a33b 5d9c dd3d 637a aa3d b005 7c3d
000002b0: 4b73 393d 39c3 a0bd b4c7 0fbd f9a1 073d
000002c0: 3694 8cbd 89b8 383d 3494 323d 3ec5 a9bd
000002d0: 9037 0ebc 19b9 6d3d 4a8a 763b 8c7d b3bc
000002e0: 7ae2 7f3d 6aa7 86bc 83eb 8c3d 598a 843d
000002f0: 8039 52bd ff72 f3bc b314 95bc 4881 79bd
00000300: 1a5a 333d 03b3 893d 8b28 67bd 5ed9 a7bd
00000310: e8b5 8a3c e77d 64ba 4cc6 94bd 9b4e 7dbd
00000320: 8b37 4bbd 958c 893c 80db 383d e37c 413d
00000330: 24d4 49bc 990a ebbb 638b e63c 4241 52bb
00000340: eb23 aabc 045a 6c3c f54a 9f3d c3c1 5fbc
00000350: aa62 a73d bde8 7138 1ea4 b3bc a0e2 253d
00000360: fc90 53bc 78c3 9abd 53ea 1a3d 1086 7ebd
00000370: 44bf e33c b8f6 89bd 7f1b 85bc f64b bfbc
00000380: 1890 19bd a8dd cebb 466d 02bb bcfa 4ebd
00000390: 94bf e2bc b4a1 9a3d f3bb 81bd 333e 6dbc
000003a0: 7bec 59bb 0ae5 553d 3ef2 1ebd 3e0d 8d3d
000003b0: 3790 083d 832f 643d 65d0 8f3c 5947 d0bc
000003c0: bb99 463c 0101 383c eafe 263d 01c7 98bd
000003d0: cee1 7e3c f313 83bd cd4d fcba f4c6 403d
000003e0: a6ff 393d 6826 c43c 56df 95bd 8248 eb3c
000003f0: f1f2 143e 0a82 fdbd ca68 5fbe b3e3 fb3d

RDB1.conv2.bias f4 [8]
-0.04275557 -0.06355835 0.024865972 0.0958065 0.002670424 0.037362777 0.010594321 -0.011454853
00000000: 7720 2fbd e12a 82bd b9b3 cb3c 3336 c43d
00000010: 4802 2f3b b609 193d ce93 2d3c 23ad 3bbc

RDB1.conv3.weight f4 [8, 24, 3, 3]
0.028361566 0.014222557 -0.10986042 -0.08867953 -0.035384152 0.014212058 -0.007828642 -0.023707995
-0.04318197 0.08538317 0.031233253 -0.04161068 0.07272442 -0.13313387 0.069201626 0.031546813
0.03296702 0.04145161 -0.049493782 -0.14592762 0.028614838 -0.012113671 0.091619894 0.16935545
-0.056911252 -0.04239119 -0.09650564 0.06934977 0.087379955 0.013617129 0.052680008 0.0018741832
0.0076329913 0.053969424 -0.010662326 0.036235254 0.105504595 0.030661635 0.068716615 -0.005377971
0.062707044 0.049542274 0.05198743 0.097318344 -0.010036181 -0.049768865 -0.00442555 -0.05251054
0.0999341 -0.039518636 -0.024316179 -0.018341249 0.039020795 0.0357918 -0.09546792 -0.12035787
-0.07914695 -0.14943177 -0.014577368 -0.09247812 -0.09473628 -0.03848216 -0.017218066 0.020156855
-0.06434718 -0.0017414197 -0.018017095 0.093246214 0.0018746294 -0.0018250439 -0.008185764 -0.010634402
0.070296966 -0.028247777 0.0015729272 -0.03692348 0.029878471 -0.020370105 0.043448206 0.013133765
0.009948087 0.11754041 0.1699535 0.10782939 0.08135665 -0.11691163 0.005161009 0.09807289
0.1547785 -0.01037781 -0.066634715 -0.042335458 0.06362247 0.037314646 -0.012258771 0.03434266
-0.051312923 -0.0236258 0.01053071 -0.014155113 -0.02171635 0.045076665 0.008990207 0.041530777
-0.0056849085 -0.039569885 -0.055471297 0.043289784 -0.008847608 -0.087433174 0.058305174 -0.06795048
0.035748404 -0.04331242 0.010545638 0.058437217 0.009042873 0.1415844 -0.16343203 0.042115442
0.015005598 -0.21946214 0.08280424 0.20022507 0.19975235 0.15899022 0.09343659 0.1366027
-0.054239716 0.04417719 -0.06979144 -0.13731499 0.004515058 0.09712273 -0.0047431733 0.011550468
-0.005329613 0.06118467 0.047957487 0.13114882 0.06705145 0.019673124 0.085965335 0.0789609
-0.06409284 0.04569351 -0.068689525 0.0070862747 -0.0015270797 -0.045810137 0.054647937 0.0028819102
0.04793512 -0.18511851 0.3141341 -0.024914363 -0.1360313 0.21717209 -0.1225596 0.024555815
-0.013140897 -0.071286276 0.013384459 -0.014879447 0.0036659543 -0.061247695 -0.011304141 -0.015817272
0.009883498 0.012792792 0.019093888 0.024138017 0.20504077 0.06298198 0.02328436 -0.06273986
0.042002242 0.12731342 0.031772524 0.07905104 -0.09784589 -0.34527963 -0.0024358218 0.22552264
0.07997555 0.46395788 -0.11693414 -0.22980504 -0.34737712 -0.082685776 0.092824064 -0.17721204
-0.10006194 0.24845767 -0.26279548 0.056411773 -0.08277748 0.058574036 0.0058424026 0.12890936
-0.0023595085 0.11380106 -0.44178414 -0.013018032 0.16280852 -0.00042767538 0.31382135 0.051442783
-0.045708355 -0.05713719 0.016175015 0.041066524 -0.049988553 0.032539524 0.050374657 -0.011090322
-0.023274586 0.019118583 -0.03416821 0.030398104 -0.0078401575 -0.07653653 0.030336617 -0.087425895
-0.06748221 -0.00050238444 -0.040475734 0.08667802 -0.07638759 -0.07284543 0.0015888715 -0.026283376
-0.08472268 -0.06563037 0.007207548 -0.01474586 -0.015300074 -0.0032848574 -0.010169024 0.018379115
-0.015241415 0.044310093 -0.01665699 -0.028161429 -0.023775905 -0.071590036 -0.034029536 0.0026459852
-0.051273763 -0.046078645 -0.09542717 0.01614559 -0.05380144 -0.051684063 0.019963643 0.010711272
00000000: 8456 e83c ba05 693c 80fe e0bd 9d9d b5bd
00000010: f9ee 10bd b1d9 683c b443 00bc 4537 c2bc
00000020: 94df 30bd 5fdd ae3d e1dc ff3c f66f 2abd
00000030: 8af0 943d 3f54 08be 95b9 8d3d 3b37 013d
00000040: 6d08 073d 2ac9 293d feb9 4abd 0d6e 15be
00000050: aa69 ea3c 6b78 46bc 36a3 bb3d 846b 2d3e
00000060: c61b 69bd 62a2 2dbd c0a4 c5bd 4107 8e3d
00000070: 43f4 b23d 611a 5f3c fec6 573d 27a7 f53a
00000080: 2c1e fa3b 0b0f 5d3d 09b1 2ebc 6b6b 143d
00000090: cb12 d83d 1c2e fb3c 4cbb 8c3d b139 b0bb
000000a0: 8d6c 803d d7ec 4a3d c5f0 543d d74e c73d
000000b0: cb6e 24bc 70da 4bbd 3404 91bb 4b15 57bd
000000c0: 40aa cc3d 4bde 21bd b932 c7bc 6340 96bc
000000d0: 45d4 1f3d 6c9a 123d af84 c3bd 307e f6bd
000000e0: cc17 a2bd a404 19be ead5 6ebc 2b65 bdbd
000000f0: 1805 c2bd 789f 1dbd e70c 8dbc fd1f a53c
00000100: 74c8 83bd 5940 e4ba 9698 93bc dff7 be3d
00000110: 20b6 f53a 5036 efba 951d 06bc ea3b 2ebc
00000120: dbf7 8f3d e267 e7bc ae2a ce3a 133d 17bd
00000130: b2c3 f43c 35df a6bc bff6 313d 012f 573c
00000140: 4dfd 223c 07b9 f03d 4a08 2e3e a8d5 dc3d
00000150: 519e a63d 5d6f efbd ae1d a93b 70da c83d
00000160: 417e 1e3e b107 2abc c877 88bd f267 2dbd
00000170: 7f4c 823d 3ed7 183d 03d9 48bc e4aa 0c3d
00000180: 802d 52bd e58a c1bc 0089 2c3c d9ea 67bc
00000190: 7de6 b1bc 4fa2 383d a94b 133c 2d1c 2a3d
000001a0: 7848 babb 0814 22bd df35 63bd a150 313d
000001b0: 8ff5 10bc 2a10 b3bd 68d1 6e3d 9f29 8bbd
000001c0: eb6c 123d 5d68 31bd 9dc7 2c3c dd5b 6f3d
000001d0: 8f28 143c 80fb 103e ba5a 27be 3e81 2c3d
000001e0: 0ada 753c afba 60be 4595 a93d cd07 4d3e
000001f0: e18b 4c3e 55ce 223e af5b bf3d 94e1 0b3e
00000200: 772a 5ebd 24f3 343d d1ee 8ebd 4d9c 0cbe
00000210: 0df3 933b 48e8 c63d 9f6c 9bbb 2d3e 3d3c
00000220: 09a4 aebb c79c 7a3d 126f 443d e04b 063e
00000230: 4552 893d 8829 a13c 980e b03d 41b6 a13d
00000240: 1b43 83bd 1e29 3b3d 18ad 8cbd fb33 e83b
00000250: 4b28 c8ba 69a3 3bbd 84d6 5f3d 6ede 3c3b
00000260: 9e57 443d b58f 3dbe 2fd6 a03e 3519 ccbc
00000270: ca4b 0bbe 5c62 5e3e 8700 fbbd 4729 c93c
00000280: eb4c 57bc 8afe 91bd 7d4a 5b3c edc8 73bc
00000290: 8240 703b ddde 7abd 0135 39bc 3993 81bc
000002a0: 65ee 213c dc98 513c c96a 9c3c 17bd c53c
000002b0: 35f6 513e b2fc 803d d8be be3c c17d 80bd
000002c0: 8b0a 2c3d 735e 023e e823 023d 83e5 a13d
000002d0: 6d63 c8bd 7ec8 b0be 4fa2 1fbb 68ef 663e
000002e0: 39ca a33d e38b ed3e 2b7b efbd 0352 6bbe
000002f0: 6adb b1be 2957 a9bd 8b1a be3d 1377 35be
00000300: 46ed ccbd b06b 7e3e 218d 86be 0810 673d
00000310: 3d87 a9bd 54eb 6f3d a071 bf3b d100 043e
00000320: fca1 1abb 8810 e93d 8831 e2be 9549 55bc
00000330: 47b7 263e 9e39 e0b9 31ad a03e abb5 523d
00000340: af38 3bbd b008 6abd 7781 843c 5f35 283d
00000350: ccc0 4cbd 2a48 053d a855 4e3d 2fb4 35bc
00000360: 58aa bebc 939e 9c3c f7f3 0bbd 7205 f93c
00000370: 0174 00bc 2fbf 9cbd 7f84 f83c 590c b3bd
00000380: 1d34 8abd 73b2 03ba e2c9 25bd 3f84 b13d
00000390: 1971 9cbd fc2f 95bd ae41 d03a 3c50 d7bc
000003a0: 1683 adbd 3769 86bd 4b2d ec3b 9f98 71bc
000003b0: 29ad 7abc c346 57bb fa9b 26bc cc8f 963c
000003c0: 21b7 79bc 807e 353d 3d74 88bc ccb2 e6bc
000003d0: b0c5 c2bc cc9d 92bd 8e62 0bbd 4468 2d3b
000003e0: 7004 52bd f6bc 3cbd 526f c3bd c243 843c
000003f0: e65e 5cbd abb2 53bd cb8a a33c 557e 2f3c

RDB1.conv3.bias f4 [8]
0.033367183 -0.0070706643 0.0022451289 -0.051133793 -0.03612349 -0.021276284 -0.0009751802 -0.04936327
00000000: 07ac 083d 08b1 e7bb 0323 133b ab71 51bd
00000010: 3af6 13bd 9a4b aebc 3ca3 7fba 2431 4abd

conv_final.weight f4 [12, 8, 3, 3]
0.026532263 0.06043449 -0.040024288 0.060780697 0.110549495 -0.25217533 0.024491655 -0.06469217
-0.012932728 0.02709993 -0.09357007 -0.15979463 0.10160605 0.14848912 -0.06979151 0.08131691
-0.10658371 -0.073647104 0.14735879 -0.05156055 0.073470645 -0.020133883 -0.17621927 -0.11160221
0.029923787 0.20870309 0.052890435 0.011364544 -0.04276857 0.10634739 0.021648336 0.004599408
0.1637553 -0.023517355 0.12301125 -0.009499052 -0.019917114 -0.1841974 -0.028893191 0.09116072
-0.00038021803 -0.047017302 -0.015375779 0.028856996 0.01462193 -0.018849691 -0.09397237 -0.043269325
0.0014489394 0.36437315 0.12514117 -0.018580828 -0.0074554575 -0.020874746 -0.14072733 -0.12858613
0.047484133 0.027293751 -0.03547036 -0.12839119 -0.037299395 -0.14991403 0.026151912 0.049308367
0.04240126 -0.102654256 -0.060886372 -0.004429858 0.07262816 -0.07910755 -0.13224621 -0.09489238
-0.03389185 0.010465977 0.0051246 -0.18077835 0.14327651 -0.032384485 0.04246034 -0.028665075
-0.05135558 0.004523264 0.073387355 -0.008477761 -0.12633432 0.022513347 -0.032525633 -0.121872485
0.02352245 -0.015327919 -0.0077218995 -0.04806407 -0.03361993 -0.0033767777 0.05007367 -0.24698257
0.08434057 0.04697536 -0.037668336 0.095984526 -0.032159943 0.07339219 0.086032934 0.03842202
0.06885818 0.0669139 0.03747698 0.089636445 0.039130982 -0.090821445 -0.038125403 0.06561635
-0.12681203 0.043575317 0.01215306 0.053290326 -0.003932055 -0.041339826 -0.04417455 -0.0098394435
-0.05877802 0.30839682 0.26586393 -0.07787623 -0.04150979 0.036113016 0.041316282 0.045079794
-0.054694775 -0.08862653 0.01731806 -0.014985485 -0.10351922 -0.030435864 -0.11573231 0.06379439
-0.049646262 0.021951716 -0.03623021 -0.08532822 -0.141669 0.029116323 -0.07130058 -0.024588844
-0.053000465 -0.08021577 -0.112264656 0.076996244 0.19924672 -0.13743584 0.10045759 0.00037795107
-0.10785327 0.05497087 0.061987482 -0.016070254 0.090463325 0.10364604 8.9328045e-05 0.058220644
-0.044478618 -0.095146134 0.0985008 0.13537107 0.040822763 0.06369796 -0.055143505 -0.11151787
0.115511216 0.06684768 -0.128458 0.05333813 -0.044269536 -0.0023156423 0.10842 0.041019477
0.12380139 -0.0027220207 0.023369633 -0.00020738138 -0.00949968 -0.061564334 0.053290725 0.01993434
-0.10159771 -0.04646775 0.043902244 0.024454419 0.03318409 -0.03376399 -0.16860108 0.05949442
-0.030420866 0.19193025 0.038232308 -0.07352148 0.18424787 0.046149086 -0.057991117 0.029150315
0.019663228 -0.026602183 -0.06031125 -0.0015592051 -0.10505589 -0.10182185 -0.10635941 -0.12626979
0.03231137 -0.039896518 -0.004123079 -0.11343561 -0.0122291325 -0.09020811 -0.065330155 -0.066493
-0.050508942 -0.17087846 -0.09737458 -0.104039855 0.26539952 -0.019123124 -0.025823556 0.015933659
-0.01478454 0.085047185 0.05057487 -0.10186694 -0.11862763 0.03414754 0.04029873 0.07863755
0.1558962 -0.06305923 0.0070361802 0.11579163 0.016451174 -0.059678897 0.03613587 -0.116749525
0.06295748 0.0620128 -0.06333777 0.035362177 -0.047139574 0.017177295 -0.025654959 0.18202235
0.0070741037 0.13160074 0.08464677 -0.0028308604 0.0053918385 -0.072569236 -0.03336541 -0.0062703425
00000000: 305a d93c 288a 773d 82f0 23bd 2ef5 783d
00000010: c667 e23d 201d 81be b9a2 c83c 547d 84bd
00000020: cbe3 53bc ac00 de3c aaa1 bfbd 34a1 23be
00000030: d516 d03d 880d 183e daee 8ebd 7b89 a63d
00000040: 8f48 dabd 4bd4 96bd 39e5 163e 2831 53bd
00000050: c777 963d d0ef a4bc d372 34be b38f e4bd
00000060: bb22 f53c 43b6 553e a4a3 583d 5a32 3a3c
00000070: 192e 2fbd a9cc d93d da57 b13c a1b6 963b
00000080: 78af 273e 78a7 c0bc 52ed fb3d e9a1 1bbc
00000090: 3729 a3bc 3e9e 3cbe 6ab1 ecbc 79b2 ba3d
000000a0: 0058 c7b9 3795 40bd b1ea 7bbc 8265 ec3c
000000b0: d290 6f3c ab6a 9abc 9674 c0bd 2d3b 31bd
000000c0: 57ea bd3a 1e8f ba3e 0225 003e d236 98bc
000000d0: e94c f4bb 8401 abbc d31a 10be 15ac 03be
000000e0: b97e 423d 2597 df3c 5e49 11bd fb78 03be
000000f0: 40c7 18bd 1083 19be 893c d63c 92f7 493d
00000100: f2ac 2d3d 653c d2bd fd63 79bd 5828 91bb
00000110: 13be 943d 2403 a2bd 8d6b 07be f056 c2bd
00000120: 2ed2 0abd 7d79 2b3c 43ec a73b f61d 39be
00000130: 14b7 123e 98a5 04bd e5ea 2d3d 05d3 eabc
00000140: 3b5a 52bd e337 943b 1c4c 963d 4fe6 0abc
00000150: c95d 01be e96d b83c 9939 05bd 4898 f9bd
00000160: 27b2 c03c f421 7bbc fd07 fdbb d5de 44bd
00000170: 0db5 09bd ee4c 5dbb 0c1a 4d3d 00e9 7cbe
00000180: c0ba ac3d 3c69 403d 1d4a 1abd 8993 c43d
00000190: 25ba 03bd a54e 963d 0932 b03d 6860 1d3d
000001a0: 8405 8d3d 280a 893d 7681 193d 5093 b73d
000001b0: cf47 203d 9800 babd 6229 1cbd dd61 863d
000001c0: 03db 01be 087c 323d a11d 473c f546 5a3d
000001d0: 78d8 80bb f353 29bd 5ff0 34bd 9e35 21bc
000001e0: 39c1 70bd 30e6 9d3e 511f 883e 937d 9fbd
000001f0: 2b06 2abd 3eeb 133d 433b 293d 97a5 383d
00000200: a107 60bd d381 b5bd 9bde 8d3c ae85 75bc
00000210: e301 d4bd a254 f9bc 1005 edbd a2a6 823d
00000220: e159 4bbd 16d4 b33c 2166 14bd 90c0 aebd
00000230: ae11 11be 5b85 ee3c 0a06 92bd 8b6e c9bc
00000240: 0417 59bd 2a48 a4bd 03eb e5bd 35b0 9d3d
00000250: 5507 4c3e fbbb 0cbe b5bc cd3d bc27 c639
00000260: 2de2 dcbd 2329 613d 96e6 7d3d c4a5 83bc
00000270: d644 b93d 6044 d43d a155 bb38 c578 6e3d
00000280: 362f 36bd fadb c2bd caba c93d b79e 0a3e
00000290: c535 273d 1374 823d 28de 61bd 7b63 e4bd
000002a0: 2591 ec3d 70e7 883d 7e8a 03be 1579 5a3d
000002b0: f953 35bd 08c2 17bb 4e0b de3d 0a04 283d
000002c0: 958b fd3d ee63 32bb ac71 bf3c 8474 59b9
000002d0: 8ca4 1bbc e22a 7cbd 6047 5a3d 574d a33c
000002e0: 7612 d0bd f854 3ebd d7d2 333d a254 c83c
000002f0: 0aec 073d 1c4c 0abd c3a5 2cbe 6cb0 733d
00000300: 2e35 f9bc 5d89 443e 7b99 1c3d 6e92 96bd
00000310: 79ab 3c3e d306 3d3d 1888 6dbd a4cc ee3c
00000320: c714 a13c d2ec d9bc ee08 77bd 3e5e ccba
00000330: 8b27 d7bd f987 d0bd f6d2 d9bd de4c 01be
00000340: ed58 043d 886a 23bd e51a 87bb ee50 e8bd
00000350: b35c 48bc 08bf b8bd d1cb 85bd 7b2d 88bd
00000360: 77e2 4ebd c3fa 2ebe 536c c7bd d912 d5bd
00000370: 72e2 873e 19a8 9cbc ec8b d3bc 4e87 823c
00000380: db3a 72bc 382d ae3d 9827 4f3d 9d9f d0bd
00000390: 0bf3 f2bd 4ade 0b3d 4810 253d b90c a13d
000003a0: 41a3 1f3e 3325 81bd c28f e63b 2a24 ed3d
000003b0: 9dc4 863c dc71 74bd 3503 143d 601a efbd
000003c0: daef 803d 2201 7e3d 3cb7 81bd eed7 103d
000003d0: 6d15 41bd 66b7 8c3c 592a d2bc 1164 3a3e
000003e0: e2cd e73b 58c2 063e 495b ad3d f585 39bb
000003f0: 05ae b03b 2e9f 94bd 2baa 08bd 7277 cdbb

conv_final.bias f4 [12]
0.0013859372 0.04803545 -0.02023676 -0.0057481783 0.04601922 -0.013721258 -0.0051051634 -0.070796154
-0.027838768 -0.0069137053 -0.019454753 0.043150485
00000000: 56a8 b53a d2c0 443d 90c7 a5bc 375b bcbb
00000010: a67e 3c3d 21cf 60bc 3749 a7bb 93fd 90bd
00000020: 210e e4bc 5d8c e2bb 935f 9fbc 90be 303d

33 f4 [4]
1.0 1.0 2.0 2.0
00000000: 0000 803f 0000 803f 0000 0040 0000 0040
