tmp/edge-cdp-profile/EdgeOnnxRuntimeDirectML/1.19.2.0/VideoSuperResolution-E-FP32.onnx (onnx, 162566 bytes, 37 tensors)

0.head.0.weight f4 [16, 3, 3, 3]
0	0xbab194a7	-0.001354833
1	0x3dc23883	0.09483435
2	0xbdada28c	-0.08478269
3	0x3d14a0e3	0.036286246
4	0xbe6957a6	-0.22787341
5	0x3e11a94f	0.14224742
6	0xbe0f22ab	-0.13978069
7	0xbd896614	-0.06708923
8	0x3db826ae	0.089917526
9	0x3e2355aa	0.15950647
10	0xbd3082b8	-0.043093413
11	0x3dc855f8	0.09782022
12	0x3e0541fa	0.1301345
13	0xbe12d51b	-0.14339106
14	0xbdfc4c12	-0.12319197
15	0x3da690a9	0.081330605
16	0x3dd7f0ed	0.10544
17	0x3d7bde31	0.061491195
18	0x3cceeef8	0.025260434
19	0x3e020a93	0.12699346
20	0xbd352907	-0.04422858
21	0x3cd390c7	0.025825871
22	0xbd3ae0f3	-0.045624685
23	0x3daa3f79	0.08312888
24	0x3cc73724	0.024318285
25	0xbe020759	-0.12698115
26	0xbdd82c86	-0.10555367
27	0x3af4c878	0.0018675467
28	0xbd141e67	-0.036161806
29	0x3d6a525d	0.057207454
30	0x3e260585	0.16213043
31	0x3e64e05e	0.22351214
32	0xbc4c311f	-0.012462883
33	0x3d7e9658	0.062155098
34	0x3c63ff9c	0.0139159225
35	0x3d102eea	0.03520099
36	0x3c690dd8	0.014224492
37	0xbe228c29	-0.1587378
38	0xbd2318c4	-0.03981854
39	0x3e354d85	0.17705353
40	0xbe862a26	-0.26204032
41	0xbe14eb1e	-0.14542815
42	0xbdc1e1dd	-0.09466908
43	0x3dcc5883	0.0997782
44	0xbdee3d3e	-0.11632775
45	0xbc51a0f8	-0.012794726
46	0x3de05db4	0.109553725
47	0xbd8b6c23	-0.06807735
48	0x3d0441ae	0.0322892
49	0xbea82d52	-0.32847077
50	0xbe13ce4e	-0.14434168
51	0x3d101086	0.035172008
52	0xbe0157b9	-0.1263112
53	0x3e08a492	0.13344029
54	0x3d21c19a	0.039491273
55	0x3d0ccad9	0.034373138
56	0xbdfacc92	-0.1224605
57	0x3c41fd58	0.011840187
58	0x3eb9446e	0.3618502
59	0x3d8e3ca0	0.06945157
60	0xbdddef98	-0.108367145
61	0x3dc5ab1a	0.09651776
62	0xbb92a6e5	-0.004475462
63	0x3e00fc2e	0.12596199
64	0x3c08d7a0	0.00835219
65	0x3dc70f34	0.09719697
66	0xbd3845f2	-0.04498858
67	0xbe372181	-0.17883874
68	0xbd85d3a5	-0.065345086
69	0xbb6f0746	-0.0036472841
70	0x3de0d252	0.109776154
71	0x3db64659	0.089001365
72	0xbcb1331c	-0.021630816
73	0xbd90badf	-0.07066893
74	0x3d0155f6	0.03157612
75	0xbd277888	-0.040886432
76	0xbdc6324d	-0.09677563
77	0x3d85cc55	0.06533114
78	0x3d81a98a	0.06331165
79	0xbd2e3722	-0.042533047
80	0xbdfa7e69	-0.12231142
81	0xbd8770de	-0.066133246
82	0xbddd6a8d	-0.108113386
83	0x3e1ff77e	0.15621755
84	0x3d0f204d	0.034942914
85	0xbee84134	-0.45362246
86	0xbdee0fde	-0.1162412
87	0x3cd5f678	0.026118502
88	0xbd20fdec	-0.03930466
89	0x3dde27d9	0.10847444
90	0x3d0ffc27	0.03515258
91	0x3d3a2cc2	0.04545284
92	0xbd19cd29	-0.03754917
93	0xbe410bd2	-0.18852165
94	0xbe217d89	-0.15770544
95	0x3d593602	0.05303002
96	0x3ccbb6eb	0.024867496
97	0xbda3aac9	-0.07991559
98	0xbca221de	-0.01979154
99	0xbd7d6c70	-0.061870992
100	0x3de9072e	0.113783225
101	0xbc5fb19f	-0.013653188
102	0x3d5cba91	0.05388886
103	0x3eade2c8	0.33962083
104	0x3e109235	0.14118274
105	0xbda0ee3d	-0.0785794
106	0x3d2820a7	0.041046765
107	0xbdb6fdd4	-0.089351326
108	0xbcd054cb	-0.025431057
109	0x3e0e43a3	0.13892989
110	0x3d7120fa	0.05886934
111	0x3cae4cec	0.021276914
112	0x3cc84a1b	0.024449399
113	0xbe3e01a7	-0.18555318
114	0xbdaaed44	-0.08346036
115	0x3d142a5f	0.03617322
116	0x3daa9d00	0.083307266
117	0xbd50c12b	-0.05096547
118	0xbe02f45e	-0.12788531
119	0x3dadffc5	0.0849605
120	0x3c68f7eb	0.0142192645
121	0x3e354a08	0.17704022
122	0x3de0134c	0.109411806
123	0x3deef5b9	0.116679616
124	0x3cf24f12	0.02957872
125	0xbc5af70b	-0.013364564
126	0xbd6f9973	-0.05849595
127	0xbd4aa5fc	-0.0494747
128	0x3b860534	0.0040899757
129	0xbd1a006f	-0.03759807
130	0x3e977c86	0.2958719
131	0x3dd319be	0.10307644
132	0xbda5ce31	-0.080959685
133	0x3d305445	0.043049116
134	0xbd6a34c9	-0.057179246
135	0xbd3b3aec	-0.04571049
136	0xbdc02d5f	-0.09383654
137	0x3e136125	0.14392526
138	0x3d47f64c	0.04881887
139	0x3d5ec178	0.054383725
140	0x3d1c3377	0.03813502
141	0xbd7a0a38	-0.0610449
142	0xbd98573f	-0.07438516
143	0x3bf52ea1	0.0074823652
144	0x3d4b33a1	0.049609784
145	0x3c302d4b	0.010752986
146	0xbdcafee1	-0.099118955
147	0xbd3c68f1	-0.045998517
148	0x3ef41bc5	0.47677436
149	0x3e0ca468	0.13734591
150	0xbd81ebbd	-0.06343792
151	0xbdffe56c	-0.124949306
152	0xbd827e81	-0.06371785
153	0xbd3ff763	-0.046866786
154	0x3d84763b	0.06467863
155	0xbcf415f9	-0.029795634
156	0xbe029c7e	-0.1275501
157	0xbe6703f6	-0.22560105
158	0xbe44aa0b	-0.19205491
159	0x3c817e11	0.015807183
160	0x3db25508	0.08707625
161	0x3e004ac6	0.12528524
162	0x3dbd840b	0.09253701
163	0xbcf2f817	-0.029659314
164	0x3cd40f46	0.02588619
165	0xbd95ee7c	-0.07320878
166	0xbcd1832e	-0.025575247
167	0xbd840ecd	-0.064481355
168	0xbc495875	-0.012289156
169	0x3de07e9a	0.10961647
170	0xbc4d3a8d	-0.012526167
171	0xbd7d8e02	-0.061903007
172	0x3e100c33	0.14067154
173	0x3d120bfb	0.035655957
174	0x3e592595	0.21205743
175	0xbdf4d17a	-0.11954017
176	0x3e3c5297	0.1839088
177	0x3dbc20e1	0.09185959
178	0xbd6ae5af	-0.05734795
179	0x3d791c84	0.06081821
180	0x3d286fd5	0.041122276
181	0xbe077df0	-0.13231635
182	0xbd1bad15	-0.03800686
183	0xbda39ac2	-0.07988502
184	0xbe668d1d	-0.22514768
185	0xbcf5ef5c	-0.030021362
186	0xbdcaf50f	-0.099100225
187	0xbcebc436	-0.028780084
188	0xbd9d63c1	-0.07685042
189	0x3db3ad8f	0.08773338
190	0x3d9b8993	0.075945996
191	0xbe2c8460	-0.16847372
192	0xbda9a32c	-0.08283076
193	0xbc98d9c2	-0.018658523
194	0x3d7d3e7f	0.06182718
195	0xbd8051e6	-0.06265621
196	0x3d4d8301	0.050173763
197	0xbd9623fa	-0.07331081
198	0x3e382e29	0.17986359
199	0xbe1dad5b	-0.15398161
200	0x3ce8798f	0.028378276
201	0xbe173b2e	-0.14768669
202	0xbe2140f1	-0.1574743
203	0xbe3dae77	-0.18523584
204	0x3df1898c	0.11793813
205	0xbe470edb	-0.1943926
206	0xbce5bc89	-0.028044002
207	0xbc9b8be6	-0.018987607
208	0x3e045a33	0.12925033
209	0xbdfef79d	-0.12449572
210	0x3e28d788	0.16488469
211	0x3b590000	0.0033111572
212	0x3d88a5cd	0.06672249
213	0xbdaeb6e6	-0.08530979
214	0x3def212b	0.11676248
215	0x3d4b9cbe	0.049710028
216	0x3e22d9ce	0.15903398
217	0xbcbe5113	-0.023232019
218	0xbd5d5ec6	-0.05404546
219	0xbdab05e0	-0.0835073
220	0x3e0e7d40	0.13914967
221	0xbe26aa60	-0.1627593
222	0x3df2cb06	0.1185513
223	0xbe01d2ab	-0.1267802
224	0x3e08bf23	0.13354163
225	0x3c1252b2	0.008930849
226	0x3daf006d	0.08545003
227	0x3c82713e	0.015923139
228	0xbd58ab50	-0.05289775
229	0x3e9e9d0b	0.3097919
230	0xbe72ea53	-0.237222
231	0xbbac06a3	-0.0052498146
232	0xbe181970	-0.14853454
233	0x3d329580	0.043599606
234	0xbd62ced5	-0.05537303
235	0x3d188440	0.0372355
236	0x3d277e20	0.040891767
237	0x3cbae4a4	0.022814102
238	0x3dafb37a	0.08579154
239	0x3de3dd51	0.11126197
240	0xbd86dde0	-0.06585288
241	0x3e2d310e	0.16913244
242	0xbe244e57	-0.1604551
243	0xbdeadee5	-0.11468295
244	0x3daae3ee	0.083442554
245	0x3dbaaa27	0.09114485
246	0x3e0a437f	0.1350231
247	0xbdb05fb9	-0.08612008
248	0x3e31cfc1	0.17364408
249	0x3d4684b3	0.048466396
250	0xbceabf9b	-0.028655818
251	0xbd163177	-0.036668267
252	0x3dd611a2	0.10452582
253	0xbe2b988b	-0.1675741
254	0x3c90d67c	0.0176804
255	0xbe284395	-0.1643203

0.head.0.bias f4 [16]
0	0xbda2b493	-0.07944598
1	0x3d639020	0.05555737
2	0xbdf162ba	-0.11786409
3	0x3c996034	0.018722631
4	0xbd449fd8	-0.048004
5	0x3ccc8d9b	0.024969866
6	0xbdac6b7d	-0.08418939
7	0xbc32c8b4	-0.010912109
8	0xbe114a9c	-0.14188617
9	0xbd304756	-0.04303678
10	0x3d11422f	0.03546351
11	0x3da7e183	0.0819731
12	0xbb1420b9	-0.0022602512
13	0x3cdeb931	0.027187916
14	0x3cef5587	0.029215587
15	0xbe19cf15	-0.15020402

0.body.0.body.0.body.0.weight f4 [16, 16, 3, 3]
0	0xbb04392d	-0.002017568
1	0xbe6190d9	-0.22027911
2	0x3d24abfc	0.04020308
3	0x3db82c8f	0.08992874
4	0xbe590051	-0.21191527
5	0x3ecdbde6	0.40183944
6	0x3da37be3	0.07982614
7	0x3dced91b	0.10100003
8	0xbe441d2d	-0.19151755
9	0xbd8241df	-0.0636022
10	0xbdff17cc	-0.12455711
11	0x3d853453	0.06504121
12	0x3ca7509c	0.02042418
13	0x3e23f98e	0.16013166
14	0x3e9299ca	0.28632957
15	0xbdbb21d4	-0.091373116
16	0x3d9d04dd	0.07666943
17	0x3e234b69	0.15946735
18	0xbd597240	-0.053087473
19	0x3e0285c7	0.12746345
20	0xbe087b19	-0.13328208
21	0xbd995e77	-0.07488721
22	0xbba5e556	-0.0050627394
23	0xbd5cc913	-0.053902697
24	0xbd0a73c3	-0.033801805
25	0x3d659d2a	0.056058086
26	0x3da59683	0.080853485
27	0xbd2b9610	-0.041891158
28	0xbca81fa8	-0.020522907
29	0x3d15cc27	0.036571648
30	0xbc679703	-0.014135125
31	0xbe357bcc	-0.17723006
32	0x3d479f8e	0.048736148
33	0xbcaf8227	-0.021424366
34	0xbd286a80	-0.04111719
35	0x3d926a20	0.07149148
36	0x3c49634d	0.012291742
37	0x3cbc934b	0.023019454
38	0xbd85e2dd	-0.06537411
39	0x3dd47a4f	0.10374891
40	0x3ab43215	0.0013747836
41	0xbdcf6286	-0.10126214
42	0xbd122ffd	-0.035690296
43	0xbc6c455c	-0.014420833
44	0xbcce0a44	-0.02515138
45	0x3d44385b	0.047905307
46	0xbd450c05	-0.048107166
47	0x3c20088a	0.009767661
48	0x3c6b8335	0.014374544
49	0x3f046e9b	0.5173127
50	0xbf2b7f72	-0.6699134
51	0xbdc49bf1	-0.09600056
52	0x3e0bb973	0.13644962
53	0xbe322c00	-0.17399597
54	0x3cb1551f	0.021647034
55	0xbc6b2335	-0.014351656
56	0x3d75d96e	0.06002181
57	0xbdce65ef	-0.10078036
58	0xbc8c06d1	-0.017093094
59	0x3d8b2387	0.06793886
60	0x3c78695a	0.0151618365
61	0xbd911529	-0.07084114
62	0xbd73ea55	-0.05954965
63	0x3d09882c	0.03357713
64	0x3d82f76e	0.0639485
65	0x3b2ec4cf	0.00266676
66	0xbdcbcba2	-0.09950949
67	0xbe10e963	-0.1415153
68	0xbd7e53ce	-0.06209164
69	0xbd6970aa	-0.05699221
70	0x3dcc3f06	0.09972958
71	0x3d578588	0.05261758
72	0x3d0c6ab7	0.03428146
73	0x3da9ba52	0.08287491
74	0x3dcda629	0.10041458
75	0x3cbae4e5	0.022814224
76	0x3eb672c7	0.35634443
77	0xbecbd5a4	-0.39811432
78	0x3d24c2cc	0.040224835
79	0x3e050676	0.12990746
80	0xbe0971d7	-0.13422333
81	0xbd48bee4	-0.049010172
82	0xbe41338d	-0.18867321
83	0x3df802d0	0.121099114
84	0xbe031f29	-0.12804855
85	0xbf05bc60	-0.5224056
86	0x3eabb1ec	0.3353418
87	0xbda999b9	-0.082812734
88	0x3dd51f6e	0.10406385
89	0xbd4dcf36	-0.05024644
90	0xbd62333c	-0.055224642
91	0xbd35fa4d	-0.04442816
92	0x3e2aa182	0.16663173
93	0xbd914a88	-0.07094294
94	0xbd5fa975	-0.054604966
95	0xbd415f79	-0.04721019
96	0xbc3980be	-0.011322198
97	0x3d0e44f8	0.034733742
98	0xbe72026f	-0.23633741
99	0xbd89f16f	-0.06735503
100	0xbd9f15c1	-0.07767821
101	0x3d331eeb	0.043730658
102	0x3de25b92	0.11052622
103	0x3dbf334d	0.09335957
104	0xbc598dad	-0.013278407
105	0xbd18f8e3	-0.037346732
106	0x3ddcddff	0.1078453
107	0x3d083758	0.033255905
108	0xbc5c6137	-0.013450912
109	0xbce5c468	-0.028047755
110	0x3d4bcc1c	0.0497552
111	0x3d84c433	0.064827345
112	0x3d9c65a2	0.076365724
113	0xbccd8dfa	-0.025092114
114	0x3d845000	0.06460571
115	0xbaac3c1b	-0.0013140471
116	0x3cca992b	0.02473124
117	0x3caa1c5c	0.020765476
118	0xbda7df11	-0.081968434
119	0xbccdfd14	-0.025145091
120	0xbdca5539	-0.09879536
121	0x3e24d92d	0.16098471
122	0xbe0325db	-0.1280741
123	0xbc90c8b8	-0.017673835
124	0xbd3def89	-0.046371017
125	0x3d969f88	0.07354647
126	0x3aec92f2	0.0018049164
127	0xbe2ca577	-0.16859995
128	0x3da9c23a	0.08288999
129	0x3d0234f1	0.03178877
130	0x3db8fce0	0.09032607
131	0x3a56d682	0.00081954163
132	0xbbc4a9c4	-0.006001683
133	0x3d76228c	0.06009154
134	0xbd4ebf1e	-0.050475232
135	0xbd14935e	-0.036273353
136	0x3ce797b6	0.028270584
137	0xbd9bf2e2	-0.076146856
138	0xbdf2f411	-0.11862958
139	0x3d0b6388	0.034030467
140	0x3e1d7fa6	0.15380725
141	0xbcc8149f	-0.024423895
142	0x3d496566	0.049168967
143	0xbc8df424	-0.01732833
144	0x3c0539b6	0.008131435
145	0xbdaaa53c	-0.08332297
146	0x3de93cc8	0.11388546
147	0xbec3de29	-0.38255432
148	0x3ebdf2cc	0.37099302
149	0xbdfe391e	-0.12413238
150	0x3e21c8a4	0.15799195
151	0xbde145bf	-0.10999631
152	0xbc8656e8	-0.016398862
153	0xbe4ff00e	-0.20306417
154	0x3d875897	0.06608694
155	0x3a20550f	0.00061161903
156	0xbd213f0c	-0.039366767
157	0x3e8d1a31	0.27559045
158	0xbd5f53b6	-0.054523192
159	0xbdae8e43	-0.08523228
160	0x3e088b76	0.1333445
161	0x3d206366	0.039157294
162	0x3df9224c	0.12164745
163	0xbe06e1c0	-0.13172054
164	0x3d882e5c	0.06649467
165	0xbdfb82cc	-0.12280807
166	0xbe180381	-0.14845087
167	0x3d9a1b96	0.07524793
168	0x3da803b2	0.0820383
169	0x3e0cb52a	0.13740984
170	0xbe207f7a	-0.15673628
171	0xbdf49417	-0.119423084
172	0xbd5825f3	-0.052770566
173	0x3cd884a0	0.026430428
174	0xbe5199a9	-0.20468773
175	0x3d3f1b08	0.04665664
176	0x3ccc0983	0.02490688
177	0xbd96fa63	-0.07371976
178	0xbcd7c1ca	-0.026337523
179	0xbd72fec6	-0.059325002
180	0x3d53274e	0.051551156
181	0xbcb4381f	-0.021999417
182	0x3d7ff13c	0.06248592
183	0x3e052690	0.13002992
184	0xbc98a5c9	-0.01863374
185	0xbc24529a	-0.010029459
186	0xbd8cc1ea	-0.06872924
187	0x3da23f0e	0.07922183
188	0x3d2e4fdf	0.04255664
189	0xbe47dd13	-0.19517927
190	0xbd9038f8	-0.07042116
191	0x3d9aa959	0.07551832
192	0x3ec353e2	0.38149935
193	0xbe5ced11	-0.21574809
194	0xbddfec1a	-0.10933705
195	0xbd44677f	-0.047950264
196	0xbd32a731	-0.043616477
197	0x3dc3190d	0.095262624
198	0xbcdcf29c	-0.026971154
199	0xbdc2541a	-0.09488697
200	0x3d4fa37e	0.050693028
201	0xbdb01a63	-0.08598783
202	0x3d988c10	0.0744859
203	0xbd140cf6	-0.036145173
204	0x3b19fc7a	0.0023496435
205	0xbb823312	-0.003973373
206	0xbceb7dc2	-0.02874649
207	0xbbde2449	-0.006779228
208	0x3cbc9edf	0.023024974
209	0x3bacd07b	0.0052738762
210	0xbc92eed7	-0.017936153
211	0xbdada068	-0.08477861
212	0xbbc1fcb6	-0.005920018
213	0x3dad740b	0.08469399
214	0xbce8549d	-0.02836066
215	0xbc4f5dad	-0.012656611
216	0xbe1dc9d9	-0.1540903
217	0x3ce0f6f9	0.027461516
218	0xbdae9e0f	-0.08526241
219	0x3e78ef5a	0.24310055
220	0xbe776e73	-0.24163227
221	0x3d069f65	0.032866854
222	0xbd687de1	-0.056760672
223	0x3d6c3f94	0.05767782
224	0x3cd52bcc	0.02602186
225	0xbd3349c8	-0.043771535
226	0x3d861916	0.065477535
227	0xbd18f44b	-0.03734235
228	0xbeb0b2cc	-0.3451141
229	0x3e63279b	0.22183077
230	0xbd7d6292	-0.061861582
231	0x3de9925d	0.1140487
232	0xbe6055d6	-0.21907744
233	0x3c7b70d9	0.015346729
234	0xbd5b4b12	-0.05353839
235	0x3e33a106	0.17541894
236	0xbd960b28	-0.07326347
237	0xbe706840	-0.23477268
238	0x3d10dcbb	0.035366755
239	0xbd1a5f58	-0.037688583
240	0x3e2890fb	0.16461556
241	0xbe820973	-0.25397834
242	0x3bc73cb2	0.0060802335
243	0x3d811bc3	0.06304123
244	0x3d2274a2	0.03966201
245	0xbcc65a04	-0.024212845
246	0x3c832bea	0.01601215
247	0xbbabf8f7	-0.005248185
248	0xbc7ba9ea	-0.015360335
249	0x3cf1a1a6	0.029496025
250	0xbce195d3	-0.027537262
251	0x3cdd767e	0.02703404
252	0x3d0e6db9	0.03477261
253	0x3c562ef2	0.013072716
254	0xbc24034f	-0.010010554
255	0x3d964204	0.0733681

0.body.0.body.0.body.0.bias f4 [16]
0	0x3b67e00b	0.0035381343
1	0xbd4bf918	-0.0497981
2	0x3beb6f2a	0.0071848826
3	0xbcf353e1	-0.029703083
4	0x3d2c684f	0.042091664
5	0x3c380ea1	0.011233957
6	0xbd3cc9c8	-0.04609087
7	0x3d07129f	0.032976743
8	0x3d3efa0d	0.046625186
9	0x3cae6bb7	0.021291597
10	0xbccc4496	-0.024935048
11	0xbcfd553a	-0.030924428
12	0x3d928f91	0.07156289
13	0x3d6f5d61	0.058438662
14	0x3dc2aef4	0.09506026
15	0x3cbe16a3	0.023204153

0.body.0.body.0.body.2.weight f4 [16, 16, 3, 3]
0	0x3e9cd98f	0.30634734
1	0x3e768c4e	0.2407696
2	0x3d127352	0.03575451
3	0x3f363301	0.71171576
4	0x3e7bbbe0	0.24583387
5	0xbd1b4cf2	-0.037915178
6	0x3e3f22a9	0.18665566
7	0xbdc3b079	-0.09555144
8	0x3c15cf51	0.009143666
9	0xbda95100	-0.08267403
10	0xbe543473	-0.20723133
11	0xbdf65201	-0.1202736
12	0xbe4558f7	-0.19272219
13	0xbf7890f5	-0.97096187
14	0xbe9d6b13	-0.30745754
15	0xbe57e5ab	-0.21083705
16	0xbede912b	-0.4347013
17	0xbda4f44b	-0.08054408
18	0x3eee6c31	0.46566918
19	0x3ec8b2d8	0.39198947
20	0x3ea8d1b5	0.32972494
21	0x3d5a3c1f	0.053279992
22	0xbf669ca5	-0.9008277
23	0xbd67e751	-0.056617085
24	0xbf0e2bf7	-0.55535835
25	0xbef8dab2	-0.4860435
26	0xbd97af03	-0.07406428
27	0xbd655a13	-0.055994105
28	0xbe284b1e	-0.16434905
29	0x3c737ae2	0.0148608405
30	0xbe52ef59	-0.20599116
31	0xbefe6d6d	-0.4969286
32	0xbc77c4e6	-0.015122628
33	0xbeb55896	-0.35419148
34	0xbebda257	-0.37037918
35	0xbe186ccb	-0.14885251
36	0x3e3eadd1	0.18620993
37	0x3e1d2be6	0.15348777
38	0xbde7bd02	-0.11315347
39	0x3ecb3a72	0.39693028
40	0xbe203aa3	-0.15647368
41	0x3d46ad29	0.048504982
42	0x3e35a070	0.17736983
43	0x3e52b371	0.20576264
44	0x3d5dfe6f	0.054197725
45	0x3e062bb0	0.13102603
46	0x3e5fd23e	0.21857545
47	0x3d058423	0.03259672
48	0x3ebca793	0.368466
49	0x3f1427cd	0.5787323
50	0x3cfc215f	0.030777631
51	0x3ea03579	0.31290796
52	0x3ec8d60a	0.392258
53	0x3dff9f49	0.12481553
54	0x3d061f6f	0.03274482
55	0xbd1cdc2c	-0.03829591
56	0xbe2ae215	-0.16687806
57	0x3d987a5e	0.07445215
58	0x3c9c1599	0.019053267
59	0xbe1a6293	-0.15076666
60	0xbcf0d3ec	-0.029397927
61	0xbe095b09	-0.13413633
62	0xbdc84d0a	-0.09780319
63	0xbe3ca5cc	-0.18422621
64	0xbcac9513	-0.021067178
65	0x3d8cad0d	0.06868944
66	0x3d2562c6	0.0403774
67	0x3daf2204	0.0855141
68	0x3df47394	0.11936107
69	0xbdde0ef7	-0.10842698
70	0x3e481ada	0.19541493
71	0xbd1b8f52	-0.037978478
72	0xbe7fd8a8	-0.24984992
73	0xbdb65ee6	-0.08904819
74	0xbc880a72	-0.016606543
75	0xbed2700d	-0.41101113
76	0xbe2d207c	-0.16906923
77	0x3d2ad512	0.041707106
78	0xbcdaf6d1	-0.02672902
79	0x3d4538b7	0.04814979
80	0x3d5125ef	0.051061567
81	0xbd8092af	-0.06277978
82	0xbd879165	-0.06619529
83	0xbc7a3238	-0.015270762
84	0xbdf75fe5	-0.12078837
85	0xbe3673e7	-0.1781765
86	0x3bdf2903	0.006810309
87	0xbe0d016a	-0.1377007
88	0xbe31c5ea	-0.17360654
89	0x3de1127b	0.10989853
90	0x3d4c65fe	0.049901955
91	0x3d136b7d	0.03599118
92	0x3d8126c0	0.06306219
93	0xbdbceaaa	-0.09224446
94	0xbdd39ee0	-0.103330374
95	0x3c6e9764	0.0145624615
96	0x3d9ed0f4	0.077546984
97	0x3d5cce4a	0.05390767
98	0x3ce939df	0.028469978
99	0x3db0b149	0.086275645
100	0x3d8806c1	0.06641913
101	0xbcd88c56	-0.026434105
102	0x3f054892	0.5206386
103	0xbea225e5	-0.31669536
104	0xbdded01f	-0.1087954
105	0xbe3d8789	-0.18508734
106	0xbd289e98	-0.04116687
107	0xbd049a85	-0.032373924
108	0x3c8c0dbb	0.017096391
109	0x3d5ced2c	0.053937122
110	0xbd6a3983	-0.057183754
111	0xbdd7abfd	-0.10530851
112	0xbd1ab2b2	-0.037768073
113	0x3d91078d	0.07081518
114	0xbd40a751	-0.047034565
115	0x3d788f0d	0.0606833
116	0x3e3d0650	0.1845944
117	0xbda0c564	-0.07850149
118	0xbdc2b749	-0.09507615
119	0x3c38da73	0.011282551
120	0x3d3a3e5d	0.04546963
121	0xbf000043	-0.500004
122	0x3ee7534c	0.45180738
123	0x3d3f193c	0.046654925
124	0x3e684210	0.22681451
125	0xbdc8c77e	-0.09803675
126	0x3d220d74	0.03956361
127	0xbdcd923f	-0.1003766
128	0xbda1f80e	-0.07908641
129	0x3e1113be	0.14167687
130	0xbd0771da	-0.03306756
131	0x3c08ee3d	0.008357582
132	0x3d194505	0.037419338
133	0xbe231df5	-0.15929396
134	0x3cf42acc	0.029805563
135	0xbe228e7e	-0.15874669
136	0x3d86463f	0.06556367
137	0x3d85f1f8	0.065402925
138	0xbe8daab0	-0.27669287
139	0xbe5e1d8b	-0.21690957
140	0x3b03a74a	0.0020088726
141	0xbe833140	-0.25623512
142	0xbdd7e112	-0.10540976
143	0x3cc650dc	0.024208479
144	0xbc9c60ed	-0.019089187
145	0xbb3242a1	-0.0027200358
146	0x3dd3f494	0.10349384
147	0xbe2807cd	-0.16409226
148	0x3db53f7c	0.08849999
149	0x3db0d3b9	0.08634133
150	0xbddb044a	-0.106941774
151	0xbe933622	-0.28752238
152	0xbdb718ab	-0.08940252
153	0x3c2a7163	0.01040301
154	0x3e946248	0.28981233
155	0x3ec7cf74	0.39025462
156	0x3e6b6b9a	0.22990265
157	0x3f40b690	0.7527857
158	0x3f204d26	0.6261772
159	0x3d9c1ad3	0.07622304
160	0x3e7b9dab	0.24571864
161	0x3f02931d	0.5100573
162	0xbdc8e9ed	-0.09810243
163	0xbc39615d	-0.011314717
164	0xbc84f379	-0.016229378
165	0x3da7860c	0.08179864
166	0x3e27c33e	0.16383073
167	0xbe55766d	-0.20845957
168	0x3e60bdeb	0.21947448
169	0xbe915ed8	-0.28392673
170	0xbebeb70a	-0.37249023
171	0x3e1b9dd4	0.15196925
172	0x3ce946ed	0.028476203
173	0x3d887f84	0.06664947
174	0x3e06f16e	0.13178036
175	0x3e7abfe2	0.2448726
176	0x3da092bd	0.07840488
177	0x3e10c7c1	0.141387
178	0x3e978c5d	0.29599276
179	0x3da98e81	0.082791336
180	0x3f187a55	0.59561664
181	0x3cbe6966	0.023243617
182	0x3df2369c	0.11826822
183	0xbe013daa	-0.12621179
184	0x3ede0e38	0.43370223
185	0xbdc4bac9	-0.09605939
186	0x3e9c2ff8	0.30505347
187	0x3d81b92a	0.06334145
188	0xbdaff918	-0.08592433
189	0xbc5cfd1f	-0.013488083
190	0x3cee2d35	0.02907429
191	0x3d4e9fd3	0.05044539
192	0xbdaff22d	-0.08591113
193	0xbd714d07	-0.05891135
194	0x3d282782	0.041053303
195	0xbe036511	-0.12831523
196	0xbd75fc9f	-0.06005537
197	0x3d8274a5	0.063699044
198	0xbcd625d3	-0.026141083
199	0xbe07b9ff	-0.13254546
200	0x3d9db03d	0.076996304
201	0x3e4f2258	0.20227945
202	0x3e63023a	0.22168818
203	0x3eff9fc5	0.49926582
204	0x3dc549b7	0.096332006
205	0x3e74440d	0.23854084
206	0x3e8922f6	0.26784486
207	0xbd1642fc	-0.036684975
208	0xbc1f95f7	-0.009740344
209	0xbda798d4	-0.081834465
210	0x3d6df9c9	0.05809954
211	0x3d8e3eb4	0.069455534
212	0x3de68c0d	0.11257181
213	0xbccc23f6	-0.024919491
214	0xbdb68728	-0.08912498
215	0x3cee9a0f	0.029126195
216	0xbd833a4d	-0.06407604
217	0x3de8b089	0.113617964
218	0xbb312572	-0.0027030376
219	0x3cd46915	0.025929013
220	0x3d9ca5ab	0.07648786
221	0x3db5c768	0.08875924
222	0x3d8093f0	0.06278217
223	0xbcdf3651	-0.02724758
224	0xbcf582c3	-0.029969579
225	0xbd14c8c0	-0.036324263
226	0xbd4499f6	-0.04799839
227	0xbd3e246e	-0.04642146
228	0xbdf7007a	-0.12060638
229	0xbddee0c6	-0.10882716
230	0xbdc201cc	-0.09472999
231	0x3d9db2d9	0.07700128
232	0x3df18ff7	0.11795037
233	0x3c609a5e	0.013708679
234	0x3da9b641	0.08286715
235	0x3d706b83	0.05869628
236	0x3da3dc83	0.08001044
237	0xbd1b5ef4	-0.03793235
238	0xbd8ac7e9	-0.06776411
239	0xbddaa3fb	-0.10675808
240	0xbc7cc013	-0.015426653
241	0x3c96fc26	0.01843078
242	0x3d7cd57c	0.061727032
243	0x3c70d9bc	0.014700349
244	0xbe41067b	-0.18850128
245	0x3cdabd4c	0.026701592
246	0xbde741f6	-0.11291878
247	0x3e12914c	0.14313239
248	0x3d8827be	0.06648205
249	0x3d9a246a	0.07526477
250	0x3d0ceb79	0.03440425
251	0x3d462368	0.04837361
252	0xbd01c92a	-0.031685986
253	0xbdb0f909	-0.0864125
254	0x3bec3d35	0.007209445
255	0xbd8dff3e	-0.06933449

0.body.0.body.0.body.2.bias f4 [16]
0	0x3de36c96	0.111046955
1	0xbc9d7a5a	-0.01922338
2	0xbd8a24e9	-0.06745321
3	0xbdae96a4	-0.08524826
4	0xbace499b	-0.0015738489
5	0xbdd90716	-0.10597055
6	0xbddb0d10	-0.10695851
7	0x3c272fd3	0.010204273
8	0x3c6b2798	0.014352702
9	0xbd3d7e36	-0.046262942
10	0x3cf0b6b8	0.029384002
11	0x3a8beb66	0.0010675013
12	0xbac59239	-0.0015073485
13	0xbc9bfcbf	-0.019041417
14	0xbd06d264	-0.032915488
15	0x3b4765d4	0.0030425685

0.body.0.body.1.weight f4 [16, 16, 3, 3]
0	0xbcbfcaaa	-0.023412067
1	0x3c23c2b3	0.00999515
2	0x3d0278f8	0.031853646
3	0x3c709df9	0.014686101
4	0x3ecea486	0.40359896
5	0xbd889214	-0.06668487
6	0xbc2ebbcb	-0.0106648905
7	0x3eb4ae82	0.3528939
8	0xbeacea2e	-0.33772415
9	0xbcb1cfdf	-0.021705566
10	0xbde57d5b	-0.1120555
11	0xbdeaa3a7	-0.114569955
12	0x3c93a807	0.018024458
13	0x3da6c5be	0.08143185
14	0xbd3f694b	-0.046731275
15	0x3d83631c	0.06415388
16	0x3caad531	0.02085361
17	0xbc491fa8	-0.012275614
18	0xbdc6183a	-0.096725896
19	0xbd92b108	-0.07162672
20	0xbd87fa1f	-0.06639504
21	0x3cd939da	0.026516844
22	0xbd0c065f	-0.034185763
23	0xbdc91ce0	-0.098199606
24	0xbe77f180	-0.24213219
25	0xbe28e90e	-0.16495153
26	0xbe193cbc	-0.14964575
27	0x3d9b7325	0.075903215
28	0xbd704540	-0.058659792
29	0x3d702bc6	0.058635496
30	0x3e831497	0.25601646
31	0xbe8f8eb8	-0.28038573
32	0xbd8a2953	-0.06746163
33	0x3e0ee91d	0.13956113
34	0xbe0f8364	-0.14014965
35	0xbe36bb65	-0.17844923
36	0xbb97d773	-0.004633838
37	0x3e0a895e	0.13528964
38	0x3c1ba660	0.009500116
39	0x3dcffb44	0.10155347
40	0x3eb9257c	0.3616141
41	0x3e01771b	0.12643091
42	0xbe0191ef	-0.12653325
43	0x3e92bea3	0.2866107
44	0xbdeefce1	-0.116693266
45	0x3dfacc98	0.122460544
46	0x3e0a4cba	0.13505831
47	0xbcfc8cec	-0.030828916
48	0x3ea40b2e	0.3203978
49	0xbd88c0b3	-0.066773795
50	0xbc391b95	-0.01129808
51	0x3db84be4	0.0899885
52	0xbe49533f	-0.19660662
53	0x3d86764b	0.06565531
54	0x3cdc9c8a	0.026930112
55	0x3d827fd1	0.06372035
56	0x3c7e8918	0.015535615
57	0xbe284435	-0.16432269
58	0xbe2fff5d	-0.17187257
59	0xbd4bfa41	-0.049799208
60	0xbe7b73df	-0.2455592
61	0xbe72e830	-0.23721385
62	0x3d7147c3	0.058906328
63	0x3d062078	0.03274581
64	0xbd4a6c10	-0.049419463
65	0xbc2b81c1	-0.010467947
66	0x3d09cfb2	0.03364534
67	0xbd98e1f7	-0.074649744
68	0xbdc34a10	-0.09535611
69	0xbd306ed8	-0.04307446
70	0x3d0a82de	0.03381621
71	0xbd7bb8c0	-0.06145549
72	0xbdc8475b	-0.09779235
73	0x3e514ea5	0.20440157
74	0xbd6547a7	-0.055976536
75	0xbde3491f	-0.11097931
76	0xbcf6bb2b	-0.030118546
77	0x3b01ea54	0.0019823508
78	0xbe53e15a	-0.20691434
79	0x3df01d76	0.11724369
80	0x3d998141	0.07495356
81	0xbd226fef	-0.03965753
82	0x3d2c1f73	0.04202218
83	0x3d948166	0.07251243
84	0x3d9f22a1	0.07770277
85	0x3eb00f84	0.34386837
86	0x3c94575d	0.018108064
87	0x3e5fe889	0.21866049
88	0x3d0cf7eb	0.03441612
89	0xbdef2c2a	-0.116783455
90	0x3beb39cb	0.0071785203
91	0xbe05125b	-0.12995283
92	0xbdac1268	-0.08401948
93	0x3db1a1ee	0.08673464
94	0x3e1eed66	0.15520248
95	0xbd0633cc	-0.03276424
96	0x3d2e6463	0.042576205
97	0x3e4bfcaf	0.1992061
98	0x3e41a148	0.1890918
99	0xbddafb5a	-0.10692473
100	0xbe2af1ce	-0.16693804
101	0x3ad02617	0.0015880492
102	0xbde5f953	-0.112291954
103	0x3de062d8	0.10956353
104	0x3d3aee0d	0.04563718
105	0xbe0be7fe	-0.13662717
106	0x3b6a0075	0.0035705839
107	0x3c0b572f	0.008504673
108	0xbdcddd5a	-0.10051985
109	0xbd48c822	-0.049018987
110	0xbd4d0001	-0.05004883
111	0x3d940d84	0.072291404
112	0x3e5ed512	0.21760967
113	0xbc12812b	-0.008941929
114	0xbe4c37ee	-0.1994321
115	0xbd7f9965	-0.062402148
116	0xbe25f46f	-0.16206525
117	0x3e73b482	0.23799327
118	0x3e2af7fc	0.16696161
119	0x3dd8536f	0.10562789
120	0x3dc933f7	0.09824365
121	0xbd45e206	-0.048311256
122	0xbdf804dd	-0.121103026
123	0xbe2e1258	-0.16999185
124	0xbdcea1e2	-0.100894704
125	0xbe167956	-0.14694723
126	0xbe491008	-0.19635022
127	0xbe844ce7	-0.25839922
128	0xbe87dc33	-0.26535186
129	0xbed9c9ea	-0.4253686
130	0x3d14acbb	0.03629754
131	0xbd593f26	-0.05303874
132	0xbe4849c2	-0.19559386
133	0x3da1bcff	0.07897376
134	0xbe13120c	-0.14362353
135	0x3bd8d70e	0.0066174334
136	0x3d41eb98	0.04734382
137	0xbd738ad8	-0.059458584
138	0x3d5a8e9a	0.05335865
139	0x3cdd0e71	0.026984425
140	0xbe0a01b3	-0.1347721
141	0x3d532ebc	0.05155824
142	0x3c932494	0.017961778
143	0xbd94afdd	-0.07260106
144	0x3d93ecf2	0.07222928
145	0x3e4ae15c	0.1981253
146	0xbc3cc3ba	-0.011521274
147	0xbe52b7b6	-0.20577893
148	0x3eb959b4	0.3620125
149	0x3e9cef5e	0.30651373
150	0xbde417b1	-0.11137331
151	0x3e734127	0.23755322
152	0x3cf1464c	0.029452465
153	0xbc3a4038	-0.01136785
154	0x3dbb7410	0.091529965
155	0x3c8a7169	0.016899781
156	0xbd863357	-0.06552761
157	0x3cffa452	0.031206284
158	0xbde36d9a	-0.11104889
159	0xbdae2c5e	-0.08504556
160	0xbe0f6128	-0.14001906
161	0xbc77ea7e	-0.015131591
162	0x3d7ae1f8	0.061250657
163	0x3d865fd1	0.06561244
164	0x3d587c73	0.05285306
165	0xbe136834	-0.14395219
166	0xbe412fe2	-0.18865922
167	0xbcab06f3	-0.020877337
168	0xbb8fd5b8	-0.004389491
169	0x3d1edd2d	0.03878515
170	0x3bb7e747	0.005612287
171	0x3e561217	0.20905338
172	0x3e59b05a	0.21258679
173	0xbd9ac19c	-0.07556459
174	0x3de18ebd	0.11013553
175	0xbde366bd	-0.1110358
176	0xbd981a0d	-0.07426844
177	0xbdcee4c2	-0.10102226
178	0xbd9b64b7	-0.07587569
179	0xbe08f4f7	-0.13374697
180	0x3d4c8b94	0.0499378
181	0xbdf334e0	-0.118753195
182	0x3da0120c	0.07815942
183	0x3e8fe6ad	0.2810568
184	0x3ccf2e4c	0.02529063
185	0x3e019a73	0.12656574
186	0x3e018c83	0.12651257
187	0x3d6a51cd	0.057206918
188	0x3c8b1963	0.016979879
189	0x3d6bd393	0.05757482
190	0x3de06c53	0.10958161
191	0xbc0512d1	-0.008122162
192	0x3ea4648a	0.32107955
193	0x3c5a3f8c	0.013320815
194	0xbe832219	-0.25611952
195	0x3e672940	0.2257433
196	0x3e2c24c0	0.16810894
197	0x3d0eb5d0	0.03484136
198	0xbd798951	-0.06092197
199	0xbdcb6324	-0.09931019
200	0xbd1c1d7f	-0.038114067
201	0xbbd71639	-0.0065639284
202	0x3bba339f	0.0056824232
203	0xbda65493	-0.081216
204	0xbc4a1ade	-0.012335507
205	0xbd6a2153	-0.057160687
206	0x3d11df56	0.03561338
207	0x3a9b3a95	0.001184302
208	0x3d643ea1	0.05572379
209	0xbdb77a16	-0.08958833
210	0xbd5d17f1	-0.05397791
211	0xbe0842a9	-0.13306679
212	0xbdee0dcb	-0.116237246
213	0xbd925148	-0.071444094
214	0xbdd5480b	-0.10414132
215	0xbd3b7745	-0.04576804
216	0xbdb6839c	-0.08911821
217	0x3dc047a9	0.09388668
218	0xbdab2caf	-0.08358132
219	0xbd54a036	-0.0519106
220	0x3e01e743	0.12685876
221	0xbd2063c3	-0.03915764
222	0xbe642b4a	-0.22282138
223	0x3c276e0e	0.01021911
224	0x3c3ae034	0.011405993
225	0xbea2b814	-0.31781065
226	0xbe7b13d6	-0.24519286
227	0xbd794f84	-0.060866848
228	0xbd1f7e24	-0.038938656
229	0x3eb30314	0.34963286
230	0x3e3dff57	0.18554436
231	0x3de512e0	0.11185241
232	0x3dd2e979	0.102984376
233	0x3d556d35	0.0521061
234	0xbd793bf5	-0.060848195
235	0x3d293e2c	0.041319057
236	0x3d0b8cff	0.03407001
237	0xbe03785d	-0.12838884
238	0xbd2e5768	-0.042563826
239	0x3d843907	0.064561896
240	0xbe4b94bb	-0.19880955
241	0xbe6dd335	-0.232251
242	0xbdda7c81	-0.106682785
243	0xbd09bb4d	-0.03362589
244	0xbd7333b1	-0.05937547
245	0xbc95af5e	-0.018272098
246	0xbc98aebd	-0.01863801
247	0xbd064761	-0.032782916
248	0xbdf1707b	-0.11789032
249	0x3dacd689	0.08439357
250	0x3ce69425	0.028146813
251	0x3db519ac	0.08842787
252	0xbe70e816	-0.23526034
253	0x3d6647ff	0.056221005
254	0xb9317395	-0.00016923093
255	0x3e931045	0.2872335

0.body.0.body.1.bias f4 [16]
0	0x3d72cb1f	0.059275743
1	0x3d90dbc7	0.07073169
2	0x3dd45535	0.103678145
3	0xbd8ffd30	-0.070307136
4	0xbcce9c3b	-0.02522098
5	0xbd3baf2f	-0.045821365
6	0xbdaee13a	-0.08539052
7	0xbdc2f18a	-0.09518726
8	0xbc8a2953	-0.016865408
9	0xbda4aae7	-0.080404095
10	0xbd36b333	-0.04460449
11	0xbdf5cdb7	-0.120021276
12	0x3c019c4d	0.0079108
13	0xbdc487be	-0.09596203
14	0x3d8d9d3b	0.06914755
15	0x3e2d1cff	0.16905592

0.body.1.body.0.body.0.weight f4 [16, 16, 3, 3]
0	0xbce19df6	-0.027541142
1	0x3daa4b2f	0.083151214
2	0x3cc5b70a	0.024135131
3	0xbda8adcb	-0.082362734
4	0xbe80077b	-0.25005707
5	0x3de16179	0.110049196
6	0xbd622c40	-0.05521798
7	0x3c843989	0.016140716
8	0xbcab3c36	-0.020902734
9	0xbd251d41	-0.0403111
10	0x3d985a03	0.074390434
11	0x3d47b88a	0.048759975
12	0x3da4e57a	0.08051582
13	0xbdb2a442	-0.08722736
14	0x39d760ce	0.0004108012
15	0x3d4c0bd0	0.049815953
16	0xbe1d4343	-0.1535769
17	0xbd7adc97	-0.061245527
18	0x3d294456	0.041324936
19	0x3dad020e	0.084476575
20	0xbd39c9b3	-0.04535837
21	0xbbaa3417	-0.005194198
22	0x3dda16c7	0.10648876
23	0xbcaeab05	-0.021321783
24	0x3d52d61f	0.051473733
25	0x3d38b7c9	0.045097146
26	0x3cefcb0d	0.029271627
27	0xbd035dc7	-0.032071855
28	0xbc8379ee	-0.016049352
29	0x3dd8d3fe	0.10587309
30	0xbdb2f90e	-0.0873891
31	0x3cfeface	0.031125452
32	0xbdbe5623	-0.09293773
33	0xbd1a6518	-0.037694067
34	0xbd2ff47b	-0.042957764
35	0x3ca49d55	0.020094553
36	0x3cb8bad7	0.02255003
37	0x3da52fd9	0.08065767
38	0xbd9499dc	-0.07255909
39	0x3d3df33f	0.046374556
40	0x3dd3bb76	0.1033849
41	0x3ab4b157	0.0013785762
42	0xbc5ec124	-0.013595853
43	0x3d649295	0.055803854
44	0xbdda1c0d	-0.106498815
45	0x3d76d71b	0.060263734
46	0xbd300d7c	-0.04298161
47	0x3b481b6a	0.0030533918
48	0x3deb2e57	0.11483448
49	0x3c38ff3e	0.011291323
50	0xbc433507	-0.011914498
51	0x3d6d13f7	0.057880368
52	0x3d99c6eb	0.07508644
53	0xbc84e0bb	-0.016220441
54	0x3d7c673d	0.061621893
55	0x3c85eb86	0.016347658
56	0x3dad8c13	0.08473983
57	0x3d2c7da4	0.042112008
58	0xbdcdb3ed	-0.10044084
59	0xbd239638	-0.03993818
60	0x3da773b3	0.08176365
61	0x3c336cb8	0.010951214
62	0x3d8128ac	0.06306586
63	0x3b5ed31b	0.003400034
64	0xbbe1aa31	-0.0068867435
65	0x3da11e6c	0.07867131
66	0xbd1469b8	-0.036233634
67	0xbe39a50c	-0.18129367
68	0x3d4209e8	0.04737273
69	0x3d6fe34c	0.058566377
70	0xbd5dfe66	-0.05419769
71	0x3d36b460	0.044605613
72	0x3b50155d	0.0031751015
73	0xbb2ef259	-0.0026694743
74	0xbb161541	-0.0022900852
75	0xbc9bd7b2	-0.01902375
76	0x3d9e0efe	0.07717703
77	0x3be7a936	0.007069732
78	0xbd5dcd40	-0.05415082
79	0x3d907252	0.07053055
80	0x3bcd275c	0.0062607955
81	0x3c33b2d0	0.010967925
82	0xbcffcc69	-0.0312254
83	0xbce26958	-0.027638122
84	0xbd2583cf	-0.040408906
85	0xbdbc5736	-0.09196322
86	0xbce9ce17	-0.028540654
87	0x3ccfa10c	0.025345348
88	0x3def3d9f	0.11681675
89	0xbc8074d3	-0.015680706
90	0xbd350fe3	-0.044204604
91	0xbdc5e0bb	-0.096620046
92	0xbd92c473	-0.07166376
93	0x3cba2bac	0.022725902
94	0x3d1fe6f2	0.039038606
95	0x3d933cc2	0.07189323
96	0x3dae0f38	0.084989965
97	0x3d8cafb9	0.06869454
98	0xbc28984c	-0.010290217
99	0x3d7ebdf7	0.062192883
100	0x3d597d60	0.053098083
101	0xbc85bbe7	-0.01632495
102	0xbd7452e3	-0.05964936
103	0x3dc777fe	0.097396836
104	0xbd2103a0	-0.039310098
105	0x3d8271b5	0.06369344
106	0x3ccc5f51	0.024947794
107	0xbd0a8c79	-0.03382537
108	0x3d531bd7	0.051540222
109	0x3cb3b394	0.021936215
110	0xbde8eda0	-0.11373448
111	0x3e2c2e74	0.16814595
112	0xbc3f578b	-0.011678587
113	0x3c9bab34	0.019002534
114	0x3daf83ad	0.08570037
115	0x3e0cc287	0.13746081
116	0xbd912994	-0.070880085
117	0x3cc3b770	0.02389118
118	0xbc503b30	-0.012709424
119	0x3ddb584e	0.10710202
120	0xbd1b0947	-0.037850644
121	0xbd87668e	-0.06611358
122	0xbc820f84	-0.015876539
123	0xbdb2ee8d	-0.08736906
124	0xbd015a0d	-0.03158002
125	0x3dd19b72	0.10234727
126	0xbd6cb026	-0.057785176
127	0xbdea8a93	-0.11452212
128	0xbe070973	-0.13187198
129	0xbcee90a6	-0.029121708
130	0x3ddc27af	0.107497565
131	0xbc4519da	-0.012030089
132	0xbd2f651b	-0.04282103
133	0x3d7719e6	0.060327433
134	0xbcab94ee	-0.020945039
135	0x3d4ce22f	0.050020393
136	0xbcd536e7	-0.026027156
137	0x3e26ee5c	0.16301864
138	0xbe388812	-0.18020657
139	0xbe5f3cfa	-0.21800604
140	0x3d9fe0a7	0.07806521
141	0xbd1fe8e6	-0.03904047
142	0xbd00cde6	-0.03144636
143	0x3ddd1880	0.10795689
144	0xbd97b7ab	-0.07408079
145	0x3d44a8d9	0.04801259
146	0x3d69f0ba	0.05711434
147	0x3cdb5023	0.02677161
148	0x3cc38b75	0.02387021
149	0xbcdf8a53	-0.027287638
150	0xbcbb31ff	-0.022850988
151	0x3e2a5b53	0.166364
152	0xbd529181	-0.051408295
153	0x3dec7bff	0.11547088
154	0xbe1b137b	-0.1514415
155	0xbd9fca54	-0.07802263
156	0x3d1592c5	0.036516923
157	0xbe1225ff	-0.14272307
158	0x3e8837d4	0.26605093
159	0x3e20d5ad	0.15706511
160	0xbe0465a2	-0.12929395
161	0x3d0bfa82	0.03417445
162	0x3c81b3ea	0.01583286
163	0x3e1bf7f8	0.15231311
164	0xbd43cdd3	-0.04780371
165	0x3d4a0d7c	0.049329266
166	0x3e08ac4f	0.1334698
167	0xbd8229eb	-0.063556515
168	0x3ddd9af1	0.10820568
169	0x3e0ffde3	0.14061694
170	0xbc4dd070	-0.012561902
171	0x3d4a5e67	0.049406435
172	0xbd1156f4	-0.035483316
173	0x3e1efd1a	0.15526238
174	0x3e342bb7	0.17594801
175	0xbd4419a9	-0.047876034
176	0x3e1597e6	0.14608726
177	0x3c4d051c	0.012513425
178	0xbd400ae6	-0.046885394
179	0x3d7bfa20	0.061517835
180	0xbd2db57b	-0.0424094
181	0xbcbc5d24	-0.022993632
182	0xbe04f2ed	-0.12983294
183	0x3ce0a352	0.027421627
184	0xbd0e875e	-0.034797065
185	0x3d287a71	0.041132394
186	0xbdc84dea	-0.09780486
187	0xbdc6fcae	-0.097161636
188	0xbe263b8e	-0.16233656
189	0x3cf1bdc4	0.029509433
190	0x3e0e0380	0.13868523
191	0x3e348676	0.17629418
192	0x3e08a1e9	0.13343014
193	0x3decaf3f	0.11556863
194	0xbe28676c	-0.16445702
195	0x3ca58511	0.020205053
196	0xbd02ad27	-0.031903412
197	0x3d02b4ed	0.031910826
198	0x3c67c71a	0.014146591
199	0x3ca152ad	0.019692743
200	0x3cb47354	0.022027649
201	0x3d0bc938	0.034127444
202	0x3c98a8ce	0.01863518
203	0x3bb15260	0.005411431
204	0xbd7d075f	-0.061774608
205	0x3da69f7f	0.0813589
206	0xbc91e977	-0.01781152
207	0x3de9c52f	0.11414563
208	0x3b8bbdf0	0.0042645857
209	0x3de4434c	0.11145648
210	0x3dd5921e	0.1042826
211	0x3eaf73ce	0.3426804
212	0x3e9e4e47	0.30919096
213	0x3e16c660	0.14724112
214	0x3e34f7e8	0.17672694
215	0x3e2d06e1	0.16897155
216	0x3d96819e	0.07348941
217	0xbe25d068	-0.16192782
218	0xbdf5486a	-0.119767025
219	0xbd8ab93c	-0.06773612
220	0x3e06e801	0.1317444
221	0xbccf004c	-0.025268696
222	0x3d57a9b8	0.05265209
223	0xbd4eb4dc	-0.05046545
224	0xbc7eb0c2	-0.015545072
225	0x3d63d0db	0.055619102
226	0x3d8d8b67	0.069113545
227	0xbd178548	-0.03699234
228	0xbd430667	-0.047613528
229	0x3d6d3e47	0.05792072
230	0x3e00fb04	0.12595755
231	0xbcd895d1	-0.026438626
232	0xbd37d26f	-0.04487842
233	0x3d221080	0.039566517
234	0x3ce1cd97	0.027563853
235	0x3d07ec4c	0.033184335
236	0xbd859289	-0.0652209
237	0x3df93fa3	0.12170341
238	0x3e01441a	0.12623635
239	0xbcf3b979	-0.029751526
240	0xbcb271fc	-0.021782868
241	0x3d165920	0.03670609
242	0xbd1b5a38	-0.037927836
243	0x3ae50c4a	0.0017474976
244	0x3cf2ac0c	0.029623054
245	0xbe4939c2	-0.19650939
246	0x3e386fe2	0.1801143
247	0x3e6b3bdf	0.22972058
248	0xbe86225f	-0.26198098
249	0xbdd74f26	-0.10513143
250	0xbafe3cc0	-0.0019396767
251	0xbe648381	-0.2231579
252	0x3c9ab710	0.01888612
253	0x3bad25cd	0.005284047
254	0x39f8d1c5	0.00047458537
255	0x3d1437c1	0.036185984

0.body.1.body.0.body.0.bias f4 [16]
0	0xbf00b3c9	-0.5027433
1	0xbd87aff1	-0.06625355
2	0xbd7922ec	-0.06082432
3	0xbbb74a97	-0.0055936086
4	0xbdb0cd4a	-0.08632906
5	0x3cbcc32f	0.02304229
6	0xbc67d2c1	-0.014149369
7	0x3db1ad6d	0.086756565
8	0x3d9dc92e	0.077043876
9	0xbd624e83	-0.055250656
10	0xbcb09556	-0.021555584
11	0x3d4057c3	0.046958696
12	0x3d6b9282	0.057512768
13	0x3d23164e	0.039816193
14	0xbd5abbce	-0.05340176
15	0x3ddf05ff	0.108898155

0.body.1.body.0.body.2.weight f4 [16, 16, 3, 3]
0	0xbe1f4cc8	-0.15556633
1	0xbe1c7004	-0.15277106
2	0xbce28517	-0.027651353
3	0xbdbed7d1	-0.093185075
4	0xbdf8db89	-0.12151248
5	0xbd96277e	-0.07331751
6	0xbdef2aca	-0.11678083
7	0xbe3bd888	-0.18344319
8	0xbd25f660	-0.040518165
9	0xbbb8b7ec	-0.0056371596
10	0x3e09d1f6	0.13459
11	0x3d634b30	0.055491626
12	0x3df5f6eb	0.120099865
13	0xbe515fda	-0.2044672
14	0xbe25f18b	-0.16205423
15	0x3e6be280	0.23035622
16	0x3c2ce6d3	0.01055308
17	0xbd83d45a	-0.06436987
18	0xbdca11f0	-0.098667026
19	0xbde2369d	-0.11045573
20	0x3c2ee9e1	0.010675878
21	0x3d9fc230	0.0780071
22	0x3c19a9bf	0.0093788495
23	0x3d95ff6b	0.07324108
24	0x3de6281d	0.1123812
25	0x3d6e3d4a	0.05816392
26	0x3c8daaf7	0.017293436
27	0xbe1ded06	-0.15422449
28	0x3d01eadc	0.03171812
29	0xbe5ed601	-0.21761324
30	0xbe80881b	-0.2510384
31	0x3e0693c9	0.13142313
32	0xbe583cfa	-0.2111701
33	0xbe155245	-0.14582165
34	0xbdf75d23	-0.12078311
35	0xbdb112c3	-0.08646157
36	0x3dc9eba1	0.09859396
37	0xbcf4cc00	-0.029882431
38	0x3dc6d946	0.0970941
39	0x3e0753ae	0.13215515
40	0xbe7a0779	-0.24416913
41	0xbda641bd	-0.08118007
42	0x3bc2cd8e	0.005944914
43	0xbdf65420	-0.12027764
44	0xbd8e7d46	-0.06957488
45	0x3dd9afcd	0.106292345
46	0x3d3618b9	0.04445717
47	0x3daa1a44	0.08305791
48	0xbcbd02fe	-0.023072716
49	0xbcd2d62a	-0.025736887
50	0xbcd04366	-0.025422763
51	0xbd93ca25	-0.072162904
52	0x3d52adb7	0.0514352
53	0xbd1fe020	-0.0390321
54	0x3eed79f7	0.46382114
55	0x3f038afd	0.51383954
56	0x3e5a86fa	0.21340552
57	0x3eca02c0	0.39455223
58	0x3ecfaf02	0.40563208
59	0x3e618cac	0.22026318
60	0x3eb8f0c7	0.361212
61	0x3eae42a1	0.3403521
62	0x3e575529	0.2102858
63	0xbdd54011	-0.1041261
64	0xbd8ce680	-0.06879902
65	0xbe1691f0	-0.14704108
66	0x3d5b4e6e	0.053541593
67	0xbd5e2d71	-0.054242555
68	0xbdc93192	-0.09823908
69	0xbd10d925	-0.035363335
70	0xbce19d1f	-0.027540741
71	0xbd985332	-0.07437743
72	0x3dc0c2bf	0.09412145
73	0x3a9cc78b	0.0011961324
74	0x3d6ae918	0.0573512
75	0x3d5b701d	0.053573716
76	0x3c9ee48d	0.01939609
77	0xbcdb70a2	-0.026787106
78	0x3aa02997	0.0012219426
79	0x3d06dfcc	0.032928273
80	0x3c59a1c8	0.013283201
81	0xbde3c6bf	-0.11121892
82	0xbc8c3598	-0.0171154
83	0xbd4bbd5e	-0.04974114
84	0xbd6fee27	-0.05857673
85	0x3d750daa	0.059827484
86	0xbca493c2	-0.020089988
87	0xbd628726	-0.05530467
88	0x3d041f66	0.032256506
89	0x3ceb5d15	0.028730908
90	0xbf77cfaa	-0.96801245
91	0xbf84d00c	-1.0375991
92	0xbed9c57d	-0.42533484
93	0xbf4e9e13	-0.8070995
94	0xbf7710b8	-0.96509886
95	0xbee52b9e	-0.4475984
96	0xbef4e4bb	-0.47830757
97	0xbf04b6f5	-0.5184167
98	0xbe98b757	-0.29827377
99	0xbc382818	-0.011240028
100	0x3d0f2029	0.03494278
101	0x3b291775	0.0025801335
102	0x3d9b7153	0.07589974
103	0x3e019387	0.12653933
104	0x3cd1cb21	0.025609555
105	0x3db1f093	0.08688464
106	0x3c0e21d6	0.008675059
107	0x3d0f8299	0.035036657
108	0x3c389cee	0.011267884
109	0xbd0e9248	-0.034807473
110	0xbcf6257a	-0.030047167
111	0xbcac9acb	-0.021069905
112	0xbc86b6a5	-0.016444514
113	0xbcafc43d	-0.021455878
114	0x3c7b7cd6	0.015349587
115	0xbceb4c68	-0.028722957
116	0x3d202095	0.039093573
117	0xbd542ede	-0.05180251
118	0x3dc3ccc9	0.09560544
119	0x3d545558	0.051839203
120	0x3d2d29aa	0.042276062
121	0x3bec0978	0.007203277
122	0xbb966c83	-0.0045905723
123	0x3ca12929	0.019672947
124	0x3de524ed	0.11188684
125	0x3da73093	0.08163562
126	0x3d196574	0.03745027
127	0xbd20dd43	-0.03927351
128	0xbd22c282	-0.03973628
129	0xbd6960ef	-0.05697721
130	0xbe040f76	-0.12896523
131	0xbd82a07c	-0.06378266
132	0xbd6fc930	-0.058541477
133	0xbe10c27e	-0.14136693
134	0xbdb64192	-0.08899225
135	0x3d6d4c71	0.05793423
136	0x3c63e1c7	0.01390881
137	0x3d25b034	0.040451244
138	0x3d868688	0.065686285
139	0x3b383bc0	0.0028111786
140	0x3bc11fd9	0.005893689
141	0x3b4cf4f3	0.003127393
142	0x3bb452d9	0.0055030403
143	0x3c2de254	0.010613043
144	0xbe0bbf10	-0.13647103
145	0xbe227acc	-0.15867156
146	0xbcd4e6c8	-0.025988951
147	0xbe1a217f	-0.1505184
148	0xbea51052	-0.32239014
149	0x3dc8f1d6	0.098117515
150	0x3b433d52	0.0029791188
151	0x3de32854	0.11091676
152	0x3e0cc004	0.13745123
153	0x3cec7447	0.02886404
154	0x3c863b95	0.016385833
155	0x3c4fc93f	0.012682258
156	0xbe8f26dd	-0.27959338
157	0xbe09be10	-0.1345141
158	0x3c8f488f	0.017490653
159	0x3b4628d3	0.0030236735
160	0xbd9464d9	-0.07245798
161	0x3b38a9c5	0.0028177362
162	0x3d052cae	0.032513313
163	0xbdfdf958	-0.12401074
164	0xbd882033	-0.066467665
165	0x3db5dc28	0.08879882
166	0xbdf4df21	-0.11956621
167	0xbd11386a	-0.03545419
168	0xbdd0de9b	-0.101987086
169	0x3d464ec6	0.048414968
170	0x3e0c14b9	0.1367978
171	0x3c1915d6	0.009343585
172	0xbdcc2b4d	-0.099691965
173	0xbe738c9b	-0.23784105
174	0xbe0fb1b4	-0.14032632
175	0xbdc09898	-0.09404105
176	0xbc8517bc	-0.016246669
177	0x3cf89b19	0.030347394
178	0x3dfb02b7	0.12256377
179	0x3ddedf30	0.108824134
180	0x3c16af2c	0.009197038
181	0xbe012766	-0.12612686
182	0xb984744e	-0.00025263656
183	0xbcc43f2b	-0.023955902
184	0x3cafddfb	0.021468153
185	0x3cf987ef	0.030460326
186	0xbdfa79d7	-0.1223027
187	0xbd110cc1	-0.035412554
188	0x3e09f110	0.13470864
189	0x3dbc0d04	0.0918217
190	0x3d94d28f	0.07266723
191	0x3d11000f	0.035400447
192	0x3da83226	0.0821269
193	0x3c7c29a0	0.015390784
194	0x3db5eac9	0.08882672
195	0x3d43c565	0.047795672
196	0x3da1227a	0.07867904
197	0x3cdbe1c6	0.026841056
198	0xbea09a4b	-0.31367716
199	0xbee48a93	-0.44636974
200	0xbe9c7e5a	-0.3056515
201	0xbdde1e7f	-0.108456604
202	0xbe664020	-0.22485399
203	0xbe7731b5	-0.24140055
204	0xbe85f807	-0.26165792
205	0xbebc299a	-0.3675049
206	0xbeb59cfa	-0.35471326
207	0xbe813b10	-0.25240374
208	0xbe80d411	-0.25161794
209	0x3d20760b	0.039175075
210	0xbe3383cc	-0.17530745
211	0xbe11eeb5	-0.14251216
212	0x3d550d24	0.052014485
213	0xbe767861	-0.24069358
214	0xbe466d04	-0.19377524
215	0x3c29b078	0.010357015
216	0xbbf53da5	-0.0074841552
217	0x3d855ab2	0.065114394
218	0xbd8b2ddf	-0.067958586
219	0x3b9c665e	0.0047729453
220	0x3c8271d8	0.015923426
221	0x3b308e29	0.0026940203
222	0x3d695e71	0.056974832
223	0x3da231e5	0.07919673
224	0xbdf1eb4e	-0.11812459
225	0xbc2cc1f2	-0.010544287
226	0xbd87ab7e	-0.066245064
227	0xbd7e80db	-0.062134605
228	0x3d92c024	0.07165554
229	0xbe495643	-0.19661812
230	0x3bc35734	0.005961323
231	0x3da6bad5	0.08141104
232	0x3d0560c1	0.032562975
233	0x3d6bf4f4	0.057606652
234	0x3f122cd0	0.5709963
235	0x3f3287bd	0.6973837
236	0x3eeb4401	0.4595032
237	0x3e638be3	0.22221331
238	0x3ee997c7	0.4562361
239	0x3eede21c	0.4646157
240	0x3ecdf56c	0.40226305
241	0x3f06b260	0.5261593
242	0x3f06d2d4	0.5266545
243	0x3ba02ca3	0.0048881336
244	0x3df0ba3b	0.11754271
245	0x3c70195a	0.014654482
246	0xbd6ba626	-0.0575315
247	0x3e101ccd	0.14073487
248	0x3c3ddf13	0.01158883
249	0xbc27e508	-0.010247476
250	0x3cfd9f1c	0.030959658
251	0xbccbc69b	-0.024874976
252	0x3ca1b0cb	0.019737622
253	0x3ccca5a7	0.024981333
254	0x3bd88e5f	0.006608769
255	0xbd770aa8	-0.060312897

0.body.1.body.0.body.2.bias f4 [16]
0	0x3cfae3f3	0.030626273
1	0xbbab739d	-0.005232288
2	0x3da1d1fd	0.0790138
3	0xbd9bb39e	-0.07602619
4	0xbce1862d	-0.0275298
5	0xbc99b05b	-0.01876085
6	0x3d188875	0.03723951
7	0xbc28e00d	-0.010307324
8	0xbe1c88be	-0.15286538
9	0x3e167fa5	0.1469713
10	0xbdcd2a49	-0.10017831
11	0x3d90c0f5	0.07068054
12	0xbceb414c	-0.02871766
13	0x3cd29fd6	0.025710981
14	0x3d452c19	0.048137758
15	0x3e0b72b3	0.13617973

0.body.1.body.1.weight f4 [16, 16, 3, 3]
0	0xbd91fe14	-0.0712854
1	0x3d673ce3	0.05645455
2	0xbd68469d	-0.056707967
3	0xbcaae8f5	-0.020863036
4	0x3cab9e1d	0.020949418
5	0x3cd5e87b	0.026111832
6	0xbd193efa	-0.037413575
7	0xbd7cc387	-0.061709907
8	0xbd91b848	-0.07115227
9	0xbc99e22d	-0.018784607
10	0xbda8fbcf	-0.08251154
11	0xbd75a21e	-0.05996906
12	0xbe021060	-0.12701559
13	0xbe12edfb	-0.14348595
14	0xbcd84d9a	-0.02640419
15	0x3d5a432c	0.053286716
16	0xbc5a443a	-0.013321931
17	0x3db5806f	0.088623874
18	0x3c871de6	0.016493749
19	0xbd4149d8	-0.047189564
20	0xbcc5c941	-0.024143817
21	0xbc773263	-0.015087697
22	0xbd6df520	-0.058095098
23	0x3c8b1b8f	0.016980914
24	0x3dc81d72	0.09771241
25	0x3d2ec532	0.04266853
26	0xbb2b8f57	-0.0026177967
27	0x3b09d5e1	0.0021032023
28	0x3e0239a3	0.12717299
29	0xbccfb0e5	-0.025352905
30	0xbdb35ddb	-0.08758136
31	0xbd279065	-0.04090919
32	0x3d9cb320	0.07651353
33	0xbc5137a0	-0.01276961
34	0x3db70449	0.08936364
35	0xbd1c73e7	-0.03819647
36	0x3b31cf8c	0.0027131764
37	0xbdce0f01	-0.100614555
38	0xbde67636	-0.11253016
39	0x3d1ee695	0.03879412
40	0xbdbbd273	-0.091709994
41	0xbdbec50d	-0.09314928
42	0x3d6caf1a	0.057784177
43	0x3d282af2	0.04105658
44	0xbd3ab31b	-0.045580965
45	0x3d6acd21	0.057324532
46	0xbc70426f	-0.0146642765
47	0xbbfc8609	-0.007706408
48	0x3c5f1375	0.013615479
49	0xbd2e71e2	-0.042589076
50	0xbd583b91	-0.052791182
51	0x3d14c9d6	0.0363253
52	0xbe03592c	-0.12826985
53	0xbe0474ac	-0.12935132
54	0xbd8457e1	-0.06462074
55	0x3c64ef71	0.013973103
56	0xbc8a1f3a	-0.016860593
57	0xbd9c7979	-0.076403566
58	0x3cb5f5ed	0.022211993
59	0x3c84f530	0.016230196
60	0xbe22cf44	-0.15899378
61	0xbd3ba9de	-0.045816295
62	0xbdc979ed	-0.098377086
63	0x3d97bd8a	0.074091986
64	0xbde2bc8e	-0.1107112
65	0x3bdf81cb	0.0068208924
66	0x3bb8a744	0.005635174
67	0x3dfdf029	0.123993225
68	0x3e5037d9	0.20333804
69	0x3d00022b	0.031252068
70	0x3c89b1eb	0.01680847
71	0x3c243fb1	0.010024951
72	0xbda23310	-0.07919896
73	0xbc92495d	-0.017857248
74	0xbb31bdab	-0.0027121108
75	0xbd6ebe23	-0.058286797
76	0xbe57d78c	-0.21078318
77	0x3ddbe151	0.10736335
78	0x3db246e9	0.08704931
79	0x3d960ac2	0.07326271
80	0x3c6ea161	0.014564843
81	0xbd399779	-0.04531047
82	0xbe458df4	-0.19292432
83	0xbcd5294e	-0.026020672
84	0x3e11b482	0.14229015
85	0xbdd566f8	-0.1042003
86	0xbd02e6ce	-0.031958394
87	0x3d9461fc	0.072452515
88	0x3d2c0e91	0.04200608
89	0x3d75bedd	0.059996475
90	0x3cbd13e2	0.02308077
91	0xbd982119	-0.07428188
92	0xbd3a945e	-0.04555165
93	0x3d9780d0	0.07397616
94	0x3dddf577	0.10837834
95	0x3c153502	0.009106876
96	0x3d875bd6	0.06609313
97	0x3c8b9f5b	0.01704376
98	0x3ce63cf5	0.028105238
99	0x3c4a0e14	0.012332458
100	0x3acac502	0.001547009
101	0xbdcde165	-0.10052756
102	0xbd81fd51	-0.063471444
103	0x3d728ac6	0.059214376
104	0xbdc20973	-0.094744585
105	0xbd7ed30a	-0.06221298
106	0x3d1e61dd	0.03866755
107	0xbaccbf1f	-0.0015620923
108	0x3d11bee1	0.035582427
109	0x3d186756	0.037207924
110	0xbcbbeb2b	-0.022939285
111	0x3e36bd78	0.17845714
112	0x3dfcbd17	0.123407535
113	0xbd52e06d	-0.05148356
114	0x3b1135c9	0.0022157303
115	0x3e180440	0.14845371
116	0x3d36d7c6	0.04463937
117	0xbc8443a0	-0.016145527
118	0xbccdefcd	-0.02513876
119	0x3c8c2c0d	0.017110849
120	0xbd21d24f	-0.039507207
121	0xbd9db0be	-0.076997265
122	0x3d6d5cab	0.057949703
123	0x3c78a09a	0.015175009
124	0x3c2d2117	0.010566971
125	0x3d533f0b	0.051573794
126	0x3d7b751d	0.061390985
127	0xbccbb760	-0.024867713
128	0xbd77e9ce	-0.060525708
129	0x3dd7a626	0.10529737
130	0xbc1f43ef	-0.0097207865
131	0x3b00fbaa	0.0019681253
132	0xbd9a5a43	-0.07536747
133	0xbbab5213	-0.00522829
134	0x3c8df772	0.017329905
135	0xbd04ff8f	-0.032470282
136	0x3c172ced	0.00922702
137	0xbd11569d	-0.03548299
138	0x3dcc8ee2	0.0998819
139	0x3d88d869	0.06681902
140	0x3c63cfe3	0.0139045445
141	0x3d09203d	0.03347801
142	0xbd76e625	-0.060278077
143	0xbdc0335e	-0.093847975
144	0xbd6b5be5	-0.057460684
145	0xbce7bac9	-0.028287308
146	0x3c04cc27	0.008105314
147	0x3d3e74b0	0.046498
148	0x3cb0cbde	0.021581586
149	0x3d8ee6ec	0.069776386
150	0xbb3ce539	-0.002882315
151	0xbd9b39b3	-0.07579365
152	0xbd012abd	-0.0315349
153	0x3b776379	0.00377485
154	0xbd77882b	-0.060432594
155	0xbda0071f	-0.07813858
156	0xbdf49420	-0.11942315
157	0xbe056603	-0.13027196
158	0xbd5675b5	-0.052358348
159	0x3da9a496	0.082833454
160	0xbcc37412	-0.023859058
161	0x3d6d1e1a	0.057890035
162	0xbce5e078	-0.028061137
163	0xbd399fa7	-0.045318272
164	0xbc9d2396	-0.019182008
165	0xbbf3cfb1	-0.00744053
166	0x3cb276c0	0.02178514
167	0xbc852b0f	-0.016255883
168	0x3cfc77a0	0.03081876
169	0xbda5c4ce	-0.08094178
170	0xbcd95613	-0.026530301
171	0xbd3e9ca7	-0.046536114
172	0x3c39e49d	0.01134601
173	0x3c3942d5	0.011307438
174	0xbd18cf5a	-0.03730712
175	0x3d1a0b92	0.03760869
176	0xbd2017b2	-0.039085098
177	0xbb8e158a	-0.0043360638
178	0x3b981666	0.004641342
179	0xbd93bbd8	-0.07213563
180	0x3cbe8866	0.0232584
181	0xbc15ca22	-0.0091424305
182	0xbc29cc67	-0.010363675
183	0x3de1647b	0.11005493
184	0xbe48fe0c	-0.19628161
185	0xbd54126b	-0.051775377
186	0x3bec2f77	0.0072078067
187	0xbc81b518	-0.015833423
188	0x3b8cf8c3	0.0043021156
189	0xbd386a2b	-0.045023125
190	0xbd999998	-0.07499999
191	0x3c617a89	0.013762125
192	0x3d2b881a	0.041877843
193	0xbdc8f2f0	-0.09811962
194	0xbcfb8a5e	-0.030705627
195	0xbccc5a03	-0.024945265
196	0xbdbfe817	-0.093704395
197	0xbd8956c9	-0.06706006
198	0xbdd32629	-0.10310013
199	0xbd8ed95c	-0.06975052
200	0xbc83f456	-0.01610772
201	0xbe0020c1	-0.12512495
202	0x3c33ad3e	0.010966597
203	0x3d1b6443	0.037937414
204	0xbd688872	-0.05677075
205	0xbd90f48a	-0.07077892
206	0xbd5b0265	-0.05346908
207	0xba90394d	-0.0011003405
208	0x3d607293	0.054796766
209	0x3c6625e3	0.014047119
210	0xbcce5aad	-0.025189722
211	0x3ce61bca	0.028089423
212	0x3c88de92	0.016707692
213	0xbd470d0f	-0.048596438
214	0xba1dfa34	-0.0006026358
215	0x3d378028	0.044799954
216	0x3c8b9b69	0.017041879
217	0x3cab1a90	0.02088669
218	0xbc803c59	-0.015653776
219	0x3d30e9d4	0.043191746
220	0xbbc3131f	-0.005953207
221	0xbcd23e3e	-0.025664445
222	0xbc142d7c	-0.009044047
223	0x3d9bc134	0.0760521
224	0xbce4ba17	-0.027920766
225	0xbcfa42b0	-0.030549377
226	0xbd55e996	-0.052224718
227	0xbcff6806	-0.031177532
228	0x3db4d995	0.08830563
229	0x3c910a75	0.017705182
230	0xbd2e430a	-0.042544402
231	0xbd3eec46	-0.046612047
232	0x3d545cc9	0.0518463
233	0x3db0ad9c	0.08626863
234	0xbd4302c3	-0.047610056
235	0x3d6f3558	0.058400482
236	0x3d5da93b	0.05411647
237	0xbd0fa1c0	-0.035066366
238	0x3d24347e	0.040089123
239	0x3ce44400	0.027864456
240	0x3d4d9537	0.05019113
241	0xbd5d0ebd	-0.053969134
242	0x3c94f589	0.018183487
243	0x3cff443a	0.031160463
244	0x3d14ff67	0.036376383
245	0x3cc1cdf3	0.023657775
246	0xbd07e5a2	-0.03317798
247	0xbc96384e	-0.018337395
248	0xbd87d20c	-0.0663186
249	0x3cea32ec	0.028588735
250	0xbc133f31	-0.008987234
251	0x3bcaae45	0.0061853253
252	0xbcfa3301	-0.030541899
253	0xbd07e810	-0.033180296
254	0xbc81cb4c	-0.01584401
255	0x3e22f929	0.1591536
